assets/animals/crab/crab_direct.pth (torch, 731416 bytes, 36 tensors)

value_mean_std.running_mean f8 [1]
000000 1c a0 8c 26 af 25 f7 3f
       1.4467002397377717

value_mean_std.running_var f8 [1]
000000 34 d3 4a 28 ef e6 25 40
       10.951043376096642

value_mean_std.count f8 []
000000 00 00 00 08 00 a0 89 41
       53739521.0

running_mean_std.running_mean f8 [66]
000000 bb 27 db 57 02 5b 9a 3f e5 ed 86 03 47 b1 54 bf
       0.025737797367390885 -0.001262969350235171
000010 06 ed 03 6c ee 11 87 bf 57 69 c4 51 6f 79 65 3f
       -0.01126467005859989 0.0026213812071890596
000020 83 17 d2 59 26 18 91 3f d5 66 40 54 db fd 7a 3f
       0.016693686706751542 0.006589752916647836
000030 4a f8 cb 63 44 89 75 3f de 9c 5b cb 46 ef f9 3f
       0.0052578612783219045 1.6209171241442202
000040 68 d4 d3 da dd 14 cd 3f 51 38 aa c8 61 ef f9 bf
       0.22719929871496736 -1.620942863318778
000050 7b 75 52 d6 ef df ee 3f c5 bf 76 e9 d0 07 ef bf
       0.96483604297434 -0.9697041091767394
000060 65 da 6e 5e b6 d1 db bf 0b b5 a2 1d aa c6 e7 bf
       -0.43467482778524974 -0.7430010393924545
000070 2b 65 d3 f9 cf 46 dc bf 57 87 fe 4f 9b a3 db 3f
       -0.4418220462517463 0.43186075984896405
000080 b0 5e 4e 59 24 ee eb bf a7 29 f6 57 81 21 a5 bf
       -0.8728200668583295 -0.0412712497591941
000090 19 ac e6 67 40 57 e1 bf 70 e2 eb 54 77 18 cb bf
       -0.5419008282964369 -0.21168414732507612
0000a0 be 4b 2b ac 98 dd d7 bf 12 ec b2 db b1 62 e3 bf
       -0.3729001695002657 -0.6057977000231196
0000b0 de f5 99 43 ec bb eb bf 7c ed 68 b2 93 8b ed bf
       -0.8666898079242704 -0.9232882008140417
0000c0 2e 38 25 e6 03 5a dd 3f d2 eb c0 51 06 87 e6 bf
       0.45861909365783304 -0.7039825054883926
0000d0 79 ce bb 61 b7 fe e8 bf ef ca 3c 06 23 53 cb bf
       -0.781093302618003 -0.2134746342140583
0000e0 e3 d0 5e 74 c5 dc e9 bf 8e 6e b4 06 07 00 aa bf
       -0.8081996224268803 -0.05078145939679955
0000f0 d7 13 e0 3f 60 2f 7a bf 6a 8e 49 f4 31 94 84 bf
       -0.006392837500247737 -0.010048284785802514
000100 fe b5 72 86 c8 86 70 bf 9b 7c 77 80 a2 14 48 bf
       -0.004034789372935331 -0.0007348817315992075
000110 36 f0 a2 40 17 b8 79 bf 96 4e ff 26 1c 48 68 3f
       -0.006279078321480161 0.0029640722131974535
000120 e9 a4 4e dd 0b 43 7e bf 1a c9 24 dc 15 49 77 bf
       -0.007388159127836171 -0.005684934034706291
000130 cd 2c 14 48 b0 45 70 bf 5b 19 14 64 cf b2 6b 3f
       -0.003972710227809273 0.0033811617473730577
000140 0b dc 08 9c 4f 3c 49 3f d7 bf 5b cd 0e 1e 4b 3f
       0.000770129081565042 0.000827557780864292
000150 98 ca fa 7b 57 c4 86 3f e2 86 86 05 8c 20 5d 3f
       0.011116679640826008 0.0017777793310433322
000160 30 f4 07 e6 8a 43 86 bf b9 00 78 b9 ce a9 7a bf
       -0.010871014733306067 -0.006509597318199827
000170 ab ae 87 43 69 1e 86 bf 11 e2 5a f4 b1 8a 79 bf
       -0.010800192235328984 -0.0062357856128803105
000180 30 e7 84 c3 e5 95 bf bf 81 83 26 6c 71 25 cb bf
       -0.12338100455681622 -0.21208017140181926
000190 67 7d b6 21 1b 02 c0 bf b0 3a 51 fd a7 fb b7 3f
       -0.12506426950583746 0.0936837190103954
0001a0 21 fc 08 2e 3c 43 d8 bf d5 f6 10 b7 d4 f0 82 3f
       -0.3791037034570213 0.009248411022891126
0001b0 0b 43 50 ab 34 22 c9 bf 6f 43 94 fe cb 41 93 bf
       -0.1963563763133823 -0.018805682576445045
0001c0 49 02 92 5e 28 17 ab bf e4 41 2c 7b 7e 2d c4 bf
       -0.05291105417655168 -0.15763836874295045
0001d0 c5 ad 4c b7 e1 d4 d0 bf a0 1e fc 00 57 8e d3 bf
       -0.2629932680162848 -0.3055627355210877
0001e0 32 40 ce 3c 6d 57 a6 3f 4c 9e 71 7b 28 97 c4 bf
       0.043635762856070306 -0.16086298015146594
0001f0 f1 21 68 b0 d9 2c d2 bf 96 f0 4e ae 32 af c5 bf
       -0.2839874479982703 -0.16940911780500717
000200 23 18 c8 49 09 40 d3 bf eb 6a b3 b5 a6 de 70 bf
       -0.3007834644816986 -0.004118586740527101

running_mean_std.running_var f8 [66]
000000 59 2d 63 87 60 24 c8 3e 23 1d 59 a7 86 a7 04 3f
       2.877962340529981e-06 3.9395138554493865e-05
000010 8f e9 41 06 83 62 27 3f 30 b1 46 55 b5 33 2c 3f
       0.0001784119550654714 0.00021516407526912243
000020 b6 01 b8 3e 7d 8b 90 3f 79 4e 01 ce 82 64 a1 3f
       0.01615710921578436 0.03396996273718584
000030 b5 db 28 a8 14 bd 39 3f 99 80 a2 8c dd 97 55 3f
       0.0003927398139781894 0.001317945820609656
000040 65 25 20 cd 5b 9a 80 3f a1 2f 9e 1c be 97 55 3f
       0.008106915662227274 0.0013179165420948785
000050 4c 95 c1 04 51 07 31 3f c8 6d 5e bd 1f a0 2c 3f
       0.00025983551018378816 0.0002183951134469965
000060 c9 5b 40 ca c3 ff da 3f 29 52 e7 e1 f6 06 c5 3f
       0.42186064482796987 0.16427503614853947
000070 10 c8 cc 5e fa eb d0 3f bf c9 66 12 f5 d7 cf 3f
       0.26440295465283814 0.24877799414168852
000080 87 a1 3d 10 57 88 be 3f 23 ae e7 29 20 f7 c7 3f
       0.1192678846979388 0.18722917600767727
000090 58 bb 6a ce ac d2 c3 3f 05 fa c0 d8 d8 25 cd 3f
       0.15486679152442195 0.2277175005310285
0000a0 b3 1e 94 97 a2 ec cd 3f 77 a2 d3 7f e2 90 d5 3f
       0.23378403092669017 0.3369680641467662
0000b0 15 c6 e0 74 6e 67 c0 3f 2d e3 ee d5 b8 d9 ae 3f
       0.128156477994296 0.06025483714569755
0000c0 4d c1 f3 26 9e a7 ce 3f 1d f2 c1 44 b7 b7 cc 3f
       0.23949028875314085 0.2243565641146156
0000d0 d2 a1 13 c2 51 20 d1 3f 70 7a ae d3 97 72 e3 3f
       0.2675976176529079 0.6077384123235117
0000e0 e7 10 a7 d3 67 51 ce 3f ec 27 69 f3 d4 dc d4 3f
       0.23685930094337168 0.32597850580771026
0000f0 a1 71 67 15 8c 23 92 3f 80 af 1b b1 7f 19 7a 3f
       0.017713726812745304 0.0063719737970407975
000100 5f 52 1a e3 5e 1d 96 3f 40 95 0f bd 57 78 aa 3f
       0.02159641514897925 0.051699392155379886
000110 e5 dc 07 d8 da 5c 69 3f 23 e0 91 cf e3 61 80 3f
       0.0030960344595275407 0.007999210140255347
000120 f3 08 4d 06 8f 12 a6 3f 5c 29 dd 72 27 f5 8f 3f
       0.043110341567187314 0.015604313080662173
000130 39 96 50 61 05 9b 98 3f 16 92 d8 9e 31 1b 8d 3f
       0.02402885824644427 0.014212024364561631
000140 df 91 24 9e f7 15 75 3f 42 18 18 01 59 03 73 3f
       0.00514790273362961 0.0046418644647073255
000150 e5 14 ec d8 42 60 9e 3f 7f 72 e9 36 73 88 85 3f
       0.029664082040672297 0.01051416407897787
000160 0f 14 8c 39 12 27 6d 3f 69 ac 42 ae 57 0b b2 3f
       0.0035586696579934583 0.07048557285695413
000170 8b d8 21 67 fb c0 70 3f 84 6e 62 f6 25 d5 8f 3f
       0.0040902920173860975 0.01554326685100383
000180 d1 1b ec 54 3d 95 db 3f 1c 82 5e 59 e6 68 d5 3f
       0.43098386090462976 0.3345275757547215
000190 c5 0c 14 f4 91 cc d9 3f ab 61 a7 4a a0 a7 e4 3f
       0.403110969884619 0.6454621751864144
0001a0 e3 25 61 ff 15 cc d1 3f 58 62 ba 73 b9 c6 d6 3f
       0.27808141650584 0.3558791761547915
0001b0 88 49 dd 8c 93 7e e0 3f 04 58 27 a0 33 cf d8 3f
       0.5154512168176533 0.38764658584602807
0001c0 31 5c 4e 2a 14 44 d9 3f 3a aa f2 14 5a 9d d5 3f
       0.39478019839720263 0.33772899671263057
0001d0 c7 e1 f7 c9 d2 13 d3 3f f0 a2 15 c5 84 e9 d1 3f
       0.2980849239679881 0.27987784620795164
0001e0 d0 34 04 1f 42 98 da 3f 1f ab d0 e6 29 03 d6 3f
       0.41554310826252294 0.3439430955938167
0001f0 3c ba 46 95 c5 7b d3 3f b0 c9 b9 c2 7f 24 e1 3f
       0.3044294317032017 0.5357054522740352
000200 3b 3b 39 cb c2 a5 d2 3f 0c 81 0c e6 60 be d5 3f
       0.29136724325228486 0.3397447821207755

running_mean_std.count f8 []
000000 00 00 00 10 00 a0 79 41
       26869761.0

a2c_network.sigma f4 [18]
000000 48 40 5f bf ea c0 52 bf 35 08 68 bf 76 52 7a bf
       -0.8720746 -0.82325613 -0.9063752 -0.97782075
000010 61 a8 7b bf f5 b3 66 bf b2 92 81 bf 98 94 6a bf
       -0.983038 -0.9011834 -1.0122893 -0.91632986
000020 51 3d 59 bf 7d 7c 5d bf 5a 24 72 bf bb 51 7e bf
       -0.84859186 -0.8651808 -0.9458672 -0.9934346
000030 e3 69 85 bf c4 5b 75 bf f5 fd 78 bf a5 a6 7e bf
       -1.0422939 -0.9584315 -0.9726251 -0.9947303
000040 90 49 7c bf 0e 6a 72 bf
       -0.9854975 -0.94693077

a2c_network.actor_mlp.0.weight f4 [256, 66]
000000 5b e7 24 3d 0f b3 85 bd 1c d1 a8 3b 59 17 4a bd
       0.0402597 -0.06528293 0.005151881 -0.049338672
000010 b7 b5 cf 3d 55 e2 f9 3c e5 43 06 3e d7 6b d5 bd
       0.10142081 0.030503431 0.13111837 -0.104209594
000020 6c 1e 28 be 58 6a c0 bd 10 62 b4 bd cf ad 55 3d
       -0.16417855 -0.093952835 -0.088077664 0.05216771
000030 29 8b 8e 3d 9e 82 0e 3e 20 1d 2f bd ac f3 94 bd
       0.069601364 0.13917014 -0.042752385 -0.07273039
000040 ca 59 7f 3d 6d 6a 81 bd 57 df dc 3d 0b 07 9d ba
       0.06234149 -0.06319127 0.10784786 -0.0011980248
000050 73 14 7f 3d 29 3e bd bd a9 c6 7f bd 1e 15 60 3d
       0.06227536 -0.09240372 -0.062445316 0.05470764
000060 2a 00 79 bc 34 2f bd bc 4d c2 f1 3d c5 87 f4 3d
       -0.015197793 -0.023093797 0.11804638 0.119399585
000070 c8 03 71 bd 5c 66 8e bd 8a f8 fd 3d d2 69 87 3b
       -0.058841497 -0.06953117 0.12400921 0.004132488
000080 4d d7 b7 bc 35 c4 01 be 69 2a 80 bd 3f fb 00 3c
       -0.02244153 -0.12672503 -0.06258089 0.007872402
000090 01 74 c1 bc 45 ee 55 bd 3a 67 5e 3c a7 51 50 bd
       -0.023614885 -0.052229185 0.013574416 -0.05085912
0000a0 ac dd fc bd 43 01 98 bd 19 76 51 be b5 70 ca bd
       -0.12346968 -0.07422116 -0.20455207 -0.098847784
0000b0 51 3e df 3d 8e 72 94 3d ed ce 41 3d dc 03 ea bd
       0.10900558 0.07248412 0.04731648 -0.11426517
0000c0 d7 27 99 bd db 0c 65 bd 24 3d a5 3c dd 05 a1 bd
       -0.07478302 -0.055920463 0.020170756 -0.078624465
0000d0 0f 7c 5a bc b6 a2 84 bd 76 a6 86 bc 42 36 b0 bc
       -0.013335242 -0.06476347 -0.016436797 -0.021510247
0000e0 90 87 1b 3c 7d 2f b9 bd e0 f4 95 bd 18 b3 59 bd
       0.00949277 -0.09042261 -0.07322097 -0.053149313
0000f0 5f 36 cf bc 97 a1 a1 bd af 90 be 3d ec d0 cf bc
       -0.02529448 -0.07892149 0.0930494 -0.025368176
000100 48 59 d1 3d b5 3a b8 3c c4 f8 e8 bd be b4 3c 3e
       0.10222107 0.022488931 -0.11375573 0.18428323
000110 39 31 b5 bd 2d ef 73 be f4 25 ac bd 63 40 e7 bd
       -0.08847279 -0.23821707 -0.084056765 -0.11291578
000120 6e 10 b2 bb 2e 4e 7c bc 8e 86 69 3d 42 36 e6 bd
       -0.0054340875 -0.015399499 0.057013087 -0.112408176
000130 43 68 9c 3d d9 3c 93 bd d0 e0 ee 3a 29 de 07 3d
       0.07637074 -0.0718934 0.0018224958 0.033170853
000140 68 10 31 3d e1 72 42 3e 11 b9 d0 3d a7 db ca bd
       0.043228537 0.18989135 0.101915486 -0.099051766
000150 71 2f ef 3d da bd f0 bd 27 18 a9 bc f4 f3 cb bd
       0.116789706 -0.11754961 -0.0206414 -0.0995864
000160 58 d7 dd 3d 02 87 d4 bd 4d a5 4e 3d 6f 10 31 3d
       0.10832089 -0.10377313 0.05045061 0.043228563
000170 b0 c5 09 3d 79 5a 21 3d 1c 55 12 3e bc 26 00 3d
       0.033635795 0.039392922 0.14290279 0.03128694
000180 96 35 0d 3b ca a4 c1 bd 73 fb 9e 3d 82 5b 0b bc
       0.0021546832 -0.09455259 0.07762804 -0.008505704
000190 dd 50 8d bc 69 be 4e 3d 26 20 c5 3d 17 95 be bd
       -0.017250473 0.050474558 0.096252725 -0.093057804
0001a0 4f 01 3d bd d1 63 4f bd 7f 5c a6 3d 6a 0d 29 bd
       -0.046143826 -0.0506323 0.08123111 -0.04127256
0001b0 90 18 e3 bd ba f0 11 bd 4c 44 d1 bd 6e 53 80 3d
       -0.11088669 -0.035629965 -0.10218105 0.06265913
0001c0 84 16 0f 3e 56 7f 8f bd 08 cd 26 3c ad f3 93 3d
       0.13973433 -0.07006709 0.010180719 0.07224212
0001d0 ff 88 c3 ba 29 a6 97 bc 2d 2b 9d 3c cb 7d cd 3c
       -0.0014918147 -0.018511849 0.019185627 0.025084397
0001e0 3b d5 8b bc 65 40 78 3c 40 04 f2 bc 30 db a2 bc
       -0.01706945 0.015152072 -0.029543042 -0.019879907
0001f0 0d 2a 2b bd 0c 16 1c 3c fa ea 5d 3d 75 79 54 3d
       -0.04178815 0.009526741 0.05417917 0.051873643
000200 a7 89 1a bc 70 10 87 bc 20 9e 86 3b a0 d0 41 38
       -0.009432233 -0.01648733 0.0041082054 4.6209083e-05
000210 d7 51 cc 3d 3b ff 85 3d c8 65 ad bd b0 3b c1 3d
       0.09976547 0.06542822 -0.08466679 0.094352126
000220 01 43 a3 3d 55 cc 44 3d 36 75 0b bd 38 c1 c4 bd
       0.07971764 0.04804643 -0.034047328 -0.09607166
000230 e5 f1 8b bd 2c 4a b6 bd cd d6 14 bd 8b 9b b3 3c
       -0.06833247 -0.08900866 -0.036337662 0.021924755
000240 4d ff df 3d fc d8 af 3d ea b8 ce bd 51 ce 5e be
       0.10937367 0.08586308 -0.10093863 -0.21758391
000250 bb 25 67 bd 0c c4 26 3e 02 a7 b0 bc 41 23 5e 3d
       -0.056432467 0.16285723 -0.02156401 0.05423284
000260 49 79 05 3d 4f 66 64 bd 04 f5 54 bd d3 c0 c2 3d
       0.03258637 -0.05576163 -0.051991478 0.095094346
000270 1e 2c 7b bd 62 cf a1 3c 62 70 04 be 20 e5 3d 3d
       -0.06132137 0.019752208 -0.12933496 0.04636109
000280 63 76 9e 3d 10 0c 7e 3c fc 86 96 bd 55 98 08 be
       0.07737424 0.015505806 -0.07349965 -0.1333936
000290 17 29 97 bd 58 a9 1e 3e 10 30 a7 3c 5c 85 dc 3d
       -0.07380884 0.15494287 0.02040866 0.10767624
0002a0 8d 67 d7 3d 57 d4 fd ba 4a 6f fd bb 73 c5 e8 bd
       0.105177976 -0.001936565 -0.007734214 -0.113657854
0002b0 17 78 57 bd 1b 8b e3 bd 64 c8 ed 3b b7 17 a7 bd
       -0.05260476 -0.11110517 0.0072565544 -0.0815882
0002c0 cc e7 81 bd 0b b4 ef bd b2 88 a4 ba c1 52 b2 bd
       -0.0634304 -0.11704262 -0.0012552945 -0.0870719
0002d0 b5 dc 80 bd ce 85 bd 3c e0 32 4c bd 41 5d f2 3d
       -0.062920965 0.023135092 -0.049853206 0.11834193
0002e0 ce a9 42 3c 20 7f d9 bd bf a5 3c 3c 9e 0b 63 bd
       0.011881305 -0.1061995 0.011514126 -0.055431
0002f0 9e da 82 3c 0d 0e e1 bd 21 b9 a6 3d 67 0a a6 bd
       0.015973385 -0.10989008 0.08140779 -0.08107453
000300 42 ca 20 3d 81 81 10 ba 41 ec 9f 3d 53 9e 0f be
       0.039255388 -0.00055124616 0.07808734 -0.1402524
000310 4f 32 03 3e 89 6e cf bd 4f 75 5c 3d c9 d8 ed 3d
       0.1281216 -0.10128505 0.05382281 0.11613614
000320 36 99 05 bc db 6d 8b bd f2 1f 50 bd fd 39 de bd
       -0.008154204 -0.06808063 -0.050811715 -0.10850904
000330 ce 64 32 3d af 6c c4 bd 4f 1a 9b 3d de fd 86 3d
       0.043553166 -0.09591042 0.07573377 0.0659139
000340 aa fe 10 3e 21 8a 28 bd 5c 03 9a bd f4 9a b8 ba
       0.14159647 -0.041147355 -0.07520172 -0.0014084266
000350 90 93 ea 3d 63 9b 2c be 39 fe 64 bd 23 c6 cc bd
       0.114539266 -0.1685615 -0.055906508 -0.09998729
000360 50 2f 52 bd 32 d3 7c bd 0e ac a2 bd d7 64 b7 bd
       -0.051314652 -0.06172485 -0.07942973 -0.089547805
000370 16 bd 0e be 72 fa fb 3d e1 a8 db 3d 3a bf 5a bd
       -0.13939318 0.12303628 0.107255705 -0.053405024
000380 cd 6c 32 bd 1e 9c 6e bd 0e 40 a7 bd 3f 10 c9 bd
       -0.04356079 -0.058254354 -0.08166514 -0.09817552
000390 ab 31 1b 3d 40 f9 6f bd 22 66 83 bd c9 1a ae 3a
       0.037889164 -0.058587313 -0.06415965 0.0013283129
0003a0 94 80 9b bd d2 5f f6 bc b6 4b 98 bc 34 f0 59 3b
       -0.07592884 -0.030074988 -0.01859079 0.0033254744
0003b0 43 a5 71 bd 73 b1 b1 bd 20 4f f7 bd d8 fc 55 3e
       -0.058995496 -0.08676424 -0.12075639 0.20897233
0003c0 12 59 05 bc fb fc 18 bd 31 d7 78 bd 2b b5 83 bc
       -0.008138912 -0.037350636 -0.060752098 -0.016077599
0003d0 dd d7 0f 3e 6c e6 93 3d b6 84 a8 bd 0b 63 3c 3d
       0.14047189 0.07221684 -0.082284376 0.045992892
0003e0 03 3f ae 3c 51 e6 1e 3d 7c 98 85 3d 37 8f 02 3e
       0.02127028 0.038793866 0.06523225 0.12749945
0003f0 6e a7 1f bd 56 6c 58 bd 09 42 a1 bd 35 74 ae bd
       -0.038978033 -0.052837692 -0.07873923 -0.085182585

a2c_network.actor_mlp.0.bias f4 [256]
000000 e8 da de 3b 85 e0 e0 bd ef 12 ab 3d 1c d9 c7 3c
       0.006800998 -0.10980324 0.08353221 0.024395518
000010 38 c6 96 3d 74 d6 51 3c af 2f a4 3c 5b 7e 39 bc
       0.07362026 0.012807477 0.020042269 -0.011321629
000020 ec 70 b6 3c f3 e6 f7 3c ab 82 74 3c 24 4d 8d bd
       0.022270642 0.030261492 0.014923732 -0.06899479
000030 f8 d1 fc bc 5f 53 84 3d 98 43 8d 3b 8d df 10 3d
       -0.03086184 0.06461214 0.0043110363 0.035369445
000040 82 4b 92 bb 9e 3d 7a bb 7d 82 e0 bb 7d 1c ae bc
       -0.0044645676 -0.00381837 -0.006851493 -0.021253819
000050 c0 a1 46 3d 5b c3 30 3d f8 3d 0c bd 2b 79 eb 39
       0.0484941 0.043155055 -0.034238786 0.0004491297
000060 88 0d 1b bd 18 9a 9f bd 85 09 ab b9 4c ad fb bb
       -0.0378547 -0.07793063 -0.00032622754 -0.0076805707
000070 66 a8 36 bd ee 2e 76 3c a4 a1 ed bb f8 05 8a 3c
       -0.04459419 0.015025837 -0.007251935 0.01684855
000080 ec 3f 20 3d c6 19 0b 3d ec 55 90 3c 4f fd 00 3d
       0.03912346 0.033960126 0.017619096 0.031491574
000090 29 41 27 3c a7 b9 e3 3c a7 18 5c 3c a5 ff 9b bb
       0.0102084065 0.027798487 0.013433612 -0.0047607
0000a0 10 4f 52 bd 28 2d 2a 3d 38 ff b7 39 cd a6 96 bd
       -0.05134493 0.04154697 0.00035094633 -0.073560335
0000b0 02 25 1c 3d ad 39 d8 bd bc db d2 bb 41 86 1f 3d
       0.03812123 -0.10557876 -0.006434886 0.038946394
0000c0 48 d3 76 bc 53 4b 56 3d b5 14 02 bb 12 2e a1 bc
       -0.015065022 0.05231793 -0.0019848768 -0.019675288
0000d0 c2 f2 df 3b dd 25 86 bb db f7 5c 3d 79 18 b1 bc
       0.006834359 -0.004093869 0.05394731 -0.021618115
0000e0 6d cc 91 ba fd 52 91 3c cc 48 2f bc c2 92 5f bb
       -0.0011123546 0.017739767 -0.0106985085 -0.0034114574
0000f0 7c c4 a9 bc 1c f5 fd bc e9 14 97 3d bd 8a 13 3d
       -0.020723574 -0.031000666 0.07377035 0.036020983
000100 1c 1e 24 bc 8d a4 18 3d aa 7f 9e bc 97 d0 9c bb
       -0.010016944 0.037266303 -0.019347984 -0.004785608
000110 d6 e8 cc 3d 5a da 05 bd b2 c9 ab 3c 73 b3 70 3c
       0.100053474 -0.03267894 0.0209702 0.0146912215
000120 72 de 37 bc 03 a2 f9 3d 6b c0 25 3b 66 d5 f9 3b
       -0.011222469 0.121891044 0.0025291692 0.007624316
000130 b8 7c e5 3c ee 98 40 3d a6 9f a2 3b 59 99 20 bd
       0.028013572 0.047020845 0.0049628792 -0.039208744
000140 6a 3f 1d bb a5 36 a3 3c 69 22 b0 bb 49 4c 96 bc
       -0.0023994097 0.019923517 -0.0053751958 -0.018346922
000150 75 57 a3 3c 71 81 ef 3c 49 58 22 3d 0f 9b fe 3c
       0.019939164 0.029236527 0.039634977 0.031079797
000160 5d 10 d8 3c c4 5b 88 3d 64 a0 68 3c ef 2f 1c 3c
       0.02637499 0.06658128 0.014198396 0.009532913
000170 db 26 d0 bc 38 83 98 3d e8 75 a8 bd 6c 49 85 3d
       -0.025409153 0.07446903 -0.08225614 0.06508145
000180 34 a8 8b 3d 39 bb f2 3c 89 71 eb bc e5 f6 58 3c
       0.068191916 0.02963029 -0.028740661 0.013242458
000190 a7 f0 7c 3c f3 ff 0e bc 99 65 ac 3d 49 0f 73 3d
       0.015438235 -0.008728015 0.08417816 0.05934075
0001a0 66 77 60 3d e2 54 80 3b c2 bd d1 3a 6e 82 86 3d
       0.054801367 0.003916369 0.0016001987 0.06567846
0001b0 8c c6 44 3d df 5e ab bc 63 c2 3c 3d 1e 4f 50 3c
       0.04804091 -0.020919262 0.04608382 0.0127141755
0001c0 e2 fb 9f 3b 9f e5 80 bd 88 49 23 3c 90 45 10 3d
       0.0048823217 -0.06293797 0.009966262 0.03522259
0001d0 f7 7b f9 3c ab d4 2d bc 35 cf 67 3d a0 a3 94 3c
       0.030454619 -0.010609786 0.056594092 0.018144429
0001e0 db bd 0f bd 0c a7 25 bc ae b1 9e 3d d7 25 74 3c
       -0.03509317 -0.010110628 0.077487335 0.0149016
0001f0 3b e9 a0 3c 7e 36 ab 3a 17 21 06 bd ca cf 78 3c
       0.019642463 0.0013062505 -0.0327464 0.0151862595
000200 b1 9e e4 bc 79 23 50 bc 08 ee 9f bd 35 62 d2 bc
       -0.027907701 -0.01270377 -0.07809073 -0.025681594
000210 cb 02 da bc b3 0a e7 3c 43 15 9b 3c 68 84 ed 3c
       -0.02661266 0.028203344 0.018931037 0.0289938
000220 7f 48 71 3d 0a fa a4 3c 9d 87 66 bd d9 6d 26 3d
       0.05890703 0.02013876 -0.056281675 0.040632103
000230 4e 0f 9e bd 2b 1f 28 bd 3e 4c 05 3d 35 f1 ea bc
       -0.07717763 -0.04104535 0.032543413 -0.02867947
000240 74 4b 41 bb 86 5a 12 3b fc 3c 27 bb 0c db 24 3c
       -0.0029494436 0.0022331788 -0.0025518527 0.0100619905
000250 12 f0 ad 3c bf 25 ed bc cd d7 b2 bb 34 61 94 3b
       0.021232639 -0.028948663 -0.0054578544 0.004528189
000260 19 4b 1d bd fb 2c 45 bc bd dc c0 3c 1f 11 af 3c
       -0.038401697 -0.01203465 0.023542756 0.021370469
000270 3e 6b c1 3b 5a c3 00 3d 96 7f 6b bb c7 d4 7c 3d
       0.005902677 0.0314363 -0.0035934201 0.061726358
000280 e5 11 00 3d a3 fe 23 bd f2 8f 1a 3c c5 a9 ed 3b
       0.031267066 -0.040037762 0.009433733 0.007252904
000290 5e 35 a1 bd e0 8a 49 3c c4 4d 3a 3d 06 77 36 bd
       -0.07871507 0.012301177 0.04548432 -0.044547103
0002a0 cf 1e 0b 3d 29 a1 41 3d 29 40 7d bc e2 83 3d 3b
       0.03396493 0.047272835 -0.0154571915 0.002891772
0002b0 5d c1 41 3b 5e 45 10 3d 2f 70 65 3c 9e 39 05 3d
       0.0029564716 0.035222404 0.014003797 0.03252565
0002c0 51 25 2e bc 36 e2 7c 3c ab 7d 0e bc 65 ac 52 bd
       -0.010629014 0.015434792 -0.008696954 -0.05143394
0002d0 24 67 42 3d 42 d9 27 3d d9 87 b7 bb 51 9f ff 3c
       0.047461644 0.040978678 -0.005600911 0.031203898
0002e0 42 9b a5 3d b8 00 01 3d 53 16 8e 3b 95 63 27 ba
       0.08086254 0.031494826 0.0043361573 -0.00063853833
0002f0 dc b7 b6 3c 95 f9 0f ba c8 e9 b6 bc 55 1c e4 ba
       0.022304468 -0.0005492208 -0.022328272 -0.0017403463
000300 bf 0c aa bc e6 99 1a bc 09 a9 71 3d 1e 0d 33 bc
       -0.020758031 -0.009436106 0.058999095 -0.01092842
000310 cb 76 38 3c a7 d0 3b 3c 88 a8 15 3b d8 4f 2b 3d
       0.011258791 0.011463321 0.0022836048 0.04182419
000320 9a 9d 46 3e ea 39 42 3d 76 46 3a bc 98 55 a1 3d
       0.19396058 0.047418512 -0.011369338 0.07877654
000330 b9 c3 57 3d 8c 06 85 3c 49 72 95 bb e8 bb f8 3c
       0.05267689 0.016238473 -0.004560743 0.030363038
000340 e5 68 99 bc 71 b6 8f 3c 5f 45 39 bc d2 b8 ed 3c
       -0.018726775 0.01754305 -0.011308043 0.029018793
000350 7e 84 8e 3c 83 dc 14 3b 1c c3 e7 3c 4b a7 5e 3b
       0.017397162 0.0022714443 0.028291278 0.0033974226
000360 36 4b 60 bd cb 01 7a bb 82 e0 30 3c 44 45 48 3c
       -0.054759227 -0.0038148041 0.010795714 0.012223545
000370 67 4a 47 3c 62 7e 18 3c 02 02 3b 3d 3f 15 27 3d
       0.012163735 0.009307476 0.04565621 0.040791746
000380 68 d7 7e bc 62 26 8b 3b aa 91 9d 3c 4f 3a 8f bc
       -0.015554287 0.004246519 0.019234497 -0.017483858
000390 0a 2e a5 3a 62 fd ce 3c ae df e0 3c ce e2 4c 3d
       0.0012602222 0.025267307 0.027450409 0.050020985
0003a0 ea e3 84 3d 84 e6 a7 3c 12 0c 83 bc 87 92 23 3d
       0.06488784 0.02049566 -0.015996967 0.03993466
0003b0 0b 4b f6 3c 66 fd 06 3c 3a 54 80 bd 2b 4c 52 3d
       0.03006508 0.008239126 -0.06266065 0.05134217
0003c0 aa d8 0e bc 6c 2d 5d 3d 8c 36 de 3b d4 6d 8a 3d
       -0.008718649 0.053998396 0.006781405 0.06759229
0003d0 cd f4 36 3d 11 f4 91 3d 41 c7 8d 3c 7d 0a 8c 3b
       0.044667054 0.0712663 0.017306926 0.0042737112
0003e0 06 43 91 3c 33 d8 49 bd 85 a3 84 bc 40 71 a3 3d
       0.017732155 -0.04927845 -0.016191253 0.07980585
0003f0 a2 fe 5d bc ef a4 2c bd 13 8c 3c bb 72 ee d8 3b
       -0.013549479 -0.04214948 -0.0028770014 0.006620222

a2c_network.actor_mlp.2.weight f4 [128, 256]
000000 93 fc fa 3c 1c d1 81 3d 55 8a ba bd 65 6b 42 3b
       0.030638015 0.063387126 -0.09108416 0.0029666063
000010 80 be 21 bd ca 14 3f bd b7 79 e3 bd 31 9d 48 bc
       -0.039488316 -0.046650685 -0.111072 -0.012244509
000020 3f fa 8c ba 9e 9b 2d bd c5 66 44 3d c6 1b 8d 3d
       -0.0010755731 -0.042384736 0.04794957 0.06890063
000030 cc ff 72 bd 5b cd 06 bd 57 22 d9 b9 88 5d 1f bc
       -0.05932598 -0.032910686 -0.0004141505 -0.009726889
000040 b8 c3 d1 bd 6c ae a6 3d ac bd 39 3d 7d 0c 82 3d
       -0.102424085 0.08138737 0.0453469 0.06350038
000050 48 6f fc bc cc d5 7f bd 4f ec 76 3d d2 e5 88 bd
       -0.030814782 -0.062459752 0.060283955 -0.0668446
000060 4b 07 54 bd b7 b6 9f bd 0b 77 fa 3c 8b d5 a3 3c
       -0.051764768 -0.07798522 0.030574342 0.019999286
000070 09 8b 83 bc 4a 78 11 3d 59 49 ae bd ac ae 17 3c
       -0.016057508 0.035515107 -0.08510084 0.009257954
000080 be db 3f 3d 41 b5 86 3d 46 b3 23 3d ad 26 ba bc
       0.04684042 0.0657754 0.03996589 -0.02272352
000090 b1 b1 95 3d 3b 82 38 bd 39 13 2d 3d 6f 91 d2 bc
       0.073092826 -0.045046072 0.04225466 -0.025704114
0000a0 2f 14 b1 3d ff a4 46 3c fe 3d 54 bb 74 fa bf 3c
       0.08646428 0.012124299 -0.0032385583 0.023434855
0000b0 ed d6 b0 3c a8 59 41 3a b0 7c 80 3d 73 5a 69 3d
       0.02158686 0.00073757255 0.06273782 0.056971025
0000c0 b0 ae 9b 3c ba f4 32 bc 93 72 b0 bd 89 4c 22 bc
       0.019004196 -0.010922605 -0.08615603 -0.009905943
0000d0 b9 e0 1d bb 6e c5 09 3d f3 28 6d 3d 34 c9 06 bd
       -0.0024090244 0.03363555 0.05790038 -0.032906726
0000e0 29 ab 41 3d 79 c6 0e bd c6 6f 01 ba e7 58 11 bd
       0.04728237 -0.034857247 -0.0004937615 -0.035485175
0000f0 24 ad 90 3c a0 ed 38 3d 24 00 c6 3b c4 83 f9 3a
       0.017660685 0.04514849 0.006042497 0.0019036462
000100 a5 21 db 3c f0 f5 c6 bd 28 a3 91 3b f9 5e ac 3d
       0.026749441 -0.097148776 0.0044444986 0.08416552
000110 92 fe 82 3d 7d dc 57 bd cb d8 37 bd 15 29 ac bd
       0.06396212 -0.05270051 -0.044884484 -0.08406273
000120 f8 23 24 3d 0d 15 0f bc cf 3d b6 bc 9d 63 7a 3b
       0.040073365 -0.008733046 -0.02224627 0.0038206347
000130 70 18 ea bc 27 4e fa bc ce 02 90 3c 8a ca 85 bd
       -0.028576106 -0.030554844 0.017579462 -0.06532772
000140 51 f2 32 3c 35 ba 3d 3d de 9c 88 bc 47 f4 21 bb
       0.010922031 0.04632016 -0.016676363 -0.002471225
000150 4b 4e f3 bb 9d e6 5d 3d f4 b8 5b bd 4c a6 19 3d
       -0.0074251047 0.054175008 -0.053643182 0.03751211
000160 47 70 62 ba 42 32 02 3c c1 b1 45 bd 00 0c 1e 3d
       -0.00086379464 0.007946553 -0.048265222 0.038585663
000170 6c b6 a6 3c 15 e1 91 bb ba 18 23 3d 5a 9b 1c 3c
       0.020350657 -0.0044518807 0.039818503 0.009558523
000180 2b ab a7 bd 96 39 fd bd de a0 15 39 41 a2 1a bd
       -0.081869446 -0.12364499 0.00014269675 -0.037752394
000190 a5 1b 3a bd 91 a8 06 bd 93 5f 53 bd a0 02 45 bc
       -0.04543652 -0.0328756 -0.05160482 -0.012024552
0001a0 c7 5b 37 3d 34 da 58 bd 58 88 70 bd 38 5f 7a bd
       0.04476526 -0.05294247 -0.058723778 -0.061125964
0001b0 80 88 ad 3d c4 c7 2a bd ab 4f 80 3d 35 50 85 bd
       0.08473301 -0.041694418 0.062651955 -0.06509439
0001c0 53 1b e9 bc 6f 81 0f bc 54 de 9a 3d 89 f7 9b 3c
       -0.028455412 -0.008758887 0.07561937 0.019038932
0001d0 f0 23 06 bd 97 b2 e4 bc 99 43 ba 3c 8b 4c 0f 3c
       -0.032749116 -0.02791719 0.022737311 0.008746277
0001e0 cf e4 12 3c 3d c4 cf 3c a4 e3 67 3c f6 0e 90 bc
       0.008965685 0.025362128 0.014153395 -0.017585259
0001f0 05 44 b4 3c 06 7f 35 bd 31 5d 74 bd b7 d8 12 3d
       0.02200509 -0.044310592 -0.059659187 0.035851207
000200 b2 28 42 3d 86 60 69 3d 48 e9 f7 bc 20 58 ea 3b
       0.04740209 0.056976818 -0.030262604 0.0071516186
000210 36 67 2a 3c 7f 49 25 bb 2f 65 5c 3d 14 0a c3 bd
       0.010400584 -0.002522081 0.053807434 -0.095234066
000220 9c d4 63 3d d2 5e 8a 3d 3e f7 7c 3c 1d ce fd bc
       0.055622682 0.06756367 0.0154398065 -0.030982072
000230 6c c3 91 3d d7 af 50 bd 2e 29 93 bc 9c f6 39 3d
       0.07117352 -0.050948944 -0.017963972 0.0454012
000240 12 65 5c 3c 23 4b 78 3d ba 89 7f bd 6c bd 89 3d
       0.013451831 0.06061853 -0.062387206 0.067255825
000250 35 18 0d bd 06 25 20 bd 68 8d b1 bb 68 6c 82 3d
       -0.034446914 -0.03909781 -0.0054184683 0.06368333
000260 11 b4 9d 3d ad 0f 21 3b 0d 7d 6b 3c 1f 86 9c bd
       0.077003606 0.0024575994 0.014373076 -0.07642769
000270 29 3b 60 bc d0 e6 55 bd df c0 ad bd 11 4e 84 bd
       -0.01368598 -0.052222073 -0.08484053 -0.064602025
000280 eb 39 3c 3a 03 ce fb bd 69 9b b2 3b 34 1e 4b bd
       0.00071802613 -0.12295153 0.0054506552 -0.04958935
000290 e0 b8 fd bb 43 00 e7 bc 75 02 20 bd d1 06 4e bc
       -0.007742986 -0.028198367 -0.039064843 -0.012574867
0002a0 77 d2 a1 bd 9c 67 d3 bd a5 7c 8a 3d fe a0 25 bb
       -0.07901471 -0.10322496 0.06762055 -0.002527296
0002b0 46 37 f3 bc 74 61 35 3b b5 94 f5 38 60 f7 8b 3c
       -0.029689442 0.0027676495 0.00011710209 0.017085731
0002c0 fc b1 e2 3c 84 a7 0a 3d a6 8b 23 3d 7f e0 f5 bc
       0.02767276 0.03385116 0.0399281 -0.030014275
0002d0 57 98 12 3d 70 2f 19 3c 30 19 52 bc a8 33 0d 3c
       0.035789814 0.009349689 -0.012823388 0.008618273
0002e0 c2 41 4b bd 6e d7 88 3d 87 81 c8 3c 87 e6 4a 3d
       -0.04962326 0.06681715 0.024475826 0.049536254
0002f0 c1 14 1d bc f0 75 a5 3d 3c b7 a4 bd bd 40 5a bb
       -0.009587468 0.080791354 -0.08042762 -0.0033302747
000300 d5 46 1f bd 6d 93 27 3d a9 a2 08 bd 95 3d 18 3c
       -0.03888591 0.04091208 -0.03335825 0.009292026
000310 ff 8b 37 3d b8 d9 dc 3b bb d2 2a bc b2 2a a0 3d
       0.044811245 0.0067398213 -0.010426219 0.078206435
000320 23 f3 dd 3b f0 72 51 bc 70 de 1c bd ca 0b e9 bc
       0.006773369 -0.012783751 -0.03829807 -0.028448004
000330 d8 5d 18 bd 38 c7 8b bb f7 25 0c be a1 37 f2 bc
       -0.03719887 -0.004265692 -0.13686357 -0.029567542
000340 05 7f 1e bd b0 81 84 bd a6 63 e2 bb f1 e6 10 3d
       -0.038695354 -0.064700484 -0.0069088517 0.035376493
000350 1d 2b 85 bd 02 6b 0c bd bb 4f 50 bd 7b ae 10 bd
       -0.06502364 -0.034281738 -0.050857287 -0.035322648
000360 97 6e 01 bd ca 4b 9b bc 20 48 24 bd 97 6b 32 3d
       -0.031599607 -0.018957037 -0.040107846 0.043559637
000370 5e 8d e4 3b 12 75 b9 3c 82 5c 44 bd 54 0e 9d 3c
       0.00697486 0.022638831 -0.047939785 0.019171871
000380 8a ee 49 3d 83 ae e2 bc 62 23 b0 bb 5f bc 3d bd
       0.049299754 -0.027671104 -0.0053753117 -0.046322223
000390 62 87 c4 3c 7d 59 05 3d a6 a4 9d bc 19 b7 a2 bd
       0.023990337 0.032556046 -0.01924355 -0.07945079
0003a0 a8 2d 99 3c d1 b6 c4 3c 1e 99 f4 bc af 32 05 bb
       0.018698528 0.024012955 -0.029858168 -0.00203244
0003b0 56 89 dc bc 4f aa 7c 3d 1b 1b 1f bd d9 45 ba 3b
       -0.026920956 0.061685856 -0.03884421 0.005684596
0003c0 22 eb 0e 3c fa f0 98 3c 38 8e 9d bd 22 d9 af bd
       0.008723052 0.018669594 -0.07693142 -0.08586337
0003d0 ad 20 98 3c 26 e7 60 bd 5e e5 6d 3a e3 3d ea bc
       0.018570269 -0.05490794 0.0009075011 -0.028593963
0003e0 df 27 b0 bd 7b a6 a1 bd fa c3 48 3d 50 8b 97 bd
       -0.08601355 -0.07893082 0.049015023 -0.073996186
0003f0 6b 74 2e bd 37 4e 01 bd cd ee 67 bd a6 77 36 3d
       -0.042591494 -0.031568732 -0.056624223 0.0445477

a2c_network.actor_mlp.2.bias f4 [128]
000000 51 e9 99 3c 51 df 73 bb 2e c5 03 3d e9 ca ec b8
       0.018788012 -0.0037211964 0.032170467 -0.00011291152
000010 26 24 d3 bc 76 fc 2a 3b 66 73 52 3a 01 1e ba bc
       -0.025774073 0.002609042 0.000802806 -0.022719385
000020 0d 87 49 ba ca 0a 2c bd 43 70 30 bb 2d c0 49 3d
       -0.00076876656 -0.042002477 -0.0026922382 0.04925554
000030 df 7b 3a bc 2c ac ce bc 47 4a 82 bc 46 6a 13 bc
       -0.011382072 -0.025228582 -0.015904559 -0.0089975055
000040 ec 5d ed 3b a4 2b dc bd 32 ce 06 bc 1e 12 07 bd
       0.0072438624 -0.10750511 -0.008227872 -0.032976262
000050 45 21 83 3d b0 9c b4 3c 28 08 38 bd 9f 06 d4 bb
       0.0640283 0.02204737 -0.044929653 -0.006470516
000060 a9 df 3b bd 80 bd c9 3c b6 40 3f 3c aa a1 24 bd
       -0.045867596 0.024626493 0.011673143 -0.040193237
000070 a7 b2 32 bc 32 7d e6 bc c0 80 9d bd 90 c6 05 bd
       -0.010906852 -0.02813587 -0.07690573 -0.032660067
000080 ed 4a ae 3b 91 a1 ce 3c 54 7b 73 bc 6d a7 92 3b
       0.0053189904 0.025223525 -0.014860947 0.004475525
000090 c6 ad cb 3c b2 40 bb 3a 36 c8 1c 3c e3 a9 1f bc
       0.024863135 0.0014286248 0.009569218 -0.009745094
0000a0 f2 fd 01 bd 75 78 12 bd d9 0d a4 bb dc cc 3d 3d
       -0.03173632 -0.035759408 -0.0050065336 0.046337947
0000b0 8c c9 1e 3d ae 79 ab 3d f8 d4 99 bc 8d 76 00 3d
       0.03876643 0.08372818 -0.01877831 0.03136306
0000c0 f5 77 16 3d 4b 88 02 3d 48 47 43 3d 75 82 c4 3c
       0.036735494 0.03186826 0.0476754 0.023987988
0000d0 75 24 79 bd e5 96 72 3c 70 5f 34 ba d7 23 96 bb
       -0.060825784 0.014806484 -0.00068806764 -0.004581909
0000e0 0f c1 4d 3c 53 5e 96 3d 45 66 ca bd 16 35 4b bd
       0.012558236 0.0734221 -0.098827876 -0.049611174
0000f0 1c 1c 3b 3d bb 9c 2b 3d ba 40 43 bd bc e3 b5 b8
       0.045681104 0.041897517 -0.04766915 -8.6731714e-05
000100 96 f4 32 3d 2b 56 02 3d 39 3b bf bc e6 1f 58 3d
       0.043690287 0.031820457 -0.02334367 0.052764796
000110 a2 e9 8f bd de 10 20 bd 48 a7 2e ba 83 e0 e0 bc
       -0.07026984 -0.039078586 -0.00066625 -0.027450806
000120 1e 44 c4 b9 c5 1d 16 3c 25 13 b5 bb 2c 74 77 ba
       -0.00037434784 0.009162371 -0.005525964 -0.0009439613
000130 17 a8 90 bc b5 4d 61 bd ef e3 af 3b f6 c3 87 bb
       -0.017658276 -0.055005748 0.005367748 -0.0041432334
000140 45 f9 c2 bc ad d0 af 3c e1 43 88 3c 63 14 60 3c
       -0.023800502 0.021461809 0.01663393 0.013676736
000150 f1 08 23 bd b1 01 b2 3b 97 e3 97 3c 4c 65 72 3d
       -0.03980345 0.0054323305 0.01854114 0.059178635
000160 b4 f1 c3 3c 77 59 42 3d b5 bd 11 3d f7 1f 85 bc
       0.023918964 0.0474486 0.03558131 -0.016250594
000170 71 b4 84 bc 28 5e 6d 3c 5d 20 ee bc f7 06 66 3c
       -0.016199322 0.014487781 -0.029068166 0.0140397465
000180 fe 0d 73 bc 69 6a a1 bb dd 98 1f bd 90 87 11 bd
       -0.014834879 -0.004926015 -0.03896414 -0.035529673
000190 d7 d8 53 3c 23 24 2c 38 19 f9 18 bc db 43 cc bc
       0.012930117 4.104165e-05 -0.009336733 -0.0249347
0001a0 d3 87 2a 3d 76 01 b8 bc fb f8 11 3d 73 54 d7 3c
       0.04163344 -0.022461634 0.035637837 0.026285386
0001b0 7f 93 5a 3d 18 d4 a2 bc e2 a2 ba 3c d9 dd 53 bb
       0.05336332 -0.019876525 0.022782747 -0.0032328276
0001c0 b1 43 b8 bc 66 b0 61 bd 05 41 15 3b 1c d6 d5 bc
       -0.022493215 -0.055099867 0.002277435 -0.026103072
0001d0 f6 68 2e 3c be b2 75 bd f0 95 e9 bc 3a fc 41 bd
       0.010645142 -0.059984915 -0.028513879 -0.047359683
0001e0 2e 61 52 bb 54 93 f7 bb 68 15 44 3c 1d 1e 83 bd
       -0.003210138 -0.0075554047 0.011967994 -0.06402228
0001f0 7a 00 1f bd 8e 6c 9f bd 50 23 56 ba db 20 7d bc
       -0.038818814 -0.07784377 -0.0008168714 -0.015449728

a2c_network.actor_mlp.4.weight f4 [64, 128]
000000 9d 0f 8b 3c 3a 2a 66 bc 67 32 70 bd 29 ea e9 bc
       0.016975218 -0.014048154 -0.058641817 -0.02855404
000010 39 2d 4a 3d 0b db 25 3d 31 38 6e bd b1 16 d0 bc
       0.049359534 0.0404921 -0.058159057 -0.025401445
000020 a6 ee 2c 3e 16 e0 c3 bd bf 5c a6 3d fa 6a 11 3d
       0.16887912 -0.095642254 0.08123159 0.03550241
000030 2e 20 9a 3d 21 29 62 bd 0a 56 9f 3d 22 01 52 3c
       0.07525669 -0.055215005 0.077800825 0.012817653
000040 43 34 d6 bc 8d b8 f5 bc 01 d6 39 3d da eb 20 3d
       -0.026147967 -0.029995227 0.045370106 0.039287426
000050 b3 ad 2f bd e1 43 ab bc 80 1f 46 bd a2 52 b9 3d
       -0.04289026 -0.02090639 -0.048369884 0.09048964
000060 c3 fa 04 be 05 9e 84 bd 52 18 30 3d 4d ee 1c bc
       -0.12986283 -0.06475452 0.042991944 -0.0095783
000070 09 ce c2 bc c1 e6 22 bd fe 17 e3 bd 2a 3f 9c bc
       -0.023779886 -0.039770845 -0.110885605 -0.019073088
000080 9f 69 e2 3d 92 c1 ea 3d 48 3b 83 3d a8 38 f1 bc
       0.11055302 0.11462702 0.064077914 -0.029445961
000090 c0 9a 81 3c 37 d1 98 bd 52 bd ca 3b 27 b2 63 3d
       0.01582086 -0.074617796 0.0061871195 0.05558982
0000a0 6e 34 23 bd ae f6 85 3c a5 ea 90 3d c1 66 02 3e
       -0.039844923 0.016352978 0.07076005 0.1273451
0000b0 46 2b a6 bc 39 ba 1c bc 1c 3a bb bd 62 8e 4e bd
       -0.020284306 -0.009565883 -0.09141943 -0.050428756
0000c0 42 17 ae 3d 04 b5 90 3c 33 29 4c bd 30 12 cc 3d
       0.0850053 0.01766444 -0.049843978 0.099644065
0000d0 31 9a ca bd ae 5f 75 bd ea e7 22 bd 61 67 6f bd
       -0.09892691 -0.0599057 -0.03977195 -0.0584482
0000e0 18 3f f3 bc 3c 87 52 3d 66 98 f6 bd 54 37 4c 3d
       -0.029693171 0.0513985 -0.120407864 0.049857453
0000f0 eb 44 15 bc 8a fa e0 b9 69 22 65 3c 9c fd e7 bd
       -0.00911067 -0.00042911276 0.013985255 -0.11327669
000100 f5 f8 61 3d af 3b 15 3d 75 3b c1 3d c6 46 8d 3c
       0.055169065 0.03643387 0.09435169 0.017245661
000110 d0 56 d2 3c 33 e7 a8 bd f2 7c b2 bd 54 bf 29 bd
       0.025676161 -0.08247223 -0.08715238 -0.04144223
000120 c8 ad 52 bd e1 96 59 bd 77 99 96 3d 7d d6 5e 3d
       -0.051435262 -0.053122405 0.0735349 0.05440377
000130 00 32 d7 bc 1b 34 09 bd 0a 90 b8 3c 7e a7 6d bd
       -0.026268959 -0.033496957 0.02252962 -0.05802106
000140 14 42 db bc 49 a8 16 3c b5 72 61 bd 05 95 7c 3d
       -0.026764907 0.009195396 -0.055041034 0.061665554
000150 52 c1 bf 3d 8a 27 8e 3d 12 6b 1d 3d 73 98 06 bd
       0.09363045 0.06941135 0.03843219 -0.03286023
000160 2a 58 62 3d 7e a9 61 bd 29 ad 80 bd 9c 5a 91 bd
       0.05525986 -0.05509328 -0.06283028 -0.070973605
000170 e7 5e ab bd 8d 1f c5 bc 91 97 be bd b4 d5 ef bb
       -0.083677106 -0.024062896 -0.09306253 -0.0073191766
000180 7b c6 2b 3d 3a 27 90 bd e8 da 3a bd 7d ce f9 bc
       0.041937333 -0.07038732 -0.04561892 -0.03049397
000190 61 8f 85 bc ee a7 40 3d 92 44 48 bd 87 59 3f bd
       -0.01630372 0.04703515 -0.04889352 -0.04671624
0001a0 ce 39 6f 3d 5f a3 b8 bc 3c 5f e9 3c 63 aa b7 bc
       0.058404736 -0.022538839 0.028487794 -0.022420114
0001b0 d1 63 98 3d 2a c2 71 3c 59 03 b2 3d 1f 44 33 bd
       0.074409135 0.014755765 0.08692045 -0.043766137
0001c0 7c 5e 8e 3d fd b2 b5 3d ef e3 6d bd 36 89 07 bd
       0.06951615 0.0887203 -0.058078703 -0.03308984
0001d0 e9 da 70 3d 89 d4 e3 bd 8f 9a 32 bd d7 9c de 3c
       0.05880252 -0.11124522 -0.04360443 0.027174396
0001e0 0c 17 6a 3d 4f 03 4b 3c 71 9e d1 bd 2e 49 ba bd
       0.057150885 0.012390926 -0.102352984 -0.09095989
0001f0 7c cf 4d 3d 3f c9 43 bd 97 08 c2 3c 87 2b a2 bd
       0.0502467 -0.047799345 0.023685737 -0.079184584
000200 dd fb c6 3c 53 ab b5 bd c7 43 32 bd 7e 51 88 3d
       0.02429002 -0.08870568 -0.04352167 0.066561684
000210 3d 4c 78 3d 57 10 60 bd d5 ef e7 3c b3 46 4b 3d
       0.06061958 -0.054703083 0.028312603 0.04962797
000220 65 b8 04 bd ca b6 31 bd b9 2a 58 3d b5 43 94 3b
       -0.032402415 -0.04338721 0.05277512 0.004524673
000230 47 b9 36 3d b1 6e e9 3c 58 cf 4f 3d 25 eb 44 bd
       0.044610288 0.028495165 0.050734848 -0.048075814
000240 30 1b ab bd 11 12 e6 3c 97 d3 e3 3c ae b5 7e bc
       -0.08354795 0.028084787 0.027810855 -0.0155462455
000250 46 42 c7 bd a8 22 25 3d 64 66 4f 3d 50 69 70 bd
       -0.097294375 0.040316254 0.050634757 -0.058694184
000260 f2 36 e7 3d c4 a4 94 3c 00 dc b9 3c e1 a4 0b 3d
       0.11289777 0.018144973 0.022687912 0.034092788
000270 67 50 95 3d b6 45 38 3d fb 4e 21 3e 0e b0 f1 3d
       0.07290726 0.044988357 0.15752785 0.11801158
000280 49 bb 00 bb 9e 26 43 3d 5e 95 71 bd 60 b8 a6 bd
       -0.001964288 0.04764425 -0.05898034 -0.081406355
000290 c5 7d d8 bb e5 94 ab 3d a2 e4 a0 3d 9a 5d 96 3c
       -0.00660679 0.08378009 0.07856108 0.01835518
0002a0 7d 6d 8b 3d 4e ef 81 3d ac 7b fb 3c 76 fe c7 bd
       0.068079926 0.06344472 0.03069862 -0.097653314
0002b0 b8 fc e7 bd 53 42 a0 bc ac 09 84 3d 9d fc 45 3d
       -0.11327499 -0.019562876 0.06447157 0.048336614
0002c0 3f 39 a6 bc 4c a9 a4 bc 31 2a cb bd bf 2e fa bc
       -0.020290969 -0.020100258 -0.09920157 -0.030539868
0002d0 a6 3b 31 bd 44 37 93 bc c2 f7 c9 ba 2e 3d 72 bd
       -0.043269776 -0.017970689 -0.0015408921 -0.059140377
0002e0 5f 41 63 bc 02 93 0b be f0 31 19 3e 38 02 33 bd
       -0.013870566 -0.13630298 0.14960456 -0.043703288
0002f0 41 7c b6 bd d2 d7 c8 bd 96 67 73 bc 53 c0 0b bd
       -0.08910418 -0.098067895 -0.01485624 -0.03411896
000300 6b d6 ba 3d 9c a4 c1 bd dc a3 cc 3c 8f f4 79 bd
       0.09122928 -0.09455225 0.024980478 -0.061024245
000310 c1 ee 58 bc fa 18 19 3d bb df 73 bc 92 87 e1 3c
       -0.013240517 0.037377335 -0.0148848845 0.027530465
000320 51 aa af 3d c8 81 55 3d 45 55 9a 3b c3 c0 95 bd
       0.08577407 0.052125722 0.004709872 -0.07312157
000330 fd c4 a5 3d 1d 66 8e bc e0 ef ea bd 13 3e 94 bc
       0.08094213 -0.017382676 -0.11471534 -0.018096006
000340 29 00 c2 bc 61 17 e0 3d 01 21 06 3d a8 47 68 3d
       -0.023681717 0.10941959 0.03274632 0.05670896
000350 89 36 be bc b6 12 ed 3d 03 ab ca bd 9f 1e db bd
       -0.023219364 0.115758345 -0.09895899 -0.106992
000360 cb 62 7c 3d 5f 7f ce bc cd 22 c9 bc db 3a 05 3b
       0.061617654 -0.02520722 -0.024552727 0.002032927
000370 da ec 8f 3c b2 55 c9 bd 2d 0b de 3d 5c bf ca 3c
       0.017568994 -0.09830798 0.10841975 0.02474945
000380 6a 60 8a bc c7 ba 70 bd 2f 39 61 bc d0 a2 a1 3d
       -0.016891677 -0.058771875 -0.013746544 0.07892382
000390 d7 0a b3 3b 15 1e 73 bd 7b b0 a1 bc 88 2d d1 bb
       0.0054639387 -0.05935486 -0.019737473 -0.0063836016
0003a0 bc d2 85 3d d8 23 a2 bd 8a 0f f6 bc d8 6c 9d bd
       0.06534335 -0.07916993 -0.030036706 -0.07686776
0003b0 df 4a a8 3d 8b 6c 2c bc 01 3b 3f bd c7 26 52 3d
       0.082174055 -0.010523926 -0.04668713 0.051306512
0003c0 ca a1 02 3e cc 2a aa 3d 68 90 6e 3d e0 f3 7b bd
       0.1275703 0.08308944 0.058243185 -0.061511874
0003d0 c3 a1 84 bd e0 c7 f6 3d 8f 7a a2 3d 07 70 02 3e
       -0.06476166 0.12049842 0.079335324 0.12738048
0003e0 7f 07 9d bd a5 93 64 3d 91 d1 e0 3d 5a 3a c7 3d
       -0.076674454 0.055804867 0.109774716 0.097279266
0003f0 f0 70 35 3d 70 3a fc 3d 1b a3 c2 3d ca 73 a7 3d
       0.04429716 0.123158336 0.09503766 0.08176382

a2c_network.actor_mlp.4.bias f4 [64]
000000 91 d7 57 3d 87 de fa bc 42 3e f3 bc 7b b0 35 bd
       0.052695815 -0.030623687 -0.029692773 -0.044357758
000010 37 6f 04 bd 43 62 3c bc 5a bd be 3c 00 b2 c0 3b
       -0.032332625 -0.011498037 0.02328365 0.0058805943
000020 bb 0e 0f 3c 2d 7b 06 3d 66 21 03 b8 10 41 80 bc
       0.008731539 0.032832313 -3.126394e-05 -0.015656024
000030 31 d0 8e 3c 6f a0 17 bd cc 3d d5 3b bc a3 52 bd
       0.017433258 -0.037018236 0.006507611 -0.05142568
000040 6f 12 40 3c 57 db fe bc 1c d3 a3 bc bc 93 54 3c
       0.011723145 -0.031110449 -0.019998126 0.012974676
000050 d5 cc 3b bd d6 4a 91 ba 4f 5d ba bb 39 9e b2 3c
       -0.04584964 -0.0011084925 -0.005687393 0.021803962
000060 fe 8f 27 3b 1f 33 da 3c 63 e8 ad 3c e5 9a 15 3d
       0.0025568004 0.026635705 0.021228975 0.036524672
000070 f2 eb 19 bd 41 97 3e 3d e7 46 93 3c 05 29 1c bd
       -0.03757853 0.046530966 0.017978145 -0.038125057
000080 1e 1a 92 bc 18 ad 05 bc a4 b3 88 bc 6d 1f 06 bc
       -0.01783472 -0.008158945 -0.016687222 -0.008186203
000090 83 01 c0 bb 06 a0 95 3d 91 6b 5e 3b 7e be d3 b9
       -0.005859555 0.07305913 0.0033938626 -0.00040386984
0000a0 fb 7b 0b bd 8c e7 89 bd 2d ec 72 bc a8 99 16 bd
       -0.034053784 -0.06733617 -0.0148268165 -0.03676763
0000b0 0e ee 0a 3d e1 20 aa 3c ae 27 04 bd 28 55 88 bb
       0.033918433 0.020767631 -0.032264404 -0.004160542
0000c0 5f b3 1e bc c0 f3 a1 bb f9 13 a0 bc ba c3 29 3b
       -0.00968632 -0.0049423873 -0.019540774 0.0025904016
0000d0 e5 f0 23 3d 8b 30 c5 bc 52 4f d2 3b 42 83 43 bd
       0.040024657 -0.024070999 0.006418147 -0.0477326
0000e0 b3 c4 34 3d 09 33 38 bc 22 48 5b 3c 8c 18 70 3a
       0.0441329 -0.0112426365 0.013383897 0.0009158931
0000f0 50 7f cd 3b 89 10 ad 3a 39 6b 81 3c 77 21 56 3b
       0.0062712803 0.001320378 0.015798198 0.0032673755

a2c_network.value.weight f4 [1, 64]
000000 34 fc 87 3d 4a 54 11 be eb aa 46 3d c4 de 0e bd
       0.06639901 -0.1419231 0.048502844 -0.034880415
000010 6d 8c f8 bd c5 73 88 3d dd 21 fd bc a7 21 92 bd
       -0.12136159 0.06662706 -0.030899936 -0.07135325
000020 9c 0d e9 3d 5f bd 35 bd 6f 74 8c bd 78 1e b8 bd
       0.11379549 -0.04437005 -0.068581454 -0.089901865
000030 48 9d 4c 3c 85 4e 83 bd 14 66 05 3e d4 af b0 3c
       0.012488671 -0.06411461 0.13027221 0.021568216
000040 33 43 81 bd 5a 1f 70 3d 2d ac b7 bd dc 7b 34 3d
       -0.06311645 0.05862365 -0.08968387 0.044063434
000050 ed e7 16 3d 2d e6 85 3d dd 4e 1a 3d 4b 08 b0 bd
       0.036842275 0.06538043 0.037672866 -0.08595332
000060 f2 be 62 bd ba db 1a 3d f1 f3 68 bd 20 af 99 3d
       -0.05535788 0.037807204 -0.056873266 0.075041056
000070 fa 5e 8b 3d 09 a6 1a bd 41 c2 be 3d 12 49 2a bc
       0.06805225 -0.037756 0.09314395 -0.010393398
000080 f4 8b 84 3d ee c3 ed bd 41 1b e2 bd d1 96 87 3d
       0.064720064 -0.11609636 -0.110403545 0.06620563
000090 84 c8 57 bd 82 af 87 3d 40 0a ee bb f9 bf 09 bc
       -0.05268146 0.06625272 -0.0072644055 -0.008407586
0000a0 38 27 ce 3c 4b 1f 51 bd 8e 9c 61 3d f1 6d 86 3d
       0.025165185 -0.051055234 0.055080943 0.065639384
0000b0 e0 e3 a8 3b fa 03 d6 3b f2 22 0c be 72 7f 87 3d
       0.005154118 0.0065312358 -0.13685206 0.06616105
0000c0 f6 ed 28 bd a5 cb e0 bd 13 f1 49 3d b3 5e b2 bd
       -0.041242562 -0.10976342 0.049302172 -0.08709469
0000d0 6f 8c ca 3b 4f bc 3c bb 74 47 a8 bd e7 26 a6 bb
       0.006181292 -0.0028798764 -0.082167536 -0.0050705555
0000e0 d0 fa e6 3c 84 82 91 3d 4c 44 85 3d 39 96 b4 bd
       0.028195769 0.07104972 0.06507167 -0.08817715
0000f0 b7 47 ef 3d 2d 37 3d 3c 38 ae 0f bd fc 82 a2 3d
       0.116836004 0.011548799 -0.035078257 0.079351395

a2c_network.mu.weight f4 [18, 64]
000000 cc 20 82 bc 63 7d 74 3d e7 ff 33 3d d7 3e 08 3e
       -0.01588478 0.05968989 0.04394522 0.13305221
000010 df c3 a6 3d 86 e7 d7 bc 76 ba 29 3e a7 92 cb bc
       0.08142828 -0.026355516 0.16575035 -0.024850203
000020 9f 46 8d 3d fa 49 84 3c d5 b3 66 bd f1 f8 7f bd
       0.068982355 0.016148556 -0.056323845 -0.06249327
000030 47 65 06 3e 07 24 9e bd e4 be 9a 3c e2 f7 52 3d
       0.13124572 -0.077217154 0.018889852 0.05150593
000040 5a b8 bc 3d 4f a2 14 3d 01 db 62 bd 4d b3 aa 3d
       0.0921485 0.036287602 -0.05538464 0.0833498
000050 3d e5 d7 bb 29 d0 9e 3d e8 a2 95 bd e2 38 5d bc
       -0.0065886066 0.07754547 -0.073064625 -0.013502331
000060 16 50 04 3e e3 01 90 3c 94 dd d0 bd b2 35 8a bd
       0.12921175 0.017579025 -0.10198513 -0.06748523
000070 f0 b6 b2 bd 1c 89 14 3c 06 76 f7 3d 60 2c 2c 3e
       -0.08726299 0.009065893 0.12083058 0.16813803
000080 b4 f4 7b 3d 10 51 87 3d 23 91 8e bc e2 5b 4b 3d
       0.061512664 0.06607258 -0.017403191 0.049648173
000090 1b b6 a3 3d b6 f7 aa bc 94 47 01 be 7e 29 91 3b
       0.07993718 -0.02087007 -0.12624961 0.004429995
0000a0 1f 3e 8a 3d b0 28 9f 3d e8 8d 2f 3e 6c ea 67 3c
       0.0675013 0.077714324 0.17143977 0.014155012
0000b0 81 2d b3 3d 01 df 70 3c 16 68 ce bc 2d 62 27 3c
       0.087489136 0.014701606 -0.025196116 0.010216278
0000c0 63 67 a3 3d 68 4b 9e bb f6 54 0d be 3c 86 2e be
       0.07978704 -0.0048307665 -0.13801941 -0.17043394
0000d0 0a ed 61 bc 6e 2f e2 bd 37 3f 87 3d 10 66 3f 3d
       -0.013789425 -0.11044203 0.06603854 0.046728194
0000e0 55 cb 48 bc 67 89 e2 bc 46 a6 0d 3e ea 8d 96 3d
       -0.012255509 -0.02765341 0.1383296 0.07351287
0000f0 94 82 6c bc c3 28 8d 3d eb d0 04 3d 75 c3 e8 3d
       -0.014435429 0.0689254 0.032425802 0.113654055
000100 04 76 ee 3d 69 19 47 3c 76 05 12 be 31 7a 91 bd
       0.116436034 0.012152054 -0.14259896 -0.07103384
000110 c1 c0 4f 3d 78 7c dc 3d fb 84 bc 3d 4c 6f de bd
       0.050720934 0.10765928 0.092050515 -0.10861072
000120 2d d2 cd 3d 06 d7 6c bd 0a 2c ee bd 2a ec e2 bd
       0.100498535 -0.05782225 -0.116294935 -0.11080201
000130 8a 04 bb 3b d4 62 dd bd c0 87 43 3d 59 d5 f6 bc
       0.005707328 -0.108098656 0.047736883 -0.030131029
000140 8a ec 43 bd 9b 85 0d 3d e8 9d 13 3e 5b ac 38 bc
       -0.047833003 0.034551244 0.14415705 -0.0112715615
000150 95 73 c6 3c 9d 41 04 bc 69 e9 c9 3d 3e af d2 3d
       0.024225036 -0.008072284 0.098589726 0.10287331
000160 c2 15 cc 3d 88 48 ce bd d9 09 c6 bd e3 b8 52 bd
       0.099650875 -0.10072428 -0.09669847 -0.051445853
000170 84 17 b2 bd 6a 79 b0 bd 13 c3 b1 bd d4 1f 84 3c
       -0.086958915 -0.08616908 -0.086797856 0.016128458
000180 b7 89 40 bd cf 7d 18 3e a4 42 4a bb c6 22 7d bd
       -0.047006335 0.14891742 -0.0030862475 -0.06180074
000190 6b dd b1 3d 8a c8 62 bd 88 d9 18 3c 28 af 97 bc
       0.0868481 -0.05536703 0.009329207 -0.018516138
0001a0 c8 26 1c 3d 30 42 29 3d 55 a0 f0 bb 10 61 76 3d
       0.038122922 0.041322887 -0.007343332 0.06015116
0001b0 2d 5d 2c 39 68 cd da 3d f2 e1 db bd f0 95 f8 bc
       0.00016437909 0.106837094 -0.10736455 -0.030344933
0001c0 d9 84 6f 3d 91 f1 f8 3d 64 6c 0b be 1a 20 f2 3d
       0.058476303 0.1215545 -0.13615566 0.11822529
0001d0 59 59 ac bd 0f 3c f7 3d 77 c8 34 3d 03 20 43 bd
       -0.08415479 0.12072002 0.04413649 -0.04763795
0001e0 01 5e 15 bc 0e e2 7a bd 88 e6 6a bc 4c 3b e7 3d
       -0.009116651 -0.06125074 -0.0143371895 0.11290607
0001f0 69 c9 5a 3c ae 00 39 bd f4 0d a6 3d ff e5 ed bc
       0.013353684 -0.045166664 0.0810813 -0.029040335
000200 33 57 e7 3a ec 2d 16 3e 2c bf f5 3c 02 f1 6d bd
       0.0017649889 0.14665955 0.029998384 -0.05809117
000210 bd 96 98 bc 49 2c 82 3b c3 83 7f 3d 64 39 cb bd
       -0.018626565 0.0039725644 0.062381517 -0.09923056
000220 b6 69 17 3e 89 aa 72 bd 9c dc 68 3d 29 59 84 3d
       0.1478642 -0.059244666 0.056851014 0.064623185
000230 e9 90 3d bd 0f 24 af bc bd 40 7e bd 71 15 79 3d
       -0.046280775 -0.021379499 -0.062073458 0.060811464
000240 c6 d2 b8 bd c1 33 f4 3c 36 83 53 bd ab e9 c8 bd
       -0.09024577 0.029809834 -0.051638804 -0.09810194
000250 6e d6 ac 3d ab e8 8a 3c fc 3f 86 bd 27 c0 16 be
       0.08439337 0.016956648 -0.06555173 -0.14721738
000260 f5 df fa bc ca 95 71 bd 19 77 c4 3a 8b c1 00 3d
       -0.03062437 -0.05898074 0.0014989107 0.031434577
000270 99 ac 01 3d 39 60 9a bd 1d 9d 73 3d f0 96 5b bb
       0.031658743 -0.07537884 0.059476007 -0.0033506714
000280 47 ef 9a bd c3 c5 3b bb 9f 7b 06 bd 89 29 15 bd
       -0.0756517 -0.002865181 -0.032832738 -0.036416564
000290 e2 b7 fe 3c 87 d7 b6 3d c6 d7 af bd af 2e f8 3d
       0.031093542 0.08927827 -0.085860774 0.12118279
0002a0 9b 79 e5 3d 8e 47 c7 bc 4e a0 06 be 72 b1 f2 bd
       0.11204835 -0.024326112 -0.13147089 -0.11850251
0002b0 29 a1 7d bd 25 61 06 3e 8f d5 83 3d 45 31 89 bc
       -0.061921272 0.13122995 0.064372174 -0.016747126
0002c0 05 74 aa bd 01 6e de bd e7 bb 3c be 7a e5 cc 3d
       -0.0832291 -0.10860825 -0.18431054 0.10004707
0002d0 ff ad de 3d a5 07 d7 3d bc 54 a6 bd c1 cf f8 bb
       0.10873031 0.10499505 -0.081216305 -0.0075931256
0002e0 d7 ce a3 3d 41 82 46 be fa 9f c5 3d 4a 52 05 be
       0.07998436 -0.19385625 0.09649654 -0.13019672
0002f0 8a c4 bd bd ad 2a c2 bb 77 37 e6 3a b6 f3 50 3c
       -0.092660025 -0.0059254975 0.0017564137 0.012753418
000300 48 2a 24 3c d6 21 1e 3c 18 d6 d0 bd 2a c8 91 bc
       0.010019846 0.009651622 -0.10197085 -0.017795641
000310 f8 73 e9 bc b9 2a ad 3d 09 a8 6d bd 2d 6a e0 bc
       -0.028497681 0.08455414 -0.05802158 -0.027394379
000320 39 1a 83 3d fc a5 ba bd 10 9d 22 3d cb 67 01 3e
       0.06401486 -0.0911369 0.039700568 0.1263725
000330 68 0f be 3d b8 6d aa 3c 8c 9a e3 bd fe 1e cf bc
       0.09280282 0.020804271 -0.11113462 -0.025283333
000340 bb d5 1d bd c4 0e f7 bd 1f 33 02 3e 3a c4 01 3e
       -0.038533907 -0.12063363 0.12714814 0.1267251
000350 5e 95 01 3e 00 b5 72 bd ee 35 15 be bb c7 12 3e
       0.12654635 -0.059254646 -0.14571354 0.14334004
000360 52 a3 a6 bd 4d 73 64 3d c5 ce 92 3d 9f c4 3e 3d
       -0.0813662 0.055774022 0.071683444 0.04657423
000370 29 9f ce bb 75 a8 9c 3d 31 de b9 3d 8f 8c 79 bc
       -0.0063055945 0.07649318 0.09075583 -0.015231266
000380 bd 36 e9 3d 31 65 1f bd 22 75 49 bc 2e 09 52 3d
       0.113873936 -0.038914863 -0.012295993 0.051278286
000390 0e 5d ae 3d a1 51 95 bd f1 08 50 bd 4d a5 35 3d
       0.085138425 -0.0729096 -0.050789777 0.044347096
0003a0 67 b9 93 3d c1 ae f4 3d 93 46 19 bd 38 46 2c 3e
       0.07213097 0.11947394 -0.03742082 0.16823661
0003b0 6e 8a 1a bd 09 38 ec 3d 34 3b 39 bc 69 a7 52 3d
       -0.037729673 0.11534125 -0.011305619 0.051429186
0003c0 ff 9c e2 bd ab fd 7e 3c d2 8d 9c 3d 00 25 eb 3d
       -0.11065101 0.015563409 0.076442376 0.114816666
0003d0 ce 6c f3 3d c3 99 93 3d 8c c5 c7 bd 0c 9d e1 bc
       0.11885987 0.07207062 -0.09754476 -0.027540706
0003e0 d4 84 2b bd 4f 43 3d bd 5d a5 e3 bd 9f 91 8b 3d
       -0.04187472 -0.04620677 -0.11115525 0.068148844
0003f0 62 26 9d 3d f4 51 33 3d b8 dd f3 bd 44 0e 84 3d
       0.076733366 0.04377933 -0.11907524 0.064480335
