assets/animals/crab/crab_direct.pth (torch, 737560 bytes, 36 tensors)

value_mean_std.running_mean f8 [1]
000000 09 51 56 17 58 6b 4b 40
       54.83862582888293

value_mean_std.running_var f8 [1]
000000 af 41 46 58 c4 d4 76 40
       365.297935747566

value_mean_std.count f8 []
000000 00 00 00 08 00 30 8f 41
       65404929.0

running_mean_std.running_mean f8 [68]
000000 12 90 ca 26 29 03 b4 3f 42 61 0d 48 eb 2d 3d 3f
       0.07817322918941752 0.00044524187255980477
000010 bc 6f a6 35 94 65 69 3f b0 05 de ee ba a2 7a 3f
       0.003100194427316764 0.006502847869229653
000020 b3 bc 69 24 e5 d9 7e 3f 4a db 44 a3 c8 88 54 3f
       0.007532019698017911 0.0012533149102417923
000030 4b 4c 8a 54 6d 7a 74 bf 4f 5b 14 0a 2d 68 be bf
       -0.004999568053466306 -0.11877709861833562
000040 64 6f 46 df 34 d0 ba 3f c7 6e d1 12 c5 31 f2 bf
       0.10473947955182222 -1.1371508345682046
000050 2c 70 01 89 32 72 68 3f 6c 0b b1 c5 e6 97 96 3f
       0.0029841410651396862 0.022063833061348445
000060 d2 69 49 b3 e6 07 ef 3f b8 87 51 75 14 f6 82 3f
       0.9697144986815209 0.009258422689700882
000070 06 57 06 5d 04 8b c1 bf 43 ff 1e 65 d4 49 d3 bf
       -0.1370549635145652 -0.3013812053213664
000080 de 3b 58 67 43 5b b7 bf b2 04 01 dd 23 b7 c1 3f
       -0.09123631737769197 0.13840149203500612
000090 4e f6 f5 f7 50 de dd bf bd 11 fe 78 c3 83 cf bf
       -0.46669410910530906 -0.24620860488734123
0000a0 c7 66 19 b7 ac 79 dc bf ff 27 4d 09 1b 10 b8 3f
       -0.44492643242629665 0.09399575211605792
0000b0 46 c0 c9 33 7e 3a d0 3f 34 bb 3c 2a f7 63 d3 bf
       0.2535701280348842 -0.30297640919427526
0000c0 50 e0 1a c8 9c 8f b5 bf a6 88 f7 9e 60 0f cb bf
       -0.08422260175109497 -0.2114067817884166
0000d0 f4 bd b4 bb 31 6d b4 3f f2 09 d1 ae e9 5b d6 bf
       0.07979117233912075 -0.34935991355828755
0000e0 c9 34 af 13 fc d3 c4 bf a9 60 c9 9c 78 c3 c6 bf
       -0.16271925889160446 -0.1778403058585856
0000f0 2a 0b f2 37 34 26 91 3f 41 a7 71 01 f7 e6 c2 3f
       0.016747299112931525 0.14767348833566454
000100 c8 50 ab 8c 11 bc 70 bf c7 e2 49 f6 fa e7 75 bf
       -0.0040856061484257425 -0.00534818679863553
000110 4f d3 fa 17 16 af 6e bf d6 02 b2 6d 04 85 72 bf
       -0.0037455970303547424 -0.004521386431520743
000120 a6 59 2c 46 8d 13 64 bf d5 99 51 21 f1 11 56 3f
       -0.002450729299549442 0.0013470511232981282
000130 36 82 7f 29 75 8c 70 bf 4d c8 e3 a4 00 78 42 3f
       -0.004040200867138346 0.0005636218209288474
000140 24 a5 b4 1d e2 60 61 3f 3d f3 63 dc 2c c9 76 3f
       0.002121392853628239 0.005562949407473647
000150 4d e2 ad e4 0f 5b 7a 3f ec 1d 7f a1 38 4d 78 3f
       0.006434499819868278 0.005933018888704105
000160 d3 7c ca b0 4e 9c 80 3f d4 c4 d1 51 1d 6a 7b 3f
       0.008110632677299645 0.0066929955765868306
000170 53 ea 88 3c 9f 98 80 bf 80 22 6f bb 5f e0 7c bf
       -0.008103603396297709 -0.007049917176978782
000180 79 e8 a9 e1 cf 1e 7b bf e1 27 d2 32 9c 65 76 bf
       -0.006621181523423053 -0.005467996740785326
000190 65 bc 2c c3 ac 09 a0 3f c7 3f 45 bf 04 8a cb bf
       0.03132381327156323 -0.2151494916856775
0001a0 1b b7 68 25 03 8b a4 bf e2 26 d0 25 e4 03 aa 3f
       -0.040123079601796806 0.05081093751512157
0001b0 59 b4 24 71 14 f3 cd bf 36 6b 84 0d 63 b5 c6 bf
       -0.23398070835665655 -0.17741048965475564
0001c0 28 ed 61 a5 1e a6 d0 bf 4a 07 2c c5 2d 0f 72 bf
       -0.260139142519352 -0.0044090068720395535
0001d0 19 1b 5c 1c f7 2b b7 3f 17 16 5a db 46 51 c2 bf
       0.09051460687997483 -0.14310537062208148
0001e0 31 58 42 13 4e 1d b1 bf ac 3b 91 b3 d8 28 c0 bf
       -0.06685340852922718 -0.12624653594909085
0001f0 58 95 7f e9 4f 94 a3 3f d0 3e 0f a1 48 0f c9 bf
       0.038240906956881815 -0.19577892173992106
000200 40 d4 b8 47 ba a8 c0 bf 1e e4 b4 52 87 5d b9 bf
       -0.13014915945101002 -0.09908338326648944
000210 c7 14 cf 79 5a 5d a0 3f ed ed 5c 3e bc b8 a0 3f
       0.03196223008084469 0.03265941869036824

running_mean_std.running_var f8 [68]
000000 e4 f1 17 25 01 97 00 3f b0 99 5d 0d 8d e3 5c 3f
       3.1642649116012616e-05 0.0017632367575629408
000010 25 34 f7 d9 7b da 89 3f 4a 95 ef 87 ff 84 6a 3f
       0.012623756017001561 0.0032372465934595073
000020 7d 81 ca 39 55 b0 cf 3f db c7 e2 ea a5 74 c8 3f
       0.24756875345066112 0.19105981797252877
000030 f0 d6 a8 4a d8 60 4d 3f bd a4 c6 1f e2 8f 9b 3f
       0.0008965545760648268 0.026916058721017978
000040 fa fd 39 ab 44 bf 95 3f 79 8f c1 7c 88 3c 09 40
       0.02123744292339145 3.1545572039194067
000050 fa f8 1a 9a 89 41 58 40 fa 3a a1 73 55 e3 56 40
       97.02402355798759 91.55209055657534
000060 43 9b 45 d3 82 ec 41 3f b9 00 1d f4 d6 a4 df 3f
       0.0005469931407276824 0.4944360145491476
000070 d1 a5 3a 9c 04 82 e0 3f d9 94 7d 81 46 41 dd 3f
       0.5158713389729944 0.45710909505426184
000080 95 68 eb e4 45 a2 de 3f 8a 04 4a 3d cb 74 d8 3f
       0.47865435939241624 0.3821285341765096
000090 b7 4e eb bb 32 cf d8 3f 14 70 38 6e 34 29 dc 3f
       0.38764637328607016 0.44001494182316603
0000a0 e4 b3 14 56 6e e4 d4 3f d2 f9 6e 37 97 8f db 3f
       0.32644232183775856 0.43063908017566377
0000b0 55 51 da 36 14 04 dd 3f 4f b4 4e 25 cc 89 e2 3f
       0.45337396008223624 0.5793209770832933
0000c0 4e 90 fb 8f 42 7b e0 3f 85 7d 93 4a b0 c2 e1 3f
       0.5150463878785645 0.555015702873718
0000d0 6f 67 da bb b4 40 e2 3f b2 e0 4c 0e 57 a0 e0 3f
       0.570398680592218 0.5195727614691548
0000e0 1c 52 c6 f2 7e 37 e5 3f af a3 ac ac 2f 98 e2 3f
       0.663024400872533 0.5810774204775181
0000f0 3e 6e 3c 31 26 d3 e1 3f b2 11 a4 4c 1d 15 e2 3f
       0.5570250474588148 0.5650774475948792
000100 8a ce db f1 dd 1f b6 3f 0d 27 77 d9 ed 14 c1 3f
       0.0864237513995311 0.1334512054293601
000110 34 d2 df 4e bb 1e b1 3f c7 7f 43 4e f0 09 b5 3f
       0.06687517810480231 0.0821829024384889
000120 c2 13 f3 79 f7 a8 ae 3f 9f d8 9c 8b 15 0c c5 3f
       0.059882863651672405 0.16443127934480103
000130 96 b9 94 6f e6 cf bf 3f 0c 1e fb 89 d3 1b c0 3f
       0.12426605438370183 0.1258491920218464
000140 af d9 ff 25 00 1b b0 3f 76 eb b9 e6 10 45 c0 3f
       0.06291199615211583 0.12710772767953998
000150 fb 07 8d 98 ea b5 bd 3f a6 f2 81 b6 b3 c0 bb 3f
       0.11605707382571488 0.10840914922477882
000160 96 56 fa 15 2c 7b bc 3f a9 d4 5d d2 aa 2f b6 3f
       0.11125445877618242 0.08666484485532301
000170 db 6d 17 34 a7 a3 c0 3f c2 50 d8 83 07 e0 b7 3f
       0.12999429744273425 0.09326216668006551
000180 22 23 55 db 59 af b7 3f da 82 94 49 fd 44 ad 3f
       0.09251939396666534 0.05716697238154263
000190 9a cf 7c e3 e4 a9 e0 3f 17 d2 b4 99 08 fc dc 3f
       0.5207390254131383 0.45288290987380847
0001a0 f8 b7 30 1b ab a7 dc 3f 09 42 87 16 92 ca e1 3f
       0.4477336659937232 0.555977863312422
0001b0 13 0a 3e 80 f5 9d db 3f df 44 47 1c 41 d6 e1 3f
       0.4315160515181173 0.5574040939628978
0001c0 75 fe c3 aa 38 5d e2 3f 76 bc 2d 75 67 76 e1 3f
       0.5738795600190786 0.5457036293645519
0001d0 4a 91 cb 87 be 83 dc 3f 2f 2b 7e a6 41 28 e1 3f
       0.44554103146790125 0.536164117032376
0001e0 7c a6 84 c1 6e 5e df 3f fc 2e 5e cd e5 b1 da 3f
       0.49013871095903716 0.41710801177462975
0001f0 77 49 b4 6d ba 3b db 3f f9 d9 b9 4d 07 b1 db 3f
       0.4255205222445037 0.4326799639742656
000200 16 89 87 93 0b 98 e0 3f 08 7b 03 54 ee d6 dc 3f
       0.5185602075037277 0.45061834530308476
000210 1c b3 ed 26 fe a9 dc 3f 04 0d ec df 93 23 db 3f
       0.4478755359803459 0.42404648654356003

running_mean_std.count f8 []
000000 00 00 00 10 00 30 7f 41
       32702465.0

a2c_network.sigma f4 [18]
000000 ba 71 52 bf 72 60 4b bf 0a 36 64 bf b1 a4 98 bf
       -0.8220478 -0.7944404 -0.8914496 -1.192526
000010 06 32 5e bf c1 a6 71 bf 2f 87 59 bf ea 41 6c bf
       -0.8679508 -0.9439507 -0.849719 -0.92288077
000020 ec b3 63 bf 4a 08 3a bf ad 04 36 bf 7b 07 57 bf
       -0.88946414 -0.726689 -0.71100885 -0.8399579
000030 f1 22 81 bf 1a 99 5b bf 34 17 82 bf 54 40 86 bf
       -1.0088788 -0.8578049 -1.0163331 -1.0488381
000040 d1 29 5d bf 6f fd 59 bf
       -0.8639193 -0.85152334

a2c_network.actor_mlp.0.weight f4 [256, 68]
000000 8d 80 9f bc 04 2e 0b be 00 e3 e0 3d 52 80 34 bd
       -0.019470477 -0.13591772 0.10980797 -0.04406769
000010 87 02 f8 3d 0e 51 00 be c5 f5 82 bd 7e 11 56 bd
       0.12109857 -0.1253092 -0.06394533 -0.052262776
000020 1b f8 e5 bd 5e 7a c2 3d ff 6c cb 3d 14 c2 64 3e
       -0.11228963 0.09495996 0.09932899 0.2233966
000030 10 4a 0b bd 40 bc 19 3e 9c b4 da 3d 7f b3 a9 bd
       -0.03400618 0.15013218 0.1067898 -0.08286189
000040 ca a8 7b 3d 00 49 f4 bc c8 67 e8 3c 40 cf 20 be
       0.061440267 -0.029819965 0.0283698 -0.1570406
000050 0a 10 6a bd 70 12 06 3e 71 2f ae 3c 6f e2 37 3c
       -0.057144202 0.13092971 0.021262856 0.01122342
000060 a9 73 d1 3d a5 90 15 3e 64 40 f6 bd be 9c 2f bd
       0.102271385 0.14605959 -0.12024 -0.04287409
000070 88 4b 98 3d 15 89 9e bc b2 8c 8a bd 6a 64 20 be
       0.074362814 -0.019352475 -0.06765117 -0.15663305
000080 7c a5 d4 bd a5 7c 60 3c 4c 5a a0 3a 10 4f ad bd
       -0.10383126 0.013701593 0.0012233942 -0.084623456
000090 91 a0 81 3c 41 a2 0a bc 20 1e 1b be fd 74 02 bd
       0.015823634 -0.008461536 -0.1514821 -0.03184985
0000a0 30 67 e2 bd b7 06 e5 bd 4b 1d 23 3e b7 f2 20 3d
       -0.11054838 -0.111829214 0.15929143 0.03929397
0000b0 71 f6 89 bc cf f8 e0 bd b4 34 77 bd 15 0a 0b bd
       -0.016841145 -0.109849565 -0.060352996 -0.03394516
0000c0 2a 3d 86 bd bb e2 13 be ed 14 80 bd 74 f3 6f bd
       -0.06554635 -0.1444196 -0.06253991 -0.058581784
0000d0 4c 1f f0 3c 94 98 39 bd 79 b2 08 3d fb b6 f8 bd
       0.029311799 -0.045311525 0.03337333 -0.12144276
0000e0 95 96 f4 bc ce 93 1c bd 2c d9 ab bd 8b 8f b3 bd
       -0.02985696 -0.038226895 -0.083910316 -0.08767613
0000f0 df 78 ea 3d 97 91 3a 3d fe 50 9a 3d a4 ce 79 3d
       0.114488356 0.045549 0.07534979 0.060988083
000100 d0 2d 69 bd a9 67 98 3d d5 97 28 bc c4 a3 19 bd
       -0.056928456 0.074416466 -0.010290106 -0.037509695
000110 48 6d 9b be 79 80 9a be 3a 8d 06 3e c0 00 48 bd
       -0.30356812 -0.30176142 0.13139811 -0.04882884
000120 20 34 ad 3d 74 75 31 bd 11 ac 08 3e c2 fb 02 bd
       0.08457208 -0.043324903 0.13346888 -0.031978376
000130 f7 0d ed bc cd 3a 95 3d b1 5d ad 3d 15 af 20 3e
       -0.028937323 0.07286606 0.08465136 0.15691788
000140 ec 45 ba 3d 34 04 08 be 0b 33 ad 3d 03 16 99 bd
       0.09095368 -0.13282853 0.08457001 -0.074749015
000150 08 19 0d bd a7 6b ae bd 0b 17 9f 3d eb d4 0b be
       -0.0344477 -0.08516627 0.07768067 -0.1365544
000160 67 96 32 3d 9c 03 e6 3d 89 6c a0 3d c1 b4 58 be
       0.043600466 0.11231157 0.078332014 -0.21162702
000170 13 a4 00 3e 80 4a 02 bd 97 35 dc 3c 5e 48 b9 bd
       0.1256259 -0.03180933 0.026881022 -0.09047006
000180 4a 8a 9b 3d 69 b8 e7 3b c6 34 8b bd 6b e8 3b 3e
       0.07594736 0.007071544 -0.06797175 0.18350379
000190 a6 fd b0 3d b8 d3 6d bd c6 86 87 bc e4 4c 9b bd
       0.086421296 -0.05806324 -0.016543757 -0.07583025
0001a0 5f b0 df 3d 72 42 2a be 4d e5 9b 3c cb ec a5 bb
       0.10922312 -0.1662691 0.019030238 -0.0050636283
0001b0 43 5d ab 3d a5 38 a0 bd d6 d2 90 3d bd da 97 bd
       0.08367398 -0.07823304 0.07071464 -0.07414768
0001c0 ab f9 31 3d 44 78 d4 3b 3e d7 4f 3d 5f 0e ec bd
       0.043450993 0.0064840633 0.05074238 -0.115261786
0001d0 31 29 79 3d 54 97 c5 3c 4c da c1 3d 24 73 64 bd
       0.0608303 0.02412001 0.09465465 -0.05577387
0001e0 78 8a 13 3c 37 12 d9 3c cc 3b 95 bd 14 ed f2 3c
       0.0090051815 0.026497943 -0.07286796 0.029654063
0001f0 de 1f 66 3d e8 4b 10 3e d4 48 8f 3c ab 57 89 bd
       0.056182735 0.14091456 0.017490782 -0.067061745
000200 27 bf f3 bb 23 89 0e 3d 68 06 74 3d 05 bc c0 3c
       -0.0074385586 0.034798753 0.059576422 0.023527155
000210 7a a5 9f bc 7d 2a 78 bd 07 24 9b 3d d2 43 04 3d
       -0.019488085 -0.060587395 0.07575231 0.03229124
000220 a2 e5 b7 3d 95 92 60 be c8 56 24 bd 5a 8b 09 be
       0.08979346 -0.21930917 -0.040121824 -0.13432065
000230 ee 8c 19 be e3 fe 6f 3d 9b 3c 3d 3e 66 91 80 3d
       -0.14995167 0.05859269 0.1848015 0.062777326
000240 71 0c 94 bd d5 02 07 3c 14 7f ca 3d 41 57 17 3e
       -0.072289355 0.008240421 0.098875195 0.14779378
000250 c5 4c 49 bd d8 9c 91 bd 45 9d 9d 3d 8b 21 c4 bd
       -0.04914548 -0.07109994 0.076960124 -0.0957671
000260 8a 35 f9 bd b3 8f 0e 3d 1c 28 69 bd 4f 23 79 3d
       -0.12168415 0.03480501 -0.056923017 0.06082469
000270 54 6c 8c be 3a 0c 27 3e 43 ba 77 3e 76 6a ac 3c
       -0.27426398 0.16313258 0.24192147 0.021046858
000280 95 55 06 be 1f 25 de bd c8 e2 29 be ee 54 82 3c
       -0.13118584 -0.10846924 -0.16590416 0.015909638
000290 2c f9 8c 3d 10 b6 d3 3d 34 69 9e 3d 33 cc c3 3c
       0.06883463 0.1033746 0.0773491 0.02390108
0002a0 69 e7 0f 3e c3 7b 89 bd a5 bd e6 bd c3 a9 f0 bd
       0.1405312 -0.06713059 -0.112666406 -0.117511295
0002b0 de 85 97 bd ca c0 9a 3c 6b 14 91 bc a5 e6 ed bc
       -0.0739858 0.018890757 -0.017709931 -0.029040644
0002c0 31 05 05 3e 91 16 95 bd 5d b7 1b be 6c 4e 24 3e
       0.12990262 -0.07279695 -0.15206666 0.1604554
0002d0 c2 15 7f bd 2a 32 72 3c 90 67 29 be 70 86 78 bd
       -0.06227661 0.014782468 -0.16543412 -0.060675085
0002e0 2e 71 28 3c c2 60 35 be 12 4c 27 bc f0 f3 c2 bd
       0.01028089 -0.17712691 -0.010211008 -0.09519184
0002f0 ad be 43 3d e3 b4 07 bd e4 8c af 3b db ac 80 bb
       0.047789264 -0.03313149 0.0053573716 -0.003926856
000300 8e e5 2b 3e 67 b5 01 be 26 e8 07 3e 2c a2 4d bd
       0.16786787 -0.12666856 0.13272151 -0.050203487
000310 f5 16 72 3c 07 71 cc 3d f8 69 cb bc cf 76 c2 bc
       0.014775981 0.09982496 -0.024830803 -0.023738293
000320 4e a7 6c bc 0e 57 04 3b d3 df fe 3c e5 61 81 bd
       -0.014444185 0.002019349 0.031112587 -0.063175
000330 59 c9 4a 3d a6 50 33 3d 01 eb f1 3d 7c d1 10 bd
       0.049508426 0.043778084 0.118124016 -0.03535603
000340 16 36 44 bd 16 00 18 3d 44 d8 cc bc de 78 05 be
       -0.047903143 0.037109457 -0.025005467 -0.13034388
000350 7d 95 55 3d af c1 e4 bd b2 7f f9 3c fd 34 60 bd
       0.052144516 -0.11169755 0.030456398 -0.054738034
000360 5b 29 d6 bd 07 0e 19 be c2 bf 29 be 49 9e bd 3d
       -0.10457107 -0.14946757 -0.16577056 0.09258706
000370 09 0e fd 3d d3 4f 11 be 68 5f c7 3c 95 cf 59 bd
       0.123561926 -0.14190607 0.024337485 -0.05317648
000380 78 ab f4 bd 16 f9 cc bd 24 f0 33 3d 5e 10 d0 bd
       -0.119467676 -0.10008447 0.043930188 -0.10159372
000390 c1 6c 4f be 6b 88 60 3c f0 30 cd bd 62 63 80 bd
       -0.2025633 0.0137044 -0.100191 -0.06268956
0003a0 a8 58 23 bd 12 ec 9c 3d d2 43 2d bd fc 3e 94 bd
       -0.03987947 0.07662214 -0.042301007 -0.07238576
0003b0 76 76 76 be f4 5b ee 3d cc fe 07 3d 78 6b d1 3c
       -0.24068627 0.116386324 0.033201978 0.02556394
0003c0 23 cc 0f bc 64 6b 4b bd 79 49 ec 3d 66 a4 72 3d
       -0.008776697 -0.049662963 0.11537451 0.059238814
0003d0 34 17 a6 bb d9 ba d2 3d c4 ff 71 3d 3e 0e da 3b
       -0.005068684 0.102895446 0.059081808 0.00665453
0003e0 8b a6 12 bd a6 99 36 3d 09 77 cd bc e3 f3 97 3d
       -0.03580336 0.044580124 -0.025081174 0.074195646
0003f0 74 1d 25 bd bf 51 42 be 7d 2e 6a 3c 49 0e 82 3d
       -0.04031129 -0.18976496 0.01429331 0.06350381

a2c_network.actor_mlp.0.bias f4 [256]
000000 12 26 87 3d 33 83 0f bd 1f 54 2f 3d fd 9a e7 3d
       0.06599058 -0.03503723 0.042804834 0.113088585
000010 72 2e f0 3c 19 50 c6 3d 80 d3 1d 3c 10 70 20 3d
       0.029319022 0.09683246 0.009632945 0.03916937
000020 ed db c2 3d df 3f a2 3d bb d7 a7 3d 84 0e cb 3d
       0.09514604 0.07922339 0.08195444 0.09914878
000030 07 7c 83 3c 43 0a 8b 3c c7 fa 10 3d a2 1f 83 3d
       0.016050352 0.016972667 0.03539541 0.06402518
000040 8e 6c 1b bc 0d 1b 89 3d 9f 41 9c 3d f6 56 8c 3d
       -0.009486331 0.06694613 0.07629704 0.06852524
000050 13 cf 43 bc 49 1c 83 3d 23 99 fd 3c 1f 7a c6 3d
       -0.011951226 0.06401879 0.03095681 0.096912615
000060 de 15 28 bb b5 0c 9c 3d 58 b8 4d 3d 7c 43 c4 bc
       -0.00256478 0.07619611 0.050224632 -0.02395796
000070 50 5e f0 3d 84 c1 06 3e 5a 1d b1 3d 55 a4 a1 3d
       0.11736739 0.13159758 0.086481765 0.07892672
000080 18 b7 58 3d 00 2a 4d 3d 34 fa 20 3d 66 fa e8 3c
       0.052908987 0.050088882 0.039301112 0.028439712
000090 53 b7 f8 bc 95 1c 75 bc d6 c0 8f 3d 52 06 2c 3d
       -0.030360853 -0.014960428 0.070192024 0.041998215
0000a0 14 20 5d 3d 63 23 7f 3d bc 4f b7 3d b9 5c 78 3d
       0.05398567 0.062289607 0.08950755 0.060635302
0000b0 14 25 01 3c 7a 9f bd 3d 0a 78 95 3d a3 8b 5c 3d
       0.007882375 0.09258933 0.07298286 0.053844105
0000c0 bb bf c2 3b 24 01 00 3e 09 e5 64 3d 35 9b 7b 3d
       0.005943266 0.12500435 0.055882487 0.061427314
0000d0 4d bd 65 bc 84 e6 e1 3d 34 b6 16 3e d6 db fd bd
       -0.014022184 0.110302955 0.14717942 -0.12395446
0000e0 a0 f8 cb 3d 23 92 08 bb 54 ed d7 3a 9d 7f 99 bd
       0.09959531 -0.0020839057 0.0016473928 -0.074950434
0000f0 41 26 03 3e ca 77 e8 3d 15 e0 28 3e b9 c8 15 3e
       0.12807561 0.11350973 0.1649173 0.14627351
000100 f3 74 9c 39 fa 42 84 3c 7b fa b4 3c f8 a7 9d 3c
       0.00029841773 0.016145218 0.022092095 0.019245133
000110 ed 05 85 3b 44 b6 b5 3d 58 55 e1 3c a9 a2 da 3d
       0.0040595443 0.08872655 0.027506515 0.10675556
000120 f1 cf d1 3c 7f 8d 76 bd 20 a6 ef 3d 0c d9 b1 3d
       0.02561185 -0.060193535 0.11701608 0.086839765
000130 33 08 89 3d 0b 60 ad 3d 69 84 92 3d 27 da 67 3d
       0.06691017 0.08465584 0.071541615 0.05660453
000140 0a 0f 75 3d 2c ab a9 bd 57 1d af 3c c2 1d 73 3d
       0.059828795 -0.082846016 0.021376295 0.05935455
000150 c2 30 a3 bc c9 5a 1f 3d 0d d8 2d 3d 6a ff 4d 3d
       -0.01992071 0.03890494 0.04244237 0.05029241
000160 2a cb 1d 3d a6 f9 12 3e 49 55 14 bc dc c2 1b 3e
       0.03852383 0.14353046 -0.009053537 0.15211052
000170 87 80 b1 3d 08 b7 9d 3d cc a0 bc 3d 3d 09 34 3d
       0.08667093 0.07700926 0.09210357 0.043954123
000180 65 0e 8b 3d 33 c1 0f 3b 89 38 17 3d 87 2d 8b bb
       0.06789855 0.0021935224 0.03691915 -0.0042473706
000190 03 69 c3 3d 06 e3 df 3d bd 74 1a 3d b0 5b be 3c
       0.09541514 0.10931973 0.037708987 0.02323708
0001a0 6c 09 fa 3d 59 d9 23 3e 54 50 aa 3d 81 0b 70 3a
       0.12208828 0.1600088 0.083161026 0.00091569877
0001b0 b0 17 3c 3c 77 b4 97 3b c8 7f 17 3d 97 b6 57 3d
       0.011480257 0.0046296674 0.036987096 0.052664366
0001c0 64 70 ce 3d 79 23 b8 3d d9 34 96 bc 29 05 02 3e
       0.100800306 0.08991141 -0.018335747 0.12697281
0001d0 65 c7 66 3d 59 0c 11 3e 3a 1d ca 3d 36 6d 33 3d
       0.0563425 0.14164867 0.09868856 0.043805324
0001e0 41 88 b9 3d 12 56 7a 3d dc 9a a7 3d d9 ae 0e 3d
       0.090591915 0.06111724 0.08183834 0.034834716
0001f0 52 75 1f bd 42 a1 7e 3d 3e f1 91 3d 85 b4 ff 3d
       -0.038930245 0.062165506 0.071260914 0.12485603
000200 75 91 20 bd 47 4b 04 3e 6c 8f 89 3d 63 e0 48 3d
       -0.03920122 0.12919341 0.06716809 0.049042117
000210 b5 72 83 3d 59 bc 26 3d aa 0d c1 3d 3c f6 b8 bc
       0.06418363 0.040706966 0.09426434 -0.022578351
000220 bd 36 99 3c 06 81 a7 3c 6d ac ee 3c e5 2b b7 3d
       0.018702859 0.020447265 0.029134953 0.08943919
000230 40 5e 76 3d a5 7a 7f 3d 96 12 30 3c ad f0 91 3d
       0.060148478 0.062372822 0.010746619 0.071259834
000240 10 f1 70 3d c8 81 aa 3d 37 64 f6 3c e3 93 8a 3d
       0.058823645 0.08325535 0.030077083 0.067664884
000250 3e 35 c3 3d 64 09 88 bc e0 51 8c 3d 56 75 77 3d
       0.095316395 -0.01660604 0.06851554 0.060414635
000260 b4 f4 8d 3d 60 b7 5c 3d ea 48 17 3d cc 83 92 3d
       0.06931439 0.053885818 0.03693477 0.071540445
000270 ee 67 8a 3d 90 be c5 3d 09 73 c0 3c 54 db 67 3d
       0.06758104 0.096554875 0.023492353 0.056605652
000280 18 6a cc 3d 38 9e 66 3c 38 f5 df 3d ec f0 1c 3d
       0.09981173 0.014075808 0.10935444 0.0383157
000290 e7 6a c5 3d e2 d2 72 3d 64 90 52 bb dc 60 13 3d
       0.09639531 0.059283145 -0.003212952 0.035981044
0002a0 f5 33 c6 bc 94 64 f7 3d b3 61 21 ba cf 10 03 3e
       -0.024194697 0.12079731 -0.0006156221 0.1279938
0002b0 e3 36 e1 3d 00 a8 9e 3d 36 bf d4 3d 2d 77 83 3c
       0.10996797 0.07746887 0.10388033 0.016048038
0002c0 7c 68 26 3d 96 ca 21 3d 51 83 33 3d 1d 42 53 3d
       0.040626988 0.03949984 0.043826405 0.051576722
0002d0 e3 66 17 3d 04 f9 58 3d 17 69 3f 3c cb ec 60 3c
       0.036963355 0.052971855 0.01168277 0.013728331
0002e0 8f c7 97 3d 50 cc 45 3d a4 64 52 3d e0 65 af 3d
       0.0741111 0.04829055 0.05136551 0.08564353
0002f0 5a f8 e8 3a 72 bf e7 3d 05 b7 80 39 43 ad cc 3d
       0.001777421 0.11315812 0.00024550423 0.099939846
000300 1d 94 89 3d c7 71 5e 3d 35 79 b4 3d a3 a4 4a 3d
       0.067177035 0.054307725 0.08812181 0.049473416
000310 d5 34 c3 3c 13 c4 a8 3d 04 57 ee 3d 91 d6 dd 3c
       0.023828903 0.08240523 0.11637691 0.027079852
000320 59 c2 20 3c 0d 35 b2 3d 68 46 90 3d cc 65 9f 3c
       0.009811961 0.08701525 0.07044679 0.01945772
000330 26 4a 86 3d 58 10 1e 3d 23 cd a4 3d 2d c6 d0 3d
       0.065571114 0.038589805 0.08046939 0.10194049
000340 4a 33 f6 bc 75 d6 8d 3d 4a e9 d8 3d 2b d8 a5 3d
       -0.030053753 0.0692567 0.10591371 0.080978714
000350 dc ae a7 3d d7 12 c9 3d ac e8 12 bd 84 fb ec 3d
       0.08187649 0.098180465 -0.035866424 0.1157141
000360 1a 22 8e 3d 58 a8 05 3e bc e0 cd 3d 7d 8f 89 3d
       0.06940098 0.130525 0.1005263 0.06716821
000370 08 f2 23 3d 6a 4b 8a 3c af 31 dc 3d 9f 8c 3b bd
       0.04002574 0.016881663 0.10751664 -0.045788404
000380 62 e2 cf 3d ec 0f c0 3d a7 52 cd 3d 41 5c bd 3d
       0.10150601 0.09378037 0.1002553 0.09246112
000390 32 e4 73 3d 6f 98 d1 3d cc 8f 9c 3d 5d de c8 3d
       0.059543796 0.102341525 0.076446146 0.098080374
0003a0 fb 02 87 3d 76 7d 25 3c 40 99 4f 3d 53 d5 a4 3d
       0.06592365 0.010100713 0.05068326 0.08048501
0003b0 ea b3 cc 3c 0a 68 09 3d b6 32 31 3c ac 1e 30 3b
       0.024988133 0.033546485 0.010815313 0.002687375
0003c0 56 71 f6 bc 0e 2a 99 3d 41 c1 65 3d 55 e7 a7 3d
       -0.03008334 0.074787244 0.056092504 0.0819842
0003d0 df 9b 12 3d 8f 8b d0 3d 86 84 97 3d b4 e7 d0 bd
       0.03579318 0.10182869 0.07398324 -0.10200444
0003e0 0c ce f9 3d 05 a8 07 3e 48 9c bf 3d 69 db 92 3d
       0.121975034 0.13247688 0.0935598 0.071707554
0003f0 b9 1d 78 3c 82 c5 4b 3d 46 1e 08 3e 2c 7d 34 3d
       0.015143805 0.049748905 0.13292798 0.044064686

a2c_network.actor_mlp.2.weight f4 [128, 256]
000000 13 d8 5c bd d4 9c b2 bc 9d 59 cb 3d ca 51 b2 ba
       -0.053917002 -0.021803297 0.09929202 -0.0013604697
000010 be 58 8c bd 59 04 1d bd 18 06 ce bb 5b 2d b8 bd
       -0.06852864 -0.038334224 -0.0062873475 -0.08993026
000020 04 f8 20 3d a7 12 05 be 2e 36 c2 bd d4 b2 62 bd
       0.039299026 -0.12995397 -0.0948299 -0.055346325
000030 32 c3 c3 3d 3e 45 98 bd 3e 2e 05 bd ab 21 a6 3b
       0.09558715 -0.07435082 -0.032514803 0.0050699315
000040 f1 89 8a 3d c7 53 fb 3c cc 39 4f 3d 06 76 8c 3c
       0.067645915 0.030679597 0.05059223 0.017146122
000050 ff 1a 24 3a 89 eb 41 bd 57 ec 4e bd 73 85 56 bd
       0.0006260126 -0.047343764 -0.05051836 -0.05237336
000060 18 9c ac bd 43 16 57 b9 59 a7 49 3d da 56 70 bd
       -0.0842821 -0.00020512291 0.04923186 -0.058676578
000070 08 fd 11 b8 c1 4d a1 bd c3 2e 56 3b aa 84 8d b9
       -3.4806348e-05 -0.078761585 0.003268168 -0.00026992458
000080 bc f5 70 3d f2 ae f7 bd 46 06 a3 3a 1d e1 34 3d
       0.0588281 -0.12093915 0.0012437783 0.044159997
000090 f4 5c ca 3b 34 0c d7 bc 41 aa a9 bd c1 2b d6 3b
       0.0061756317 -0.026250936 -0.082844265 0.0065359776
0000a0 0b e0 bb bc 4a 72 e6 3c a4 b5 2f 3c 0d b5 af 3c
       -0.02293398 0.02813067 0.010724459 0.021448636
0000b0 8a 90 94 3c c4 7c ec bc 71 18 28 bd f2 52 2b bd
       0.018135328 -0.028868087 -0.041038934 -0.04182715
0000c0 1e 41 96 3c 41 42 8c bd 61 18 bf 3c 8a cf 9b 3d
       0.018341597 -0.068485744 0.023327054 0.07607944
0000d0 69 a4 0e be e6 a6 7a 3c c7 4d f2 bd 89 db 94 bc
       -0.13929905 0.015298581 -0.11831241 -0.018171089
0000e0 51 8a 54 3c fe 32 5c bd 04 c7 c4 bb 25 7f 4c 3d
       0.01297243 -0.053759567 -0.00600517 0.049925942
0000f0 f0 54 77 bc 2b ed 6e bc e2 c6 c2 bd 75 bd 80 bd
       -0.015095934 -0.014582912 -0.0951059 -0.06286136
000100 a1 71 a3 bd 2c 2c ef 3d bc fe 91 bc 78 2d c4 bd
       -0.07980657 0.11678347 -0.017821662 -0.09578985
000110 d9 fb 5c bd 8b e3 8b 3d 3a 30 b6 3b f1 6f 19 3d
       -0.05395112 0.0683051 0.0055599483 0.03746027
000120 12 00 2e bd 2c 97 cc bd 63 50 35 bb 62 eb df bc
       -0.042480536 -0.09989771 -0.0027666322 -0.027333919
000130 e9 84 8c bc d8 53 e6 bd 63 c3 74 3c 4e f1 ae bc
       -0.01715322 -0.11246461 0.014939162 -0.021355297
000140 bf 50 84 bd 84 28 21 3e e9 a8 32 3c 14 02 22 bc
       -0.064607136 0.15738112 0.010904529 -0.009888191
000150 75 6e e6 3c 1b 2c 5e 3c ef 57 0a 3d 8b 47 32 3d
       0.028128842 0.01356032 0.033775266 0.04352526
000160 9a 3a b2 ba 08 13 df bd 5e 68 91 3d 3d 99 05 3c
       -0.0013597787 -0.10892302 0.070999846 0.008154211
000170 a0 75 b1 bd 11 e0 64 bd e0 45 e6 bd 9c 70 d3 3d
       -0.08665013 -0.05587775 -0.11243796 0.10324213
000180 f1 63 59 bd cb a6 c0 bc 58 56 e0 bc 9a f0 82 3c
       -0.053073827 -0.023517033 -0.027384922 0.015983868
000190 3c f3 8c 3d bf 4e b2 bc ce 6c 60 bd e7 1c 44 bc
       0.06882331 -0.021766065 -0.054791264 -0.0119697815
0001a0 02 26 2d 3d 54 9a a2 bc f1 17 02 be f5 70 13 bd
       0.042272575 -0.01984898 -0.12704445 -0.035996396
0001b0 ef 9c a1 3c ce 35 61 bd 5b e0 4e 3b d5 46 f4 3c
       0.019728152 -0.054982953 0.0031566832 0.029818932
0001c0 65 f3 04 bd 04 9c 19 bd dc bc b3 3c b9 12 90 3c
       -0.03245868 -0.037502304 0.021940641 0.017587053
0001d0 b1 ee 29 3d 6f e1 18 bd 60 53 c5 bd e8 e1 7f bc
       0.0414874 -0.037324365 -0.09635043 -0.015617825
0001e0 ac 21 34 3d 78 b5 9a 3c c1 12 00 be da 71 bc 3d
       0.043977425 0.01888536 -0.12507154 0.09201403
0001f0 21 73 ba 3c 38 73 2d bd 79 92 84 3d 8a 35 90 3c
       0.022759976 -0.04234621 0.0647325 0.017603654
000200 ef a9 8d 3d 61 2f c0 bc 36 2c 3e bd d5 7d c6 bc
       0.06917178 -0.023460092 -0.04642888 -0.024229923
000210 0c 3c 1c 3d c1 f8 30 bd 72 28 90 3c c1 6e 04 3e
       0.038143203 -0.04320598 0.01759741 0.12932874
000220 5a f1 6e bc 60 05 33 3c f0 05 87 3c 8e ad 40 bd
       -0.01458391 0.0109265745 0.016482323 -0.047040515
000230 27 0b 31 bd 46 50 18 3b 48 06 4a 3d e4 a4 9f bc
       -0.043223526 0.0023241206 0.049322397 -0.019487806
000240 5e c1 b9 bd 41 43 38 bd 0e f0 b5 bc 2f 22 89 bc
       -0.09070085 -0.044986013 -0.022209194 -0.016739933
000250 a1 9a 4b bd 1b 08 aa 3d ee 54 10 3d d7 7a 5f ba
       -0.049708012 0.08302327 0.035237245 -0.00085250795
000260 6c c4 dd bd ec c7 07 be cd 74 bc 3c f2 c2 80 bd
       -0.1082848 -0.13259858 0.023004914 -0.06287183
000270 d0 f2 ce bc da dd c6 bc f3 be 99 bd 5c 4c c5 3b
       -0.025262266 -0.024275709 -0.07507124 0.0060210656
000280 b6 77 62 bd 3f 0a d2 bd 41 93 de bd 70 b1 a8 bc
       -0.055289946 -0.102558605 -0.1086793 -0.020592421
000290 54 97 f6 3c b5 11 45 bd e7 92 81 bb bc 38 7c bd
       0.030101456 -0.04811259 -0.0039542797 -0.061577544
0002a0 39 d1 e2 bc 06 c7 bf bd 0e 36 ba 3d 17 8c a3 bd
       -0.027687656 -0.093641326 0.09092341 -0.079857044
0002b0 c8 a6 a1 bd b8 f6 ce bd 73 93 02 3d 26 0a df bd
       -0.07893139 -0.101056516 0.0318789 -0.108906075
0002c0 d1 62 9b bc 88 3d b6 bd 3d c6 3f 3c dc 06 d0 bd
       -0.018968018 -0.08898455 0.0117049785 -0.10157558
0002d0 a0 7c 51 bd eb 9f 02 3e 22 5e 86 bc 04 75 55 3d
       -0.051144242 0.12756316 -0.016402308 0.052113548
0002e0 4c 8c 0f 3d ca e9 75 bd 8e 9c 0d 3c 81 54 db 3c
       0.035045907 -0.06003741 0.008643283 0.026773693
0002f0 ca 14 5a 3d 28 c0 27 bc a1 8e 05 3c cb 96 fe bc
       0.053242482 -0.010238685 0.008151681 -0.031077763
000300 4d 2c 94 bd 0c 91 cc bc 60 a8 57 3d 24 cf 0f bc
       -0.07235012 -0.024971507 0.05265081 -0.0087774135
000310 70 ff 6a bd de b8 9b bc 37 0f 6a bd a4 d6 b0 3b
       -0.05737251 -0.01900905 -0.057143416 0.005396681
000320 d3 6b 5b 3d ae 78 c2 bd d5 4b 05 3d 54 d0 c1 bc
       0.053569626 -0.09495674 0.032543022 -0.023658909
000330 ba e9 99 bd c9 30 62 3d 9f 2e ab bd 3e a4 1a 3d
       -0.07515283 0.055222306 -0.08358502 0.03775429
000340 e6 28 72 3d 5b c4 01 3c fd a3 be 3c ae c0 b7 3c
       0.059121035 0.00792035 0.023271555 0.022430744
000350 95 8e 68 bd 7b c3 34 bc ae d6 96 bc ff a2 ac 3d
       -0.0567766 -0.011032934 -0.018412914 0.084295265
000360 50 5f ba 3d 44 86 08 be 37 59 4d 3b fa 8a 51 3c
       0.09100211 -0.13332468 0.0031333694 0.012789482
000370 00 d0 3f bd 9e 5f c0 bd 1f c9 07 bd f5 c4 3e 3d
       -0.046829224 -0.093932375 -0.03315079 0.04657455
000380 6b da 61 3d 08 d8 d5 3b 9b 24 91 bc 77 f8 5c bd
       0.05513994 0.006525997 -0.01771765 -0.053947892
000390 53 57 eb bd f4 36 11 bd 5c 51 84 bd 86 17 ef bd
       -0.11491265 -0.035452798 -0.064608306 -0.116744086
0003a0 f2 0f 96 bd fc 8f 9a 3d e0 9c f2 bc 6d 59 93 3c
       -0.0732726 0.07546994 -0.02961582 0.017986977
0003b0 4b a0 8a 3d 99 78 c4 3c 99 9d 8e bd 60 0b 5a 3b
       0.06768855 0.023983287 -0.06963653 0.003327094
0003c0 4a 26 f2 bd 43 c2 0b 3d c5 23 dc bc a0 2f 91 bc
       -0.11823709 0.03412081 -0.026872525 -0.017722905
0003d0 09 14 be bd ae 85 44 bc 11 80 b7 3c e4 87 df ba
       -0.09281165 -0.011994762 0.022399934 -0.0017054048
0003e0 61 c0 27 bc 2f 9b b7 bb 0e a4 45 bc 3c a8 14 be
       -0.010238738 -0.005603216 -0.0120630395 -0.14517301
0003f0 53 e3 de bc 09 c7 3e be e2 6a 2d bd e6 00 c6 3c
       -0.027208006 -0.18630613 -0.04233826 0.02417035

a2c_network.actor_mlp.2.bias f4 [128]
000000 d8 5a 8f bd 98 20 92 bc 2e 56 98 bb 2b 4a 06 bd
       -0.06999749 -0.017837808 -0.0046489453 -0.032785576
000010 f7 a9 2c bd 5a d7 a8 bd 0d af 43 bd 17 ba fb 3b
       -0.04215428 -0.082442 -0.047774363 0.0076820957
000020 83 ec 48 bc 18 08 1a 3c 0f 43 64 bc d8 ee e5 bc
       -0.01226342 0.009401344 -0.013932004 -0.028067991
000030 85 ba 7e 3d c0 2a c8 bc 5d 1d 4d 3d a9 f7 bb 3c
       0.062189598 -0.024434447 0.05007683 0.022945242
000040 48 33 7b bb 62 60 fb 3b 48 ea 86 3c 2a 88 f5 ba
       -0.0038330127 0.007671402 0.016469136 -0.0018732597
000050 83 8a 50 bd 67 0d 0f bd d6 7b 72 3c 47 e7 86 bd
       -0.050913345 -0.03492489 0.014800033 -0.065870814
000060 ae 9f 9a 3c 49 de 3e bd 3d fa 82 bc 5d c2 5c bd
       0.01887497 -0.046598706 -0.015988464 -0.053896297
000070 9d d5 97 3c 18 92 1d 3d 9f 72 bd bc 72 13 eb 3b
       0.018534476 0.038469404 -0.023125945 0.007173949
000080 15 30 8d 3b 7e d2 0d bd 05 ed 9f bc ce 1f 86 3d
       0.0043087103 -0.03462457 -0.0195222 0.06549035
000090 28 58 d2 bd 4f f8 93 bd 19 b4 47 bc d2 91 d9 bc
       -0.10270721 -0.072250955 -0.012188935 -0.02655879
0000a0 1d 00 55 bd 39 b9 1e bd 6c d2 04 3c 59 72 2d bd
       -0.05200206 -0.03875086 0.008106809 -0.04234538
0000b0 f4 03 95 3b 5f c9 cc bb b5 e4 ef 3b 0b c3 cc bb
       0.0045475904 -0.0062495912 0.007320965 -0.006248837
0000c0 b8 d0 ad 3c d0 51 1e 3d 63 5a bc 3d 28 1f 94 bc
       0.021217689 0.03865224 0.091969274 -0.018081263
0000d0 f0 f9 ac 3c e2 0c 50 bc 83 46 34 bd bb 36 33 3d
       0.021115273 -0.012698384 -0.044012558 0.043753367
0000e0 98 8b 31 3c bb 3d f7 bc 1b ab c4 bc 09 c9 a7 bc
       0.010836504 -0.030180803 -0.02400737 -0.020481603
0000f0 9f 35 ae bc 70 1e 91 3d 0a 6c 41 3a 1f 03 e1 3c
       -0.021265803 0.070858836 0.0007378465 0.027467309
000100 8a 69 e6 bc 12 66 15 3d fa 3d d0 bc 0d 53 8e bd
       -0.028126497 0.036474295 -0.025420178 -0.069494344
000110 3d 08 fc bc 78 0e 6b 3d 12 bb 63 bc f5 db 47 3d
       -0.030765647 0.057386845 -0.0138995815 0.04879375
000120 d5 11 8d 3d 0c 02 5d 3c 7c da 49 3b 4a 06 3f bd
       0.06888167 0.013489258 0.0030800393 -0.046636857
000130 ac 38 0c 3d 9f 06 e3 bb 47 45 ca bd 18 b1 18 3c
       0.034233734 -0.0069282795 -0.09876495 0.009319566
000140 35 80 2c 3d 8b 72 dd bd 00 62 5e bd ed 06 86 bb
       0.042114455 -0.10812863 -0.05429268 -0.004090181
000150 48 07 20 3c 11 8a 8d 3c 17 ea 40 3d cd 23 00 3d
       0.009767361 0.01727775 0.047098245 0.031284142
000160 db ad 5d 3c 59 95 4f 3c 67 ca 39 3d a9 f9 20 3c
       0.01353022 0.012669885 0.04535904 0.009825149
000170 83 80 1a bd 41 51 52 3d 50 1f 91 bd 3a 1a 95 3c
       -0.037720215 0.05134702 -0.070860505 0.018200982
000180 d8 73 24 3d 26 be 36 bd e2 f0 61 bd ca 94 c0 bd
       0.04014954 -0.044614933 -0.055161364 -0.09403379
000190 3b af 04 bd 0d 09 dd bd a9 99 e0 bc de 6d c2 bc
       -0.032393675 -0.10792742 -0.02741702 -0.02373403
0001a0 06 6e 31 bd f2 33 ca 3c 0d ed f2 bc e0 69 ea bc
       -0.043317817 0.024682973 -0.02965405 -0.028614938
0001b0 dc b2 13 3d 82 54 8f bd 63 cc 32 bc 60 d4 59 3c
       0.036059245 -0.069985405 -0.010912987 0.013295263
0001c0 46 48 bf 3c 91 87 72 bc 39 1b 26 3d 5f f8 d2 bc
       0.023349892 -0.014802829 0.040553305 -0.025753198
0001d0 06 ba 5b bc 0d dd b6 bc 5c 24 15 3d 5f 59 67 bc
       -0.013411051 -0.022322202 0.036411628 -0.014120429
0001e0 8d bd dc 3d f8 c0 13 3d 12 f7 1b bd 8b ad 82 3d
       0.107783414 0.0360727 -0.03807742 0.06380757
0001f0 d7 52 a5 bc 28 14 0c bc 95 d4 9a bd c2 7b e2 bc
       -0.020181103 -0.0085497275 -0.07560078 -0.027646903

a2c_network.actor_mlp.4.weight f4 [64, 128]
000000 73 88 25 bc ea 31 1c bc 1c 38 02 3b 52 63 f2 bc
       -0.010103333 -0.009533385 0.001986987 -0.029588375
000010 31 93 16 3d c3 1e 2a bd 58 77 c0 bd 8c 4e c0 3d
       0.036761466 -0.041533243 -0.09397763 0.093899816
000020 9f b8 dc 3c c9 a2 b0 bd 7a 42 c3 3d 4f fb 2f bc
       0.026943503 -0.08624799 0.09534164 -0.010741069
000030 70 b5 0a 3d ca 5f 80 bd 0b e9 82 ba ca bf 45 3c
       0.03386444 -0.0626827 -0.0009987665 0.012069652
000040 12 dd d5 3c 79 3e 4e bd 1e e5 65 3c 18 c1 92 3b
       0.026106391 -0.050352547 0.014031677 0.004478585
000050 cc 59 72 bd e2 dd dd 3b 02 f1 5d 3d 07 7f 1e 3d
       -0.05916767 0.0067708353 0.05418492 0.03869536
000060 d5 77 53 bd 3a 6b 28 3d 4a 7e 6f bb 3e 76 c9 3c
       -0.051627953 0.041117884 -0.003654378 0.024592515
000070 d8 8d 2b 3d 42 11 02 bd 76 da 5f bc a8 f0 13 3d
       0.04188332 -0.03175474 -0.013662925 0.03611818
000080 7b 8c fb 3d 21 29 03 bd 25 4d 2f 3d 70 de 97 3d
       0.12282654 -0.032021645 0.04279818 0.074154735
000090 82 01 02 be 44 54 45 3d 68 2d a8 bc 4f 87 26 3c
       -0.12695888 0.048176065 -0.020529464 0.010164096
0000a0 14 d6 b1 3a c3 f1 ed 3b 99 ca 20 be 8c 01 f3 3c
       0.0013567829 0.0072614863 -0.15702285 0.029663824
0000b0 77 1b a8 3d 57 26 fd bd 67 31 d4 bd 69 d5 93 3d
       0.082083635 -0.12360828 -0.10360985 0.07218439
0000c0 e5 9a a4 bc c8 65 26 3d b3 e4 e3 3d 46 f1 22 3d
       -0.02009339 0.04062441 0.11127605 0.039780878
0000d0 f3 f6 5c bd 48 b2 2a 3e 61 ea 90 3d be 7e 2b 3d
       -0.053946447 0.16669571 0.07075954 0.041868918
0000e0 2f 64 10 bd 5d 29 1b bd 1f 50 e6 3c 62 a5 0c be
       -0.035251793 -0.037881244 0.028114377 -0.13734964
0000f0 ae 94 37 bd 9d 82 09 3e bb 22 b5 bd de 7c 4b bd
       -0.044819526 0.13428731 -0.08844515 -0.04967963
000100 2f 25 1b 3c 76 11 6e 3c d6 c8 53 3d 03 a6 0b 3e
       0.0094693145 0.01453053 0.051705204 0.13637547
000110 ac 3d d9 3c ef fd 4d be 33 6f 53 bd 74 43 44 bd
       0.026518665 -0.20116399 -0.05161972 -0.04791589
000120 39 45 df 3d 6a 10 88 bc a5 13 13 bd e6 02 cf bc
       0.10901875 -0.01660939 -0.035907406 -0.025269937
000130 c6 b0 a5 3d d2 37 9c bd 4d e5 a1 3d 96 34 89 3d
       0.080903575 -0.076278344 0.07905064 0.06699483
000140 9f 32 aa bd ca 81 ee bd 6d 23 31 be db 8d 0f 3e
       -0.083104365 -0.11645849 -0.1729867 0.14018957
000150 d3 3d 19 3d dd fa 26 bc 1a e6 04 3e 22 4d 00 be
       0.037412476 -0.010191646 0.12978402 -0.12529424
000160 a8 67 bf 3d ad d7 28 bd 35 ce 7c 3d 17 1e b0 3c
       0.09345943 -0.04122131 0.06172009 0.021498723
000170 75 27 b5 bd 79 b5 5f 3d 88 a3 1d bd e0 80 e2 bc
       -0.088454165 0.054616425 -0.038486034 -0.027649343
000180 7f 79 02 3e e5 77 dc 3d 89 38 37 bd 8c c0 ff bd
       0.1274166 0.107650556 -0.04473165 -0.12487897
000190 60 06 92 bd 4b e5 c9 3b 46 1a b8 bd ee 98 03 3e
       -0.07130122 0.006161367 -0.08989386 0.12851307
0001a0 0d 6b 61 bd 4d e8 4f be a0 d2 3a bd 1a 3e ac 3c
       -0.055033732 -0.2030346 -0.045611024 0.021025706
0001b0 10 9d b7 bd c2 64 1c 3e ee a2 83 bd 89 15 e7 bc
       -0.08965504 0.15272811 -0.06427561 -0.028208511
0001c0 2b 71 00 bd 67 e8 c7 bd 75 5d 96 bd 16 41 17 bd
       -0.031357925 -0.09761124 -0.07342044 -0.036927305
0001d0 12 d1 cd bc 2b cf 7f 3c df 5b c1 bd 75 32 15 be
       -0.025124107 0.015613358 -0.09441351 -0.14570029
0001e0 11 80 30 3c ff dd a2 3d d6 b1 f7 bb e7 1e 13 3e
       0.010772721 0.07952499 -0.0075590415 0.14367257
0001f0 cf 71 8b 3c 17 06 13 be 47 41 f0 bd 1e fd 9d bd
       0.017022042 -0.14357792 -0.11731201 -0.07714294
000200 20 aa 66 3e 61 27 82 3c bb bd 95 3d 3a c4 8d 3c
       0.22525835 0.015887918 0.07311579 0.017305482
000210 2d 8a ea 3d 7c 55 90 3c ab 90 84 3d 83 ef 0d 3e
       0.11452136 0.017618887 0.06472906 0.13860898
000220 67 75 aa 3b 27 15 f7 3c 6b bb 0c be d3 3e e1 bd
       0.0052019837 0.030161453 -0.1374337 -0.10998311
000230 ab df 54 3d 2c 0a 4e be 5d 83 0b 3a 4e 64 b7 3d
       0.05197112 -0.20121068 0.0005322004 0.089546785
000240 cf 08 57 bc b5 2f 98 bd 9f 7c f5 bc 50 46 ad 3d
       -0.013124659 -0.074309744 -0.02996665 0.08460677
000250 c3 a3 4b bd 50 e6 cf bb 0b f5 46 3c 85 94 a6 3d
       -0.049716722 -0.006344594 0.012143384 0.081337966
000260 af 50 de bd 88 01 58 bb 96 ca b8 bd f6 44 74 be
       -0.10855233 -0.0032959897 -0.09023015 -0.23854432
000270 95 77 cb 3d 32 c9 90 3d 29 2c d5 bb 0f 31 e6 3d
       0.09934918 0.07069625 -0.0065055084 0.11239826
000280 f6 04 96 ba a3 55 a4 bb be 76 55 be c1 c0 9f bd
       -0.001144557 -0.0050150915 -0.20846078 -0.07800437
000290 92 93 85 bc a7 5e 3a bd 88 11 64 3d 4b b4 a2 3c
       -0.016305719 -0.045500424 0.05568078 0.019861361
0002a0 f3 ac 10 3d e3 68 12 3d ac 09 13 3e 8c 64 c5 bd
       0.035321187 0.03574456 0.14359158 -0.096383184
0002b0 da 3b 5b bd 25 d9 76 bd 38 74 3a be 1c d8 57 3b
       -0.053523876 -0.06026568 -0.18208396 0.0032935208
0002c0 34 b4 d0 3c c5 d6 8f 3d d5 af 14 be 69 9e 03 3e
       0.025476553 0.07023386 -0.145202 0.12853397
0002d0 1d 08 91 bd 40 d2 1a bd 76 82 ab 3d 9e a7 4f be
       -0.070816256 -0.037798166 0.08374493 -0.20278785
0002e0 99 e1 20 bd b6 9b 5d bd f3 d9 c4 bd 2c c6 45 be
       -0.039277647 -0.054103576 -0.09611883 -0.19313878
0002f0 5d c5 a9 3c 92 55 f5 bd bd 2f 3a be e7 43 88 bb
       0.020723993 -0.11979212 -0.18182273 -0.004158485
000300 2f cf 3c 3d a4 8c a7 bc d8 6f 94 be 00 cd b0 bd
       0.046096023 -0.020452805 -0.2899158 -0.08632851
000310 8a d9 6d be 33 85 28 bd 20 eb ba bc 16 32 9a bd
       -0.23227516 -0.041142654 -0.022817194 -0.075290844
000320 77 fb 01 3e c3 5f 48 be a6 b5 0f 3a 75 50 c1 bc
       0.12693582 -0.1956778 0.0005482085 -0.023597935
000330 be 48 eb bc 3a 02 90 3c db 16 b4 3d 98 b4 64 ba
       -0.02872121 0.017579187 0.08793422 -0.00087244203
000340 46 ad 1f be 7a be 16 bc 58 96 22 3c 89 e6 a0 bc
       -0.15593442 -0.009200687 0.00992354 -0.019641178
000350 d5 b5 77 3d 53 5c 23 3d d2 f8 59 3d 47 f9 01 be
       0.060476143 0.03988297 0.05321581 -0.12692748
000360 7d 92 4f be df 74 a0 bd 7f c9 28 3d 79 f1 a0 bc
       -0.20270725 -0.078347914 0.041207787 -0.019646393
000370 9a cd 84 bd f5 7a 90 3d 83 41 3c be 4a 18 ab bc
       -0.06484528 0.07054702 -0.18384366 -0.020885605
000380 bd e3 69 bc 57 85 1f be d7 6f 05 bd 31 ef 84 3d
       -0.014275488 -0.15578209 -0.032577362 0.06490935
000390 5a ac b0 bd 5e 9b 5f 3d 00 40 ef 3d 1e e7 82 3d
       -0.086266235 0.05459153 0.11682129 0.06391738
0003a0 47 cf 65 3d 79 c6 fe 3c 41 07 04 be de 5b 06 3d
       0.05610588 0.031100499 -0.12893392 0.032802455
0003b0 38 6f b1 3d 5d 39 9a bd a7 da 88 bd 24 dd 9f 3d
       0.086637914 -0.075304724 -0.066823296 0.07805851
0003c0 af 49 eb bb 2a e2 58 3d ba 34 5b ba 88 02 32 bd
       -0.0071804146 0.05295006 -0.0008362044 -0.043459445
0003d0 7e ef dd 3d f2 cf 98 3a 5a 0d b6 bc 36 8c 29 3d
       0.10836695 0.0011658652 -0.022223163 0.04139348
0003e0 54 a0 03 bd c6 91 e8 3d f7 8b b7 bd da 05 3f be
       -0.032135323 0.11355929 -0.08962243 -0.18654576
0003f0 fe 8c c9 3d 4e b3 9f 3d 29 09 84 bd 14 93 88 bd
       0.09841345 0.077978715 -0.0644706 -0.06668678

a2c_network.actor_mlp.4.bias f4 [64]
000000 48 74 0f 3d 02 0f f3 bc 47 74 db bc c0 1b dc 3b
       0.035023004 -0.029670242 -0.026788844 0.0067171752
000010 d1 de 74 3d cb 45 fc bc d8 dd ea bc 79 20 04 3d
       0.059782807 -0.030794999 -0.028670236 0.03225753
000020 e8 32 26 3c c5 b8 be bc 89 09 0b bd 21 84 9f 3b
       0.010143973 -0.023281464 -0.03394464 0.004868046
000030 fa 32 95 bd b2 3b 62 bc 10 22 ea 3c 70 97 9c bd
       -0.07285114 -0.013808178 0.028580695 -0.07646072
000040 9d fe f6 3b 35 66 bb 3b aa d2 e4 bc ef f2 bf bc
       0.0075376765 0.005718971 -0.027932484 -0.02343127
000050 d0 14 0e bb b9 33 70 3c 66 24 55 bd ce f4 58 bd
       -0.0021679886 0.014660769 -0.052036665 -0.05296784
000060 1a fe 96 3c 1f fa 07 3c fe 5f 43 3c e0 03 c3 bb
       0.018431712 0.00829938 0.011924742 -0.0059513897
000070 b1 58 d2 3c f6 71 1b 3d 0e 4f 66 bd f9 36 da 3b
       0.025677057 0.03795048 -0.056227736 0.0066593853
000080 1e e0 13 3c 9c 10 a0 3c 3f da 74 3c ea 34 9a ba
       0.009025602 0.01953917 0.014944612 -0.0011765037
000090 f3 b2 4a 3c 55 5e b0 bc e6 be e2 3c ec 62 f7 bc
       0.012371766 -0.021529356 0.027678918 -0.030198537
0000a0 08 69 60 3c 7e e4 34 bd 06 17 06 bd f8 a4 d7 3a
       0.013696916 -0.04416322 -0.0327368 0.0016452363
0000b0 95 94 c8 3b c6 e8 80 3c 0a 7c a4 3c 31 37 e7 bc
       0.006121228 0.015735995 0.020078678 -0.02822456
0000c0 cc f6 f0 bb b2 3a 00 bd a2 65 bd bc b1 8d 03 bd
       -0.007353639 -0.031305976 -0.023119751 -0.03211755
0000d0 d7 a6 1c 3d 1d 83 14 3d 5b 2c bf 3c bc a5 2c bd
       0.03824505 0.036257852 0.02333658 -0.042150244
0000e0 54 74 55 bd b2 56 87 3b 0b 7e 08 3c 11 f9 2d bd
       -0.052112892 0.004130208 0.008330832 -0.042473856
0000f0 0d b0 81 bb b9 ea b0 bc d7 b6 4e bc 62 37 59 bc
       -0.0039577545 -0.0215963 -0.012616835 -0.013257833

a2c_network.value.weight f4 [1, 64]
000000 dd 21 6e bd c9 55 4d 3b 73 4c 85 bd cc a1 c7 3d
       -0.058137763 0.003133165 -0.06508722 0.09747657
000010 98 1e a1 3c f8 08 8e bc 3b 5c 18 bd fb ac 89 3c
       0.019667909 -0.017338261 -0.037197333 0.016806116
000020 ce 5e 69 3d 1f 83 11 bd 29 fe 99 bd 71 3d de 3d
       0.05697518 -0.035525437 -0.0751918 0.10851563
000030 d8 3e 69 3c f0 66 e6 bb b0 ff 56 3d 0e b2 fe 3c
       0.0142361745 -0.007031314 0.052489936 0.031090762
000040 26 41 5f 3d 12 d8 06 be e7 1d 81 bd e4 78 4d bd
       0.05450549 -0.13168362 -0.063045315 -0.05016412
000050 96 16 a7 bd e0 f2 fd 3c 37 e8 81 3c eb a4 10 bd
       -0.08158605 0.0309996 0.015857799 -0.035313528
000060 a3 a3 e6 3c 44 a6 1a 3e df 31 e5 bd 67 d7 3b 3d
       0.0281542 0.15102488 -0.11191153 0.04585972
000070 3f 14 3c 3d d0 5c b6 3d 81 20 92 3c 9d 46 a9 bd
       0.045917746 0.08904421 0.017837765 -0.082654215
000080 0c 66 f5 bd 28 61 cc bd 4b ef 76 3d f5 af 0d 3e
       -0.119823545 -0.099794686 0.0602868 0.13836654
000090 82 9e 1b be 84 a3 17 be f4 97 99 3d 01 4f 9e 3d
       -0.15197185 -0.1480847 0.07499686 0.077299125
0000a0 e0 81 ec 3d 56 2a 1e 3d d4 48 28 bd a6 96 3d 3d
       0.11548209 0.038614593 -0.04108508 0.046286248
0000b0 3f cd f3 3b d1 9d 55 bd 7b 70 f7 3b c3 94 e4 bd
       0.0074402387 -0.05215246 0.0075512505 -0.111611865
0000c0 66 28 d7 3c a1 1d 9f 3c cb ac 47 bd 23 e1 24 39
       0.02626438 0.019423308 -0.048748773 0.00015724129
0000d0 ee a2 de 3c bd 89 c8 3c 89 40 08 be 2e b6 05 bc
       0.0271773 0.024479741 -0.13305868 -0.008161111
0000e0 05 60 8d bd 89 a0 1a 3e ba 9a 00 3e 57 0c 8a bd
       -0.0690308 0.15100302 0.12559023 -0.06740635
0000f0 0b 1a 97 bb af f1 c1 bd bf 18 bb bd cd 4d 36 3d
       -0.004611259 -0.094699256 -0.09135579 0.04450779

a2c_network.mu.weight f4 [18, 64]
000000 bd 14 07 be 1f ed f6 bc 44 77 ff bd 9d 02 eb 3d
       -0.13191505 -0.030142365 -0.1247392 0.11475108
000010 bb 21 2b 3e d9 1a 20 3d be d6 1f be 57 6e 27 be
       0.16712086 0.039088104 -0.15609261 -0.16350685
000020 90 f8 ef bc 93 9f 92 bc 20 c9 f9 bd c1 bb a1 bd
       -0.029293329 -0.017898357 -0.12196565 -0.07897139
000030 48 f5 14 3c 4c de f7 3d 22 08 58 3e 8a bb 01 be
       0.009091683 0.12102947 0.21096852 -0.12669197
000040 28 07 0e be 1e e5 c1 3d c9 fe bb bd 67 70 5f 3d
       -0.13869917 0.09467529 -0.09179456 0.054550555
000050 c7 b3 1c 3e d3 26 53 bd a5 8b 99 3d 1f 4d 3c 3d
       0.15302955 -0.051550698 0.07497338 0.045971986
000060 e9 0b cc 3d 4a d8 08 be 36 a8 14 bd ae 33 c5 bb
       0.09963209 -0.13363758 -0.03629323 -0.0060181236
000070 bd 54 a3 bd c2 f0 b8 3d 5a a5 ab 3c ef 18 c6 3b
       -0.07975147 0.09030296 0.02095287 0.006045453
000080 ed 30 c2 bb 28 f7 15 bd d4 21 06 bd 8b 07 0f bd
       -0.0059262426 -0.03661266 -0.032747105 -0.034919303
000090 11 f3 f6 3c 43 f6 09 3e 1a a9 9a bd 31 d4 0a bc
       0.0301452 0.13472848 -0.07551785 -0.008473442
0000a0 f4 9a 6b 3d a8 6c ad bd c1 24 9d bc 38 97 75 bd
       0.05752082 -0.0846799 -0.019182565 -0.059958667
0000b0 d9 ac 22 bd 81 a3 42 3e 5f 38 07 3d 60 0e ca bd
       -0.03971562 0.19007684 0.033012744 -0.09866023
0000c0 03 49 ce 3d 0f f2 89 bc c9 3b 25 bd e6 25 11 38
       0.1007252 -0.016839055 -0.04034022 3.460599e-05
0000d0 aa 46 ab bd ba ea b9 bd 89 ef d8 bc 45 14 98 bc
       -0.083630875 -0.09077974 -0.026481407 -0.018564353
0000e0 f9 b4 19 bd bb e2 c9 3d f9 e0 af bb 5c 85 32 3c
       -0.037526105 0.098576985 -0.005367395 0.010896053
0000f0 66 cb 4d be 5b c2 10 bb 0a e4 fa 3d 50 34 8f 3d
       -0.20097122 -0.00220885 0.12250526 0.069924
000100 56 2c 5f bb 8c b3 a6 3c 09 2e 18 3e ba ae 87 3c
       -0.0034053526 0.020349286 0.14861311 0.016562808
000110 29 56 16 bd 97 8a 40 3d 84 a5 d7 3c 11 c0 62 bd
       -0.036703262 0.04700717 0.026324041 -0.05535895
000120 29 23 ea bd 69 b5 53 3d 0d e2 83 3d be b7 e7 bc
       -0.114324875 0.051686678 0.064396 -0.028285857
000130 27 7b 37 bd cb 4a a1 3b 7a 63 cb 3c 01 6a 49 bd
       -0.04479518 0.004922246 0.024827708 -0.04917336
000140 50 90 10 be 41 99 09 3e 95 16 bf 3d ad 44 c4 bc
       -0.14117551 0.13437368 0.09330479 -0.023958528
000150 cc e8 33 3d 41 5c b3 bd fb e4 d1 3d 7f 66 d1 bb
       0.043923184 -0.087578304 0.10248753 -0.0063903923
000160 39 c9 41 3d c5 5c 66 3d 46 b8 98 3c 85 a3 8d bd
       0.04731104 0.056240816 0.018642556 -0.069159545
000170 bc 43 c9 3d 63 98 96 3d 7a b3 b5 3d 08 47 9d bd
       0.098273724 0.07353284 0.08872123 -0.07679564
000180 e7 51 48 bd 17 4c 26 bd 12 fb 71 bd 4c a0 94 bd
       -0.048906233 -0.04059991 -0.05907733 -0.07257137
000190 46 9c 87 bc 5b 91 e3 bc 92 17 89 3c 88 56 b6 3d
       -0.01655401 -0.027779272 0.016734872 0.08903223
0001a0 18 3d 98 3c e9 a7 e9 3d 75 57 e3 bd b5 20 04 be
       0.01858382 0.114089794 -0.111006655 -0.12903102
0001b0 9a f3 74 bd a9 3c d8 bd 53 13 9f bd 88 f9 8b 3c
       -0.05980263 -0.10558445 -0.07767358 0.01708676
0001c0 a9 ae 31 bc 88 85 da 3c 58 f5 8d 3c fb e4 8d 3e
       -0.010844865 0.026675 0.017328903 0.2771376
0001d0 71 4f bc bc 9c ce 9d 3d c9 a7 fe bd ee ff 08 bb
       -0.0229871 0.07705423 -0.12434346 -0.00209045
0001e0 4b 8c 02 3e 93 74 fc b9 5f bc 97 bc f1 f8 12 3e
       0.1274883 -0.0004815204 -0.01852244 0.14352776
0001f0 c6 03 e3 bb 90 cd d0 3d c4 83 3a bd 25 e6 02 3e
       -0.00692794 0.10195458 -0.045535818 0.12783106
000200 a7 cc c8 3d ec b3 37 3b af e5 20 3d 56 19 77 3d
       0.09804659 0.0028030826 0.039281543 0.060326897
000210 0a e0 32 bd cd 1f 97 3d 67 16 92 bc 4c cc ca bd
       -0.04367069 0.073791124 -0.017832948 -0.09902248
000220 a1 e5 50 3c d7 d9 07 be 67 ca b5 3d e8 54 1a 3b
       0.01275006 -0.13266693 0.08876496 0.0023549143
000230 f4 5a 7b 3d a7 e5 56 3c 5e 38 a1 3d 43 b6 ef 3d
       0.061366037 0.013116277 0.07872079 0.117046855
000240 e2 8d d9 bd ec 06 51 bd 52 b4 4e 3d c5 52 dd 3d
       -0.10622765 -0.05103199 0.050464936 0.10806803
000250 4e de fd 3d a0 cc 3d bd ae d5 7b 3d f6 1b db 3c
       0.12395917 -0.046337724 0.061483078 0.026746731
000260 78 25 bb bd 33 3f df bd 10 9e c4 3d 82 f6 1b be
       -0.09138006 -0.10900726 0.096004605 -0.15230754
000270 f1 18 37 bd c4 1a ef bc 59 18 1a 3e 37 b0 b3 bb
       -0.04470152 -0.029187568 0.1504835 -0.005483653
000280 2a 7c 89 bd 38 fb 4c bd e2 f1 df bc a1 af a7 3d
       -0.067131355 -0.05004427 -0.027337018 0.081877954
000290 01 ee 3f be 5b 9c db 3d 3b aa 28 3e 19 40 84 3d
       -0.18743135 0.10723182 0.16471188 0.06457538
0002a0 ef 0c 9e 3a 10 9c 10 bd 11 fb 00 be 61 c6 59 3d
       0.0012058298 -0.035305083 -0.12595774 0.053167704
0002b0 99 1b d4 bc f8 f5 81 bd 31 52 93 bd be b0 c0 bd
       -0.025892066 -0.06345743 -0.07193411 -0.09408711
0002c0 6f 70 67 bd 6a 70 a4 3d 89 93 6b 3d 07 da a7 3d
       -0.05650371 0.08029254 0.057513747 0.08195882
0002d0 b3 08 6b 3d 86 38 a4 bd 56 a1 07 be 39 7f b9 3d
       0.057381343 -0.080185935 -0.13245139 0.09057469
0002e0 a8 83 ab 3c 37 b6 65 bd dd cd fb 3d 2d 5b b4 bb
       0.020936802 -0.056081977 0.12295125 -0.005504033
0002f0 24 bf 65 bc 53 d4 fc bd 32 95 e0 bd fb d0 d7 3c
       -0.014022622 -0.12345185 -0.10965957 0.026344767
000300 92 3b d0 3d 80 13 45 3e 63 5b 2f bd f3 c0 1a 3d
       0.10167612 0.1924572 -0.042811763 0.037781667
000310 79 99 b0 bd d6 20 d2 bd e7 50 f1 3d 47 35 b6 bd
       -0.086230226 -0.10260169 0.11783009 -0.088968806
000320 e6 ab 06 3d 60 27 8f bd a9 5c 57 bd ff 31 03 3e
       0.03287878 -0.06989932 -0.052578602 0.12812041
000330 35 59 99 b9 05 1d b1 3d 40 cb d2 3d 55 41 48 3e
       -0.00029248898 0.08648113 0.10292673 0.19556172
000340 85 96 80 3c 19 a6 00 be e0 33 09 bc 72 86 e4 bd
       0.015696773 -0.12563361 -0.008374184 -0.11158456
000350 6d 4a 10 3d ba 17 a2 bd 3d 6a 12 3d e7 b1 a7 bd
       0.035227228 -0.07914682 0.035745848 -0.08188229
000360 ac 7a fe 3c e4 e8 9a bd 9f 34 f8 3c 55 8c 09 be
       0.031064354 -0.075639516 0.03029853 -0.13432439
000370 04 fc 87 bd d4 5f 3a 3e 2e 5d 6e 3d 85 a2 8f 3d
       -0.06639865 0.18200618 0.05819433 0.0701342
000380 86 45 d8 3d 5b 62 d8 bd 9e 37 1a bd 44 8b f7 bd
       0.105601355 -0.10565635 -0.037650697 -0.1208711
000390 e8 e3 a5 bd b0 0b bd bd 07 c2 b4 bd 9b ce 6d 3d
       -0.0810011 -0.09230745 -0.0882607 0.058058362
0003a0 66 9b 04 3c 98 00 cb 3d 31 02 0d 3c 61 a3 e8 3c
       0.0080936905 0.099122226 0.0086064795 0.028398218
0003b0 a4 4a a8 3d 71 e7 1f bd 93 d3 bc 3c 5e 87 cd 3c
       0.082173616 -0.03903908 0.023050105 0.025088962
0003c0 e0 06 3d 3d d7 83 c5 bd 67 1b 40 bd ae 5d be bd
       0.046149135 -0.09644287 -0.046901133 -0.09295212
0003d0 db 47 53 bd 5c a6 f7 3d b2 9c b7 bd d9 dd e2 bd
       -0.0515822 0.120922774 -0.08965434 -0.1107747
0003e0 1f 53 e1 bd f8 ba f9 bd 6e 65 18 be ad d1 39 3d
       -0.11002182 -0.121938646 -0.14882442 0.045365978
0003f0 7c 20 98 bd 5e e8 00 be 36 2d 0f be a7 35 85 bd
       -0.07428071 -0.12588641 -0.1398209 -0.06504374
