assets/animals/crab/crab_direct.pth (torch, 731416 bytes, 36 tensors)

value_mean_std.running_mean f8 [1]
0	0x404b0a8f72149d2a	54.08250261312999

value_mean_std.running_var f8 [1]
0	0x409b986e4447a20b	1766.1076823418286

value_mean_std.count f8 []
0	0x417d600010000000	30801921.0

running_mean_std.running_mean f8 [66]
0	0x3fc1e1adca4611a3	0.1396996724762519
1	0xbfa1c2c16cee5c22	-0.03468899206853161
2	0xbfc08d63ca83564c	-0.12931487453777135
3	0x3f902444b235161c	0.015763352753557766
4	0xbf79f6d78cdf7dcd	-0.006338922494222255
5	0xbfa2b5fcd6a5bb8d	-0.03654470558364329
6	0x3f9d610944adfc70	0.028690476242897167
7	0x3ffef115affed17d	1.9338585734195413
8	0x3fa0f61776c9fa0c	0.03312753033695878
9	0xbffef1a7e92f37aa	-1.9339980229155835
10	0x3fed1ae7cdcf14e6	0.9095343608575177
11	0xbfeb3e78beb67fc1	-0.851375935064418
12	0x3fbcd7c0a1b1d5ee	0.1126671213877086
13	0xbfe309c9cba914e8	-0.5949448564284952
14	0xbfebf041a862948a	-0.8730781830569339
15	0xbf8b70dbc1275ee3	-0.01339885409554093
16	0xbfc809a49861e304	-0.18779427948518201
17	0x3fd521378d64878d	0.3301524048603078
18	0xbfc22a6809beac14	-0.14191914058514554
19	0xbfa0fe51000cba46	-0.03319028020483876
20	0xbfd988a987b6d60b	-0.3989662003835696
21	0xbf9f2c2071c1c4ad	-0.03044176763836919
22	0xbfe20380c8b0bee1	-0.5629276199087735
23	0xbfdec5974370a660	-0.4808099897951248
24	0x3fc274c57f183701	0.14418858247557156
25	0x3fd28862a355e98e	0.2895742983888788
26	0xbfd2be11c1c5194d	-0.292850913265643
27	0xbfc3ebe195e459c5	-0.15563602274842317
28	0xbfc3b257a06b7952	-0.15388007481574079
29	0x3fc3799382672254	0.15214771144225614
30	0xbf691d6c4832bd3b	-0.00306578778107505
31	0xbf828637b156b52a	-0.009045062159965218
32	0xbf88283f7e15b8a8	-0.011795517001442171
33	0xbf722d1071bc63bf	-0.004437507853958188
34	0xbf606ffa02023449	-0.002006519600462418
35	0x3f82388ab5d4ecb6	0.008896907495559919
36	0xbf605aeb9e8ecb0a	-0.001996479219508078
37	0xbf74ec61adbc0b3d	-0.0051082435200012185
38	0xbf742dba095bcddc	-0.004926420884419493
39	0x3f79557f4e629715	0.006185052194416026
40	0x3f63b55cc47df89d	0.0024058162561565026
41	0x3f71a3c20285b5ec	0.00430656228159652
42	0x3f83248f902011e5	0.009347077928404121
43	0x3f86836173443713	0.010992776231912004
44	0xbf75c9068e28d2b7	-0.005318666083031934
45	0xbf801b8258c52a1c	-0.007864969572115625
46	0xbf7ec129d123c568	-0.007508433673352279
47	0xbf81db176a954774	-0.008718665065916766
48	0x3fa17b59fc7d7034	0.03414422232774009
49	0xbfdcbbbb191de906	-0.4489581818849192
50	0xbfe3436a1bc615b3	-0.6019793074089449
51	0x3f73fa7cf28d15ca	0.004877555919681817
52	0xbfc5355630f431e7	-0.16569020643545615
53	0x3fc0422aa80472c3	0.1270192451855988
54	0xbfc9b0ef9511b434	-0.20071215418593769
55	0xbfaf048be7c5f0d6	-0.06058156208288927
56	0xbfd6bf2b6c1027d7	-0.35541806748426324
57	0xbfc741b94d37dbb9	-0.18169323225421666
58	0xbfd42275f0186ad3	-0.31460331389250235
59	0xbfd20477d55ce71d	-0.28152271114559985
60	0x3fcaa513b4cdf111	0.2081627495607639
61	0x3fd045a408b0642b	0.254250534520511
62	0xbfcd3725f9d55a74	-0.22824549387833637
63	0xbfbddbbf872894b1	-0.11663434076088454
64	0xbfb791d48eec081d	-0.09206894387537586
65	0x3fb05259e2bc5974	0.06375657830753828

running_mean_std.running_var f8 [66]
0	0x3f3a8e4a8f31ad65	0.0004052097348849675
1	0x3f8abff328bb9efd	0.013061427765435502
2	0x3f9922e73c0e6282	0.024547207870997408
3	0x3f94835ce76c87a5	0.020032359719273213
4	0x3fe130e8ed28ec4a	0.5372204429653575
5	0x3fd2223bed95e56c	0.2833394832774363
6	0x3f59d77222a45536	0.0015772451975569319
7	0x3fc27dd9b0aac83b	0.144465647948495
8	0x3fb60efa8f47e0eb	0.08616605756822408
9	0x3fc27de8374af53c	0.1444673795685193
10	0x3f910bceb66cb23f	0.016646604427636765
11	0x3f959b44d66079c7	0.021100116333508525
12	0x3fe37844d7356a69	0.608431263284115
13	0x3fdebb29e44a9444	0.4801735619933576
14	0x3fb41ca6f19e785f	0.07856219672109564
15	0x3fe738179519e64e	0.7255971824772105
16	0x3fe4f4f2f8e2f1be	0.6549010144295193
17	0x3fd2bb65b65c641c	0.29268782433206453
18	0x3fe177b757966b71	0.5458637915320265
19	0x3fddb10e7d167d32	0.4639316770134939
20	0x3fdd5ad01c0e2e1a	0.45866778125557206
21	0x3fe62cc4ddf3f8eb	0.6929649672527182
22	0x3fde6a67aa5b05c0	0.47524444233212293
23	0x3fe0b45412bd0cd1	0.522012745474422
24	0x3fe64a7331164a71	0.6965881308299925
25	0x3fe69761aef5e28a	0.7059791962811499
26	0x3fe50d64da73f0f1	0.6578850046785459
27	0x3fe4e7e8554ba1e1	0.6533090272833385
28	0x3fe39b89ce6379a3	0.6127366095568515
29	0x3fe40f3a8396c6e0	0.6268589563462363
30	0x3fc667d76c6132af	0.17504399101234955
31	0x3fa31eb9669e0c07	0.037343782211813496
32	0x3f98545b8396a95a	0.023759298235441186
33	0x3fc5e2b22e2422e1	0.1709807133959407
34	0x3fc2f74ac65ce61c	0.1481717556542187
35	0x3fb85d0d8f1106bb	0.09516987555346194
36	0x3fceccea6ac6ff74	0.24062853063332634
37	0x3fc64f72ebb7358d	0.17429958829454187
38	0x3fd03f180005e413	0.25385093691107946
39	0x3fc3b6bbe108ef5f	0.1540140961459384
40	0x3fad79fc60807fe0	0.05757130315782866
41	0x3fb8ca3e1f3d3205	0.09683597815200791
42	0x3fc674cdb6557024	0.1754395618726231
43	0x3fcc0d1d2223a501	0.2191502014823428
44	0x3fb7ae57ee07863d	0.09250402032150702
45	0x3fb92850b5fc7fd8	0.09827141230607539
46	0x3fb98fa144126194	0.09984786903294768
47	0x3fc3e2b8f4d72760	0.15535652117824394
48	0x3fe6c44d5608651c	0.7114626579597458
49	0x3fdd0ef00035a91f	0.4540367128417006
50	0x3fd3e2cc5f963904	0.31071767172478837
51	0x3fe48de256843937	0.6423198404097893
52	0x3fe4424bd53e7107	0.6330928006096038
53	0x3fe0cc2a2ff144b4	0.524922460210425
54	0x3fe31e4eac9ef234	0.5974496242047906
55	0x3fe25bede1582992	0.5737218285806185
56	0x3fe117ac69fd3c6c	0.5341398305989862
57	0x3fdf95a4790de04e	0.49350845166873547
58	0x3fdd6b5c7fdb0a2e	0.45967781530285634
59	0x3fe1b094e7774f57	0.5528053780385375
60	0x3fe0267eb099b79b	0.5046990823009198
61	0x3fe0d21f09208492	0.5256495645773092
62	0x3fe1c5871a6fb5df	0.5553622738204317
63	0x3fe210b594fb71a9	0.5645397100266126
64	0x3fe142044555f24b	0.5393086771214909
65	0x3fe18bece22b3ab4	0.5483307282791743

running_mean_std.count f8 []
0	0x416d600020000000	15400961.0

a2c_network.sigma f4 [18]
0	0xbf4c1dff	-0.7973327
1	0xbead6b22	-0.33870798
2	0xbe1ea081	-0.15490915
3	0xbf1501f2	-0.58206093
4	0xbeeef3b8	-0.46670318
5	0xbeb29e84	-0.34886563
6	0xbede7341	-0.43447307
7	0xbef2799e	-0.47358412
8	0xbec2ed21	-0.3807154
9	0xbe9ea175	-0.30982557
10	0xbe88aa19	-0.26692274
11	0xbe1e182d	-0.1543891
12	0xbe830dd9	-0.25596502
13	0xbe2471b2	-0.16058996
14	0xbe829b65	-0.25509182
15	0xbeea690d	-0.45783272
16	0xbec5b8c8	-0.3861754
17	0xbde072d6	-0.10959403

a2c_network.actor_mlp.0.weight f4 [256, 66]
0	0x3e3a909f	0.18219231
1	0xbe06eed0	-0.13177037
2	0xbd435456	-0.04768785
3	0x3c94d40b	0.018167516
4	0x3d2c6a2b	0.042093437
5	0x3da7fdf0	0.082027316
6	0x3df95d2f	0.121759765
7	0xbe097480	-0.13423347
8	0xbe33834b	-0.17530553
9	0xbd826232	-0.063663855
10	0xbce26d3b	-0.027639976
11	0x3ca52d8c	0.02016332
12	0x3d2091cf	0.039201554
13	0x3dad50ae	0.08462654
14	0xbcc7dc8c	-0.024397157
15	0xbd3b6187	-0.045747306
16	0x3d161b67	0.036647227
17	0xbdae5690	-0.08512604
18	0x3d950678	0.072766244
19	0x3c3d2860	0.011545271
20	0x3dda96b4	0.106732756
21	0xbe30f18b	-0.17279641
22	0xbe1d6786	-0.15371522
23	0x3d1df549	0.038564
24	0x3d36bcb3	0.04461355
25	0xbd003fc4	-0.03131081
26	0x3da1b447	0.07895713
27	0x3e18ea0f	0.14933036
28	0xbd605992	-0.05477292
29	0xbcd48af0	-0.025945157
30	0x3e26680d	0.1625063
31	0xbc0f0fd6	-0.008731803
32	0xbd40f865	-0.047111887
33	0xbe27c890	-0.16385102
34	0xbdbcf1fa	-0.09225841
35	0x3d49a650	0.049230874
36	0x3cda2c92	0.02663258
37	0xbd43913e	-0.047745936
38	0x3c8ceafe	0.017201897
39	0xbcfede83	-0.031111961
40	0xbe166e34	-0.14690477
41	0xbdab9ddd	-0.083797194
42	0xbe172238	-0.14759147
43	0xbd3122e0	-0.04324615
44	0x3dea9200	0.114536285
45	0x3dcabfd9	0.09899873
46	0x3d2774fb	0.040883046
47	0xbd1c95a8	-0.03822866
48	0xbdaf843e	-0.08570145
49	0xbd08c46c	-0.033390447
50	0x3cf803aa	0.030275185
51	0xbdd9b837	-0.10630839
52	0xbd69f1af	-0.057115253
53	0xbd8f6363	-0.070013784
54	0x3d6cd913	0.057824206
55	0xbc8a449b	-0.016878417
56	0x3cb47e09	0.022032754
57	0xbd5b8250	-0.053591073
58	0xbd533e2d	-0.051572967
59	0xbd1f0214	-0.03882034
60	0xbb99b10c	-0.004690295
61	0xbd55e777	-0.052222695
62	0x3d8ed5e6	0.06974392
63	0x3cfc6716	0.030810874
64	0x3dd727f3	0.105056666
65	0x3d639199	0.055558775
66	0xbdac5d61	-0.08416248
67	0x3e09280c	0.13394183
68	0xbdacf794	-0.08445659
69	0x39165000	0.00014334917
70	0xbddce47a	-0.10785766
71	0xbe0acdf2	-0.13555124
72	0x3d8b3268	0.067967236
73	0x3ca5fbea	0.020261724
74	0x3d219354	0.039447144
75	0xbe17d122	-0.14825872
76	0x3d3d6849	0.046242032
77	0xbd8897c8	-0.06669575
78	0xbc411324	-0.011784349
79	0xbd89479f	-0.06703114
80	0x3d7d337c	0.061816677
81	0x3e082fbf	0.13299464
82	0x3dd001ad	0.1015657
83	0xbdef14a4	-0.11673859
84	0x3c732809	0.014841088
85	0xbdac6a96	-0.08418767
86	0xbc558480	-0.013032079
87	0xbdc8cbb4	-0.09804478
88	0x3de29788	0.110640585
89	0xbdc24e28	-0.09487563
90	0x3dc7031e	0.097173914
91	0x3d670779	0.05640361
92	0x3d1b3ba8	0.03789869
93	0xbd62c59e	-0.055364244
94	0x3db5bbd3	0.08873715
95	0xbc352e24	-0.011058364
96	0x3d853020	0.0650332
97	0xbde34c58	-0.11098546
98	0x3c823a0d	0.015896821
99	0x3cdad050	0.02671066
100	0xbc81dd28	-0.015852526
101	0x3d96134f	0.073279016
102	0x3d03edcd	0.032209206
103	0xbdc867fa	-0.09785457
104	0xbd7b0325	-0.061282296
105	0xbd3d7ce2	-0.046261676
106	0x3dd3b5d8	0.10337418
107	0xbd2ae11d	-0.04171859
108	0xbd647ca1	-0.055782918
109	0xbd8012c7	-0.062535815
110	0xbd9bb38a	-0.07602604
111	0x3d19d177	0.037553277
112	0x3e1dce38	0.15410697
113	0xbda35f54	-0.07977167
114	0x3d31962d	0.04335611
115	0x3d49f51f	0.04930603
116	0xbc8c5baf	-0.017133562
117	0xbd36c9f6	-0.0446262
118	0x3d921780	0.071333885
119	0x3d662a9a	0.05619297
120	0xbcf9c30c	-0.030488513
121	0xb97f27a1	-0.00024333458
122	0xbd81e08e	-0.063416585
123	0x3cc4e3bf	0.024034379
124	0xbcb407f4	-0.021976449
125	0xbd294fe3	-0.04133595
126	0x3e1aa530	0.15102077
127	0x3dc88b1d	0.09792159
128	0xbbf58329	-0.007492442
129	0xbcfadf05	-0.030623922
130	0x3d035a09	0.032068286
131	0x3cfaf817	0.030635877
132	0x3d62f468	0.055408865
133	0x3d168751	0.03675014
134	0xbe14b382	-0.14521602
135	0x3c212c79	0.009837263
136	0x3e1f655c	0.1556601
137	0x3d6edd11	0.058316294
138	0x3b827ce6	0.003982174
139	0xbda840b3	-0.082154654
140	0xbd3ea903	-0.0465479
141	0xbdcd2b53	-0.10018029
142	0xbcbb14c4	-0.02283705
143	0x3c9a046e	0.01880094
144	0x3dfd321a	0.12363072
145	0x3d731a3d	0.059351195
146	0xbd9b9d1d	-0.07598326
147	0xbddc73f7	-0.10764306
148	0xbc727caa	-0.01480023
149	0x3e0aa968	0.13541186
150	0x3d07f0c0	0.03318858
151	0xbb8c8f64	-0.0042895544
152	0x3d7ba4f9	0.061436627
153	0xbd01bea2	-0.031675942
154	0xbd9d9088	-0.07693583
155	0x3ddfe652	0.10932602
156	0xbd428dfe	-0.047498696
157	0xbd342f48	-0.043990403
158	0xbdd9cc3d	-0.106346585
159	0x3d909d9e	0.07061313
160	0x3deb2395	0.11481396
161	0x3d81bda6	0.06335001
162	0xbe24606c	-0.16052407
163	0xbe04fb92	-0.12986591
164	0xbd95bff3	-0.07312002
165	0x3df32196	0.118716404
166	0x3d825aae	0.06364952
167	0x3de0b1be	0.10971402
168	0x3d554d0b	0.052075427
169	0x3cc5e6f7	0.024157984
170	0xbd1c9c8a	-0.038235225
171	0xbdc9e563	-0.09858205
172	0xbda76d84	-0.08175185
173	0xbde8fb29	-0.1137603
174	0x3dc1df51	0.09466422
175	0xbda0fadc	-0.07860348
176	0xba7688b8	-0.0009404528
177	0xbdd384bf	-0.10328054
178	0xbd2bcca3	-0.041943204
179	0xbd2d9a49	-0.042383466
180	0xbdc23e76	-0.0948457
181	0x3d6899cf	0.05678731
182	0xbd52f79f	-0.05150568
183	0x3daa6169	0.08319361
184	0xbd1e24c7	-0.038609292
185	0xbe0542da	-0.13013783
186	0xbd4114f6	-0.04713913
187	0xbda3842d	-0.07984195
188	0xbd602e49	-0.05473164
189	0xbe0a834f	-0.13526653
190	0x3d9fb7c4	0.077987224
191	0xbd8e4586	-0.06946854
192	0x3d4c3208	0.0498524
193	0x3d94063a	0.0722775
194	0x3ddeb7cd	0.10874901
195	0xbdc16533	-0.0944313
196	0x3db314bc	0.08744189
197	0xbd75bf1c	-0.05999671
198	0x3d3ca1d2	0.04605276
199	0x3d96665f	0.073437445
200	0xbcb9fca9	-0.022703486
201	0x3d8579bd	0.0651736
202	0x3bce189e	0.0062895557
203	0xbd4abce6	-0.049496554
204	0x3d6cba5f	0.057794925
205	0xbe0429c2	-0.12906554
206	0x3de24ab0	0.11049402
207	0x3dcab3f6	0.09897606
208	0x3e62a9cb	0.22135083
209	0x3d8cd628	0.068767846
210	0xbde515fc	-0.11185834
211	0x3d50a4b0	0.05093831
212	0x3dcd31f1	0.10019291
213	0xbe1c78ba	-0.15280429
214	0xbde29007	-0.11062627
215	0xbe065122	-0.13116887
216	0xbd92c46a	-0.07166369
217	0xbd8da9a9	-0.06917126
218	0xbd303c7c	-0.043026432
219	0xbc987379	-0.01860975
220	0xbe2fdb71	-0.17173554
221	0x3db26844	0.08711293
222	0x3daeea40	0.085407734
223	0xbca0a2d1	-0.019608887
224	0xbcacbaef	-0.02108523
225	0xbca939ec	-0.020657502
226	0xbe099d41	-0.13438894
227	0xbdbb282d	-0.09138522
228	0x3cfff820	0.031246245
229	0xbd2e65b2	-0.042577453
230	0xbd8801e6	-0.06640987
231	0xbc0e43b2	-0.008683132
232	0xbd82a608	-0.06379324
233	0xbd399a43	-0.04531313
234	0xbc861ec3	-0.01637209
235	0xb8d89de8	-0.00010329095
236	0xbd2238b9	-0.039604876
237	0xbdac8489	-0.084237166
238	0xbdc84181	-0.09778119
239	0x3db7170e	0.08939944
240	0xbd5fa220	-0.054597974
241	0x3cb76500	0.022387028
242	0xbdc24946	-0.09486632
243	0x3cf107cc	0.029422663
244	0x3ddd94e9	0.10819418
245	0x3da3f19e	0.08005069
246	0x3c8dbc65	0.017301748
247	0x3d3715ca	0.044698514
248	0x3df3f7d2	0.11912502
249	0x3cae75df	0.02129644
250	0x3d25a399	0.040439222
251	0x3dbb0796	0.09132306
252	0x3ccb58fc	0.024822704
253	0xbb027db8	-0.001991136
254	0xbd88c834	-0.06678811
255	0xbd3f4b23	-0.046702515

a2c_network.actor_mlp.0.bias f4 [256]
0	0xbd5f90c9	-0.054581437
1	0xbb028b89	-0.0019919595
2	0x3d9880ad	0.07446418
3	0x3d3e4c3e	0.04645943
4	0x3cf0387e	0.029323813
5	0xbd3574ed	-0.044300962
6	0xbd153c33	-0.036434364
7	0xbb326ee6	-0.0027226745
8	0xbcb6b227	-0.022301747
9	0x3d4af807	0.049552944
10	0x3d956183	0.072939895
11	0xbd33ec8d	-0.043926764
12	0x3cca312b	0.024681648
13	0x3bb4cef6	0.0055178357
14	0xbd5b7602	-0.053579338
15	0x3cf13594	0.029444493
16	0xbdbc9901	-0.09208871
17	0x3d32a246	0.043611787
18	0x3d068bda	0.032848217
19	0xbd297cab	-0.04137866
20	0xbc024e9c	-0.007953312
21	0x3d4f14cd	0.050556947
22	0xbd151eb7	-0.036406245
23	0xbcbf6058	-0.02336137
24	0x3d254a34	0.04035397
25	0x3d250640	0.040289164
26	0xbd2e74aa	-0.04259173
27	0xbbf3e7d4	-0.0074434076
28	0x3cba0428	0.02270706
29	0xbd34b5cb	-0.044118684
30	0xbd7c9c11	-0.061672274
31	0xbbca8ac0	-0.006181091
32	0xbd11f72e	-0.03563612
33	0x3d2d1d9d	0.04226457
34	0xbd4ca2a1	-0.049959783
35	0x3c39aa1e	0.011332063
36	0xbcb444f6	-0.02200554
37	0x3d824aec	0.063619465
38	0x3d22c7d5	0.039741356
39	0xbd2d5e2a	-0.04232613
40	0x3c34b887	0.011030323
41	0xbdbfa04c	-0.09356746
42	0xbcf76f25	-0.030204365
43	0x3d371f15	0.044707377
44	0x3cf6e64b	0.03013911
45	0x3d6d65e6	0.057958506
46	0xbd5513e1	-0.05202091
47	0xbd6cad6a	-0.057782568
48	0xbd5cce38	-0.053907603
49	0xbc27533e	-0.010212718
50	0xbbad7904	-0.005293967
51	0xbd32aee0	-0.043623805
52	0x3d534c22	0.051586278
53	0x3d3292d9	0.043597076
54	0x3d69eb06	0.0571089
55	0x3d8a96f9	0.06767077
56	0xbd90ee03	-0.07076647
57	0xbd477cae	-0.04870289
58	0x3d5f37cc	0.05449657
59	0x3b682780	0.0035423934
60	0x3d441b87	0.047877815
61	0x3ce339a6	0.02773745
62	0x3c9df175	0.019280175
63	0xbc87ae80	-0.0165627
64	0x3cd3d2d0	0.02585736
65	0x3d845ab1	0.064626105
66	0x3c05d18f	0.008167638
67	0x3a293579	0.00064548064
68	0x3cf6888b	0.030094406
69	0xbd252c7d	-0.04032563
70	0x3d93e16b	0.072207294
71	0xbd036f8f	-0.032088812
72	0x3d4e86fa	0.050421692
73	0xbcfdc39e	-0.030977067
74	0x3d062a58	0.032755226
75	0xbba2ea4d	-0.0049717785
76	0xbd2230ff	-0.039597508
77	0xbd4a9e9a	-0.04946766
78	0xbcc25ebb	-0.023726812
79	0xbda66197	-0.081240825
80	0x3d2031c1	0.03910995
81	0xbbfde462	-0.0077481726
82	0xbd9e64e0	-0.07734084
83	0xbd94a0a5	-0.07257203
84	0xbcbe8748	-0.023257867
85	0x3d4d2832	0.05008716
86	0x3d11454b	0.035466474
87	0xbcbf8912	-0.02338079
88	0x3c2571f0	0.010097966
89	0xbd02e6ce	-0.031958394
90	0x3c3ad82e	0.01140408
91	0xbd3c1253	-0.045915913
92	0xbd3649d4	-0.044504
93	0x3cdb121d	0.026742036
94	0x3d227f87	0.0396724
95	0xbd07e4aa	-0.033177055
96	0x3cf32658	0.02968137
97	0xbc836ba2	-0.016042534
98	0xbd1fd467	-0.039020922
99	0x3d537815	0.05162819
100	0xbc1222d5	-0.008919437
101	0xbd467100	-0.04844761
102	0x3d2ccc40	0.042186975
103	0xbcb730a9	-0.02236207
104	0xbcb0a13c	-0.021561258
105	0xbd2d9c9e	-0.04238569
106	0x3d855513	0.06510367
107	0x3cc90f2b	0.024543365
108	0x3d0d7ef4	0.0345449
109	0xbd758ab2	-0.059946723
110	0x3d434d7c	0.047681317
111	0xbd6d9f63	-0.05801333
112	0x3ce4c670	0.027926654
113	0xbb9e85be	-0.0048377207
114	0x3d67e2c0	0.05661273
115	0xbbd11373	-0.0063804924
116	0xbd2a6900	-0.041604042
117	0x3d168238	0.03674528
118	0x3d2dff09	0.04247955
119	0x3beb26a2	0.0071762362
120	0x3cf3d342	0.029763822
121	0x3cd73b65	0.026273439
122	0x3d7f80fd	0.062378872
123	0xbc912a47	-0.017720355
124	0xbd157aae	-0.03649395
125	0xbcda198d	-0.026623512
126	0xbd6bd764	-0.05757846
127	0xbd5e5995	-0.05428465
128	0xbd895ccf	-0.06707155
129	0x3cf30d9b	0.029669574
130	0x3d074c39	0.033031676
131	0x3d28cf62	0.0412134
132	0x3c8a6374	0.016893126
133	0xbc9c5091	-0.019081386
134	0x3d0005e6	0.031255625
135	0x3b941878	0.0045195185
136	0x3d69dfce	0.057098202
137	0x3c328342	0.010895552
138	0xbd20105c	-0.0390781
139	0xbcfec318	-0.031098887
140	0x3d1f2306	0.03885176
141	0xbd7d08c9	-0.061775956
142	0x3b9d391f	0.004798069
143	0x3cb80196	0.022461694
144	0xbcdd9895	-0.027050296
145	0x3d7ffccc	0.062496945
146	0x3cc4aaec	0.024007283
147	0x3ca86a41	0.020558478
148	0xbc0bd142	-0.008533778
149	0x3da4d555	0.08048502
150	0xbc8dd731	-0.017314525
151	0x3ad3a461	0.0016147011
152	0x3d4a02e0	0.049319148
153	0x3d8c7534	0.06858292
154	0xbd1dabf3	-0.03849406
155	0x3b95eda7	0.0045754495
156	0x3d7990fa	0.060929276
157	0x3d73bef8	0.059508294
158	0xbd22537b	-0.039630394
159	0x3cfb3efa	0.030669678
160	0xbd294f16	-0.041335188
161	0xbd38bba6	-0.04510083
162	0x3d841a2f	0.064503066
163	0x3ceaeae6	0.028676461
164	0x3d2aa4a5	0.041660924
165	0xbd23f1e3	-0.040025603
166	0x3d9f0693	0.07764926
167	0x3d67e071	0.05661053
168	0x3c10a1da	0.008827651
169	0xbba30292	-0.0049746716
170	0xbd79c0bc	-0.06097482
171	0x3bdfed6b	0.0068337223
172	0x3d035999	0.03206787
173	0xbd3b617b	-0.04574726
174	0xbca5a8fb	-0.020222178
175	0xbc9d30ba	-0.019188274
176	0xbd854a38	-0.06508297
177	0x3d8f9927	0.07011633
178	0xbd3c67e7	-0.045997526
179	0xbd630b9b	-0.05543099
180	0x3d82b08b	0.06381329
181	0xbd91cc5d	-0.07119057
182	0xbd7b573f	-0.0613625
183	0xbd12b48b	-0.03581671
184	0x3ccbe05a	0.024887253
185	0x3c17bc0c	0.009261142
186	0xbcd0d49f	-0.02549201
187	0xbcb97d83	-0.022642856
188	0xbd3cf551	-0.04613239
189	0xbd767f3f	-0.060179945
190	0xbd27232e	-0.040805034
191	0xbc72ce03	-0.014819625
192	0xbd138f14	-0.03602512
193	0xbd606b2c	-0.054789707
194	0x3d9a04fa	0.075204805
195	0x3d5902b1	0.052981082
196	0x3d972683	0.073803924
197	0x3d107299	0.03526554
198	0xbd149a8f	-0.03628021
199	0x3c6c5500	0.014424562
200	0xbd51ab32	-0.051188655
201	0x3da80c93	0.08205523
202	0x3bc0a103	0.005878569
203	0x3d832574	0.06403628
204	0x3c3f443e	0.011673985
205	0xbd8fd92a	-0.07023843
206	0xbd95a220	-0.073063135
207	0xbd512b67	-0.051066782
208	0xbd66ebb8	-0.056377143
209	0xbcd1fa1f	-0.025631962
210	0x3d8c980d	0.06864939
211	0x3d4bd019	0.049759004
212	0x3cbdf533	0.02318821
213	0x3d2b077c	0.041755185
214	0xbd221b6a	-0.039576925
215	0xbc6a0a71	-0.014284716
216	0x3d298975	0.041390855
217	0xbd01188b	-0.031517547
218	0xbc7bdd70	-0.015372619
219	0xbd554b5a	-0.052073814
220	0x3d3d5d7f	0.046231743
221	0xbd865e21	-0.065609224
222	0xbcdcedfa	-0.026968945
223	0x3cd7fffb	0.026367178
224	0xbd4355db	-0.0476893
225	0xbbb8c873	-0.00563913
226	0x3da66124	0.08123997
227	0xbd3a7adf	-0.045527335
228	0xbc2dadde	-0.010600535
229	0x3c11975b	0.008886184
230	0x3d76da96	0.060267054
231	0x3d8f4e07	0.069973044
232	0xbcbbad1d	-0.022909695
233	0xbd917ef3	-0.07104292
234	0x3d0edcc9	0.034878526
235	0xbd32ddbe	-0.0436685
236	0xbd398995	-0.045297224
237	0xbcdc3b68	-0.026883796
238	0x3d59fd1c	0.0532199
239	0x3d59ed10	0.053204596
240	0x3cf399ed	0.029736483
241	0x3d995330	0.0748657
242	0x3d718040	0.0589602
243	0xbd521999	-0.051293943
244	0x3d904103	0.0704365
245	0xbcc3fa72	-0.023923133
246	0x3d06a7d2	0.03287489
247	0xbcb4c200	-0.022065163
248	0xbc4db735	-0.012555887
249	0x3ca431a3	0.0200432
250	0xbd4f407e	-0.050598614
251	0x3d5d2229	0.053987656
252	0xbb6c234d	-0.0036031783
253	0x3cc5c5dd	0.0241422
254	0xbc642b63	-0.01392636
255	0x3d002814	0.03128822

a2c_network.actor_mlp.2.weight f4 [128, 256]
0	0x3dd87441	0.10569049
1	0xbbeb2495	-0.007175992
2	0xbd3113d4	-0.0432318
3	0xbd1a1185	-0.037614364
4	0x3c201952	0.009771662
5	0x3d99aa93	0.075032376
6	0xbde7fcaa	-0.11327489
7	0x3d33b20c	0.04387097
8	0xbd071537	-0.032979216
9	0xbd206056	-0.039154373
10	0x3d47d830	0.048790157
11	0x3dbf5651	0.093426354
12	0xbd37433f	-0.044741865
13	0xbd6d1a2c	-0.057886288
14	0xbd4a138b	-0.049335044
15	0xbc4fda3e	-0.01268631
16	0xbe02a9b7	-0.12760054
17	0x3da1c233	0.07898369
18	0x3d82e085	0.0639048
19	0x3de562d9	0.11200494
20	0xbd95c9ba	-0.07313867
21	0xbdde70e1	-0.10861374
22	0x3cb9abe6	0.022664975
23	0xbe12e775	-0.14346106
24	0xbd2bea2b	-0.041971367
25	0xbdd07d0f	-0.10180103
26	0x3d980dba	0.07424493
27	0xbd022021	-0.03176892
28	0xbdda3215	-0.10654084
29	0x3d3a2fca	0.04545573
30	0xbda556d7	-0.08073204
31	0xbd0384e2	-0.03210915
32	0x3d4aa4c0	0.049473524
33	0x3d565b2f	0.052333053
34	0x3d350f82	0.044204243
35	0xbd2f1bc4	-0.04275109
36	0xbb300406	-0.0026857867
37	0xbd771b2a	-0.06032864
38	0xbc99eeaf	-0.018790571
39	0x3c309e90	0.010779992
40	0x3c7c8f6e	0.015415056
41	0xbd24d9b4	-0.04024668
42	0x3c763a66	0.015028572
43	0x3d3dd4dc	0.046345577
44	0xbc9800ae	-0.018555012
45	0xbdd0a248	-0.10187203
46	0x3d12ec21	0.03586972
47	0xbb6208d6	-0.003449013
48	0xbd3faaca	-0.046793737
49	0x3cf80512	0.030275855
50	0xbdc060e9	-0.09393484
51	0x3c993d32	0.018705938
52	0xbdb2da3e	-0.08733033
53	0xbc8582df	-0.016297756
54	0x3d582ad3	0.052775215
55	0xbd6ef65a	-0.058340408
56	0x3d92f9af	0.071765296
57	0xbded8300	-0.11597252
58	0xbd40f654	-0.047109917
59	0xbcae4365	-0.02127237
60	0x3baca239	0.005268362
61	0x3d9d42a7	0.076787286
62	0xbc912075	-0.017715672
63	0x3d571dfa	0.052518822
64	0x3d4464fa	0.04794786
65	0xbdac6a4f	-0.08418714
66	0x3cb25e51	0.02177349
67	0x3d7cbfae	0.061706237
68	0xbcd72e7c	-0.026267283
69	0x3bdd21f4	0.0067484323
70	0xbd0d73df	-0.03453433
71	0xbd9d9f87	-0.07696443
72	0x3dd20797	0.10255354
73	0x3cdbe34a	0.026841778
74	0xbd0f62f1	-0.035006467
75	0xbd91b740	-0.0711503
76	0xbd9d3266	-0.07675628
77	0xbca0aab1	-0.019612642
78	0x3d0ee96d	0.03489058
79	0xbbde9bd8	-0.0067934804
80	0x3da0ff5b	0.07861205
81	0xbba115cc	-0.0049159285
82	0x3b8fea00	0.0043919086
83	0x3c13521c	0.008991744
84	0x3d247304	0.04014875
85	0x3db0f049	0.08639581
86	0xbc00ff8b	-0.007873426
87	0x3c6aee31	0.014339016
88	0xbcfb5997	-0.030682368
89	0x3d2c8b8d	0.042125273
90	0xbb4fddb1	-0.0031717832
91	0x3ca8a7da	0.02058785
92	0x3d387998	0.045037836
93	0x3dcb344a	0.09922083
94	0x3decb01e	0.11557029
95	0x3d3c06c9	0.04590491
96	0xbdf325ed	-0.11872468
97	0xbdd6595b	-0.10466262
98	0x3d990372	0.0747136
99	0xbd673d18	-0.056454748
100	0xbc9dc33b	-0.019258132
101	0xbd9522f3	-0.07282057
102	0xbd6b6567	-0.05746975
103	0xbd3fd618	-0.046835035
104	0xbcb4269d	-0.021991068
105	0xbe03cf0a	-0.12871948
106	0xbcda3065	-0.026634404
107	0xbdfca647	-0.123364024
108	0x3cb6097a	0.022221316
109	0xbcb393a6	-0.02192099
110	0x3dcac9e5	0.099017896
111	0xbd86b9f2	-0.06578435
112	0xbda1ffa7	-0.0791009
113	0xbc966f21	-0.018363537
114	0x3b395783	0.002828092
115	0x3da6ff38	0.08154148
116	0x3c8a5263	0.016884988
117	0x3cf5ce59	0.03000562
118	0x3d621425	0.055194993
119	0x3c306c06	0.010767942
120	0x3d1e5489	0.038654838
121	0xbd1ac2a1	-0.03778327
122	0x3bdc5e51	0.0067251106
123	0xbc1d0920	-0.009584695
124	0x3d810701	0.06300164
125	0xbd111211	-0.03541762
126	0x3c0e026c	0.00866757
127	0x3d93a24b	0.07208689
128	0x3cfb92b7	0.030709608
129	0x3d9139bc	0.0709109
130	0x3c92556e	0.017863002
131	0xbc084ac3	-0.008318606
132	0xbc90c921	-0.01767403
133	0x3d81b76c	0.06333813
134	0x3d973dd2	0.07384838
135	0xbe04a5cd	-0.12953873
136	0x3cd7d2e2	0.026345674
137	0x3dac2a2f	0.084064834
138	0x3c37da04	0.011221413
139	0xbd11c4fb	-0.035588246
140	0x3dc597c9	0.09648091
141	0xbd0a0ad2	-0.033701725
142	0xbcc91b1d	-0.024549061
143	0x3d545000	0.051834106
144	0x3d2370ff	0.039902683
145	0x3d233ab2	0.039850898
146	0xbe02f619	-0.12789191
147	0x3db0819a	0.086184695
148	0xbdc14d57	-0.094385795
149	0xbb9acba6	-0.004723984
150	0xbc967da6	-0.01837046
151	0x3d87e5fc	0.06635663
152	0x3d9aca93	0.07558169
153	0x3bcbbb87	0.0062174234
154	0x3d759f77	0.05996653
155	0xbdeec8af	-0.11659371
156	0xbd4fe44b	-0.050754827
157	0xbdb5c8a6	-0.08876161
158	0xbdffa671	-0.12482918
159	0xbd461ef0	-0.048369348
160	0xbc98a712	-0.018634353
161	0xbe0795f5	-0.13240798
162	0x3d11cc17	0.035595026
163	0x3cc684a7	0.024233175
164	0xbb926d6d	-0.004468611
165	0xbce66d56	-0.028128307
166	0x3cce592b	0.025189003
167	0xbe08f349	-0.13374056
168	0xbdc80fdf	-0.09768652
169	0xbdde55b0	-0.10856187
170	0x3dbe087a	0.092789605
171	0x3c1b3463	0.009472939
172	0x3c36b002	0.011150362
173	0xbd8905b2	-0.066905394
174	0xbd65686b	-0.056007784
175	0x3cb0d9d7	0.02158825
176	0x3d4cc648	0.049993783
177	0x3d9c76fc	0.07639882
178	0xbd63568e	-0.055502467
179	0xbd8a2e2f	-0.0674709
180	0x3d20c2d2	0.039248295
181	0xbc9fff15	-0.019530812
182	0x3d019a9e	0.031641595
183	0xbc3d4d95	-0.0115541415
184	0xbe126c58	-0.14299142
185	0x3dc5d3ea	0.0965956
186	0xbd8164e0	-0.063180685
187	0x3d3a2209	0.045442615
188	0x3db0872b	0.08619531
189	0x3dee9feb	0.11651596
190	0xbd21b4b1	-0.03947896
191	0x3db74e86	0.08950524
192	0xbde67a63	-0.11253812
193	0x3ced7818	0.02898793
194	0x3ccdc8c8	0.025120154
195	0xbcd230c9	-0.025658028
196	0x3d4d9c2c	0.050197765
197	0x3d715e43	0.058927786
198	0xbc738abb	-0.014864619
199	0x3d29d508	0.041462928
200	0xbd6b79e6	-0.0574893
201	0x3bb9a689	0.0056656045
202	0x3d05dd35	0.032681663
203	0xbbad5200	-0.005289316
204	0xbe1a2e90	-0.15056825
205	0x3ca87bf6	0.020566922
206	0xbe106004	-0.14099127
207	0x3c4c608f	0.012474193
208	0xbd5ceafa	-0.05393503
209	0xbdc1e102	-0.09466745
210	0xbc31eb78	-0.010859363
211	0x3dcc63f9	0.09980006
212	0xbd44bedf	-0.04803359
213	0xbd183848	-0.03716305
214	0x3c92b188	0.01790692
215	0xbd416f45	-0.047225256
216	0xbccd506d	-0.025062764
217	0xbcd2275f	-0.02565354
218	0xbd36b96a	-0.04461042
219	0x3ca372c0	0.019952178
220	0x3d310a48	0.043222696
221	0x3c795826	0.01521877
222	0xbd8c77ee	-0.06858812
223	0x3d7c475c	0.06159149
224	0x3d94d7bb	0.0726771
225	0x3b77ae51	0.003779311
226	0xbc118194	-0.0088809915
227	0xbe0c1a9f	-0.1368203
228	0x3d11ae26	0.03556647
229	0x3d87f3f3	0.066383265
230	0xbd843738	-0.06455845
231	0xbd3fc463	-0.04681815
232	0xbcc5aa9a	-0.0241292
233	0xbe02adc2	-0.12761596
234	0x3d038114	0.03210552
235	0xbdfa880d	-0.12232981
236	0xbc1cbbb6	-0.009566238
237	0xbd08d3be	-0.033405058
238	0xbd39bfc4	-0.045348898
239	0xbdb18a9d	-0.086690165
240	0xbcf6fe24	-0.03015048
241	0x3d8d5b20	0.06902146
242	0xbdb5e62c	-0.088817924
243	0x3ba539e5	0.005042302
244	0xbd90008c	-0.07031354
245	0x3bc5d50c	0.00603736
246	0x3bbc9a96	0.005755733
247	0x3d9bb81e	0.07603477
248	0xbd14a477	-0.03628966
249	0xbd7968f3	-0.060891103
250	0x3d3bd274	0.045855
251	0xbd977554	-0.073954254
252	0xbda4137c	-0.08011529
253	0xbd063765	-0.032767672
254	0x3af50ccc	0.001869583
255	0x3d9b5fed	0.07586656

a2c_network.actor_mlp.2.bias f4 [128]
0	0x3d09229b	0.033480268
1	0xbd267204	-0.040636078
2	0xbb0b37c7	-0.0021242963
3	0xbd1252f0	-0.035723627
4	0xbd957ca1	-0.07299162
5	0xbd368481	-0.04455996
6	0x3cc6af34	0.024253465
7	0xbd8f06e8	-0.06983739
8	0x3d0d2fd7	0.03446945
9	0xbd83f0ad	-0.0644239
10	0x3ca0a959	0.019612001
11	0xbbe06390	-0.0068478063
12	0x3d1a189a	0.037621118
13	0xbccefd11	-0.025267156
14	0x3d89e135	0.06732408
15	0xbd120b7d	-0.035655487
16	0x3cbfce9e	0.023413952
17	0xbcd3827f	-0.025819061
18	0xbc38107a	-0.011234397
19	0x3d2c18e0	0.04201591
20	0x3d5d3e84	0.054014698
21	0xbd66ce22	-0.056348927
22	0xbb80100c	-0.003908163
23	0x3cf6b24f	0.030114321
24	0xbd151d18	-0.0364047
25	0xbd5682ec	-0.05237095
26	0xbd8f1b76	-0.0698766
27	0x3c55a3ef	0.013039573
28	0xbcc5a1c3	-0.024124986
29	0x3d0f3219	0.034959886
30	0x3c7c12d8	0.015385352
31	0x3cf518d8	0.029919073
32	0x3ca503d6	0.02014343
33	0xbc90705a	-0.017631698
34	0x3c1e0950	0.009645775
35	0x3d213c53	0.03936417
36	0x3b17f83d	0.0023188733
37	0xbd81d2d4	-0.063390404
38	0xbb76897a	-0.0037618564
39	0x3cd32bd9	0.025777744
40	0x3caa370a	0.020778198
41	0xbb291fb1	-0.0025806243
42	0xbd29c735	-0.041449744
43	0x3d3d012d	0.0461437
44	0x3d31946e	0.043354444
45	0x3d41bda9	0.047300015
46	0xbd801c71	-0.06255425
47	0xbd85b65b	-0.06528922
48	0x3d3b2b9c	0.045695886
49	0x3c926be2	0.017873708
50	0x3d5ef181	0.054429535
51	0xbbebfa59	-0.0072014746
52	0x3ce68386	0.028138887
53	0x3b9724b2	0.0046125287
54	0x3bf4dbc9	0.0074724895
55	0xbcb439c9	-0.02200021
56	0xbd718d63	-0.058972728
57	0x3d10c41c	0.035343274
58	0xbca6413c	-0.020294778
59	0xbc15ed8b	-0.009150873
60	0x3c893738	0.016749963
61	0x3d1fd269	0.039019022
62	0xbd864924	-0.06556919
63	0xbcbe0e46	-0.023200165
64	0xbcd6cc11	-0.026220353
65	0x3bbcf57c	0.0057665687
66	0x3cce7523	0.02520234
67	0x3a2beaff	0.00065581495
68	0x3d8ea4b0	0.069650054
69	0x3d3423cb	0.043979447
70	0xbc8a04da	-0.016848017
71	0xbb223c76	-0.0024755276
72	0xbdf84360	-0.12122226
73	0x3d918616	0.07105653
74	0xbc2b2eb7	-0.010448149
75	0x3cc42308	0.023942485
76	0x3d47fc58	0.048824638
77	0x3d3284c7	0.043583658
78	0x3d5c597a	0.05379627
79	0x3ce889e5	0.028386066
80	0xbd0034b0	-0.031300247
81	0xbcae7713	-0.021297013
82	0x3c1308db	0.008974279
83	0xbd308ee7	-0.043105032
84	0x3d21599a	0.03939209
85	0xbbe5d1bf	-0.007013529
86	0x3d5d0101	0.053956036
87	0x3d520e0f	0.05128294
88	0xbc760166	-0.015014982
89	0xbdb541a1	-0.08850408
90	0x3cebf11c	0.028801493
91	0x3ccb6529	0.02482851
92	0x3bce576e	0.0062970435
93	0x3c4a0fa6	0.012332832
94	0x3c193525	0.00935105
95	0x3cb5c582	0.022188906
96	0x3bf2574d	0.007395661
97	0x3c9ee979	0.019398438
98	0xbd86ce0c	-0.06582269
99	0xbdbaed71	-0.091273196
100	0x3cb0f82a	0.021602709
101	0xbdaf2857	-0.08552616
102	0x3d363248	0.044481546
103	0x3d6a412f	0.05719107
104	0x3d7715bb	0.06032346
105	0xbc1cecb0	-0.009577915
106	0x3d2d6235	0.042329986
107	0xbd807d69	-0.0627392
108	0xbc82efe1	-0.015983524
109	0x3c58b5ba	0.013226921
110	0xbbdab2b6	-0.006674136
111	0xbbe882aa	-0.0070956545
112	0x3cbee47f	0.023302315
113	0x3d000d65	0.031262774
114	0xbd2fccec	-0.042920038
115	0x3c646f26	0.0139425155
116	0x3d4badb9	0.04972622
117	0xbcf13e2f	-0.029448597
118	0xbd5ba9a0	-0.053628564
119	0xbd91b86c	-0.07115254
120	0x3d272724	0.04080881
121	0x3d1e909d	0.038712133
122	0xbdd587a9	-0.10426266
123	0x3ca0a8c2	0.01961172
124	0x3d5f5587	0.054524925
125	0xbd91e015	-0.071228184
126	0x3c8791cf	0.01654902
127	0x3d506590	0.050878108

a2c_network.actor_mlp.4.weight f4 [64, 128]
0	0x3c603ef7	0.013686887
1	0xbd35e548	-0.044408113
2	0xbd71d9a7	-0.05904546
3	0xbc639639	-0.013890796
4	0x3d4479e7	0.047967818
5	0x3d40e789	0.04709581
6	0xbd32532b	-0.043536346
7	0xbd47750b	-0.048695605
8	0x3df4379c	0.11924669
9	0xbdc89aa1	-0.09795118
10	0x3ddc1744	0.10746625
11	0xbd4c9165	-0.049943347
12	0x3dd2127b	0.10257431
13	0xbe010729	-0.12600388
14	0x3d872845	0.06599478
15	0x3d815998	0.06315917
16	0xbae40731	-0.0017397163
17	0xbb3e20a6	-0.002901116
18	0x3c28b27a	0.010296458
19	0x3c1ea30a	0.009682426
20	0xbdb0997d	-0.086230256
21	0xbd5e9b51	-0.05434734
22	0xbd57b8af	-0.052666362
23	0x3dc1abae	0.094565734
24	0xbd59011f	-0.052979585
25	0xbdac1b18	-0.08403605
26	0x3d3a8675	0.045538384
27	0x3d8023e7	0.06256848
28	0xbc1325d4	-0.008981187
29	0xbd1313f5	-0.035907704
30	0xbd4d7083	-0.050156128
31	0xbc71f52f	-0.014767929
32	0x3cf76d4b	0.030203482
33	0x3ddfc3f1	0.10926045
34	0x3d909b15	0.070608296
35	0xbd5d71da	-0.054063655
36	0x3cd2768b	0.025691291
37	0xbdde7f1f	-0.1086409
38	0xbc9de9ec	-0.019276582
39	0x3d6d95be	0.058004133
40	0x3bf33148	0.0074216463
41	0x3c192e64	0.009349439
42	0x3db77a6d	0.08958898
43	0x3dadcedc	0.08486721
44	0xbdba4734	-0.09095612
45	0xbd812a58	-0.063069046
46	0xbdc30b10	-0.095235944
47	0xbdea879a	-0.11451645
48	0x3db6d724	0.089277536
49	0xbce892d0	-0.028390318
50	0xbcc9f5d9	-0.024653362
51	0x3d6939ab	0.056939762
52	0xbdcabd34	-0.09899369
53	0xbda00c32	-0.07814826
54	0xbd92926a	-0.071568325
55	0x3cb0d3be	0.021585342
56	0xbcf02636	-0.029315095
57	0xbbc771fe	-0.006086587
58	0xbdb9d0b0	-0.09073007
59	0x3ce06802	0.027393345
60	0x3cd5ecec	0.02611395
61	0x3d67b6c7	0.056570794
62	0x3c095847	0.008382863
63	0xbd2b50dc	-0.04182516
64	0x3c9a45aa	0.018832047
65	0x3d8405cd	0.06446419
66	0x3e027f55	0.12743886
67	0x3c97c413	0.018526113
68	0x3d8a26f5	0.06745712
69	0xbc3701c8	-0.011169858
70	0xbd2923c6	-0.04129388
71	0xbe1f4837	-0.15554892
72	0xbd412bb0	-0.047160804
73	0xbd9adc53	-0.07561555
74	0x3d80326d	0.06259618
75	0x3d70d6a7	0.05879846
76	0xbd4342ba	-0.047671057
77	0xbdbac522	-0.09119631
78	0x3c89f5d3	0.016840851
79	0xbd91c6e5	-0.07118014
80	0x3b8f9f76	0.004383023
81	0xbd1710db	-0.03688131
82	0xbd2e72bd	-0.04258989
83	0xbc85ce5c	-0.016333751
84	0x3e0358d7	0.12826858
85	0x3df3bc71	0.11901177
86	0x3beb80e0	0.007186994
87	0xbd6d13c1	-0.057880167
88	0x3d83b5db	0.064311706
89	0xbe073114	-0.13202316
90	0xbdd4f1c6	-0.10397677
91	0xbd65c507	-0.056096103
92	0xbcd7a9c8	-0.026326075
93	0x3d31c721	0.043402795
94	0xbdd01f46	-0.10162215
95	0xbc6d6ef6	-0.014491787
96	0x3d94b454	0.07260957
97	0xbd8ed387	-0.069739394
98	0xbd5d44f9	-0.054020856
99	0x3c7d9a54	0.015478689
100	0xbcb2bf81	-0.021819832
101	0x3dab87b3	0.08375492
102	0xbc9d09df	-0.019169746
103	0xbcd932e0	-0.026513517
104	0xbd420fec	-0.047378466
105	0xbc625a4a	-0.013815472
106	0xbd36b7b6	-0.044608794
107	0xbd58a9bd	-0.05289625
108	0x3abcc05a	0.0014400587
109	0x3d843416	0.06455247
110	0x3d6c2272	0.057650037
111	0xbd9da093	-0.07696643
112	0x3d34891d	0.044076074
113	0x3d7b4696	0.061346613
114	0x3d41f4e5	0.04735269
115	0xbcabd883	-0.020977264
116	0x3ddce83c	0.10786483
117	0xbdda49cf	-0.10658609
118	0xbbf55ec4	-0.0074881036
119	0x3d9b0aa3	0.07570388
120	0xbc1c0e0e	-0.009524835
121	0x3c12559e	0.008931546
122	0xbe0f06c3	-0.13967423
123	0xbdad151d	-0.08451293
124	0x3d1f8336	0.038943492
125	0xbde2e19b	-0.11078187
126	0x3c8667ac	0.016406856
127	0xbd9d974a	-0.07694872
128	0xbc01f186	-0.007931119
129	0xbdfa1c1a	-0.12212391
130	0xbdbd9d39	-0.092585035
131	0x3d4245e7	0.047429945
132	0x3d88d8a9	0.0668195
133	0xbd809a3d	-0.062794186
134	0x3d4c493e	0.049874537
135	0x3d9c8cc3	0.07644036
136	0xbd35963f	-0.04433274
137	0xbe0bb8ee	-0.13644764
138	0x3d5bf1ac	0.053697273
139	0x3d2fd30f	0.04292589
140	0x3d50ded7	0.050993767
141	0x3c55f35d	0.013058511
142	0xbd12769e	-0.035757653
143	0xbd83fd1e	-0.06444763
144	0xbddab2a0	-0.10678601
145	0xbcfdcea1	-0.030982317
146	0xbb0d778f	-0.0021586155
147	0xbd981366	-0.07425575
148	0xbdb1e9c7	-0.086871676
149	0x3d08c67c	0.033392414
150	0x3d19c74c	0.03754358
151	0xbd986df4	-0.07442847
152	0x3d8f5fc8	0.07000691
153	0x3d1f70de	0.038925998
154	0x3db1ce20	0.08681893
155	0xbd3d9885	-0.046288032
156	0x3c71a156	0.014747938
157	0x3c447f35	0.011993219
158	0x3d8bef02	0.068326965
159	0x3d02d658	0.031942695
160	0xbcda4ba2	-0.026647393
161	0x3d32637e	0.043551914
162	0xbd9f842d	-0.077888824
163	0xbcf708ba	-0.030155528
164	0x394de3bf	0.00019635166
165	0x3db44c3c	0.08803603
166	0x3d1a1f73	0.03762765
167	0x3d6afd12	0.057370253
168	0x3d869f27	0.06573325
169	0x3d1b8bd3	0.037975144
170	0x3db66850	0.08906615
171	0xbd924235	-0.07141534
172	0xbdf5cbeb	-0.12001785
173	0x3cf37ad7	0.02972166
174	0x3d4016d4	0.04689677
175	0xbca7c763	-0.020480817
176	0xbd0766bc	-0.03305696
177	0x3c9bb67a	0.01900791
178	0xbe0950d1	-0.13409735
179	0xb9985198	-0.0002905249
180	0xbd5f428c	-0.054506823
181	0xbde233df	-0.1104505
182	0xbd7667b2	-0.060157485
183	0xbdcbe55b	-0.099558555
184	0xb8f6b01a	-0.000117629956
185	0xbdc060e8	-0.093934834
186	0x3d6c8abc	0.057749495
187	0xbdd10b0c	-0.10207185
188	0xbd8099d8	-0.06279343
189	0xbd98ff59	-0.07470579
190	0xbe0c7477	-0.13716303
191	0xbda4e3f1	-0.08051289
192	0x3d8c9d4a	0.06865938
193	0xbdd34fca	-0.10317953
194	0x3d855556	0.06510417
195	0xbdbcdcaf	-0.092217796
196	0xbe11d26e	-0.14240429
197	0xbc5dba5e	-0.013533203
198	0xbba7bf79	-0.005119261
199	0x3d820953	0.06349435
200	0x3dd108e2	0.102067724
201	0xbcf9e49f	-0.030504523
202	0x3d7c3891	0.061577383
203	0xbd3bb202	-0.04582406
204	0x3d326869	0.043556605
205	0xbdbf41af	-0.093387
206	0xbdee1128	-0.11624366
207	0xbd26ceb3	-0.040724467
208	0xbdb6d0a2	-0.08926512
209	0x3d05e2e3	0.03268708
210	0x3c168af7	0.009188405
211	0x3dd925be	0.10602902
212	0xbd97f375	-0.074194826
213	0x3d987240	0.074436665
214	0xbdef70ab	-0.116914116
215	0xbda863d3	-0.08222165
216	0x3d11351b	0.035451036
217	0xbc1067ef	-0.008813842
218	0xbd1924a3	-0.037388455
219	0xbdf58f13	-0.1199018
220	0xb97bccaa	-0.00024013469
221	0x3c3cd5dd	0.011525598
222	0x3d9f1d6c	0.07769284
223	0x3d568e44	0.05238177
224	0xbd86b07e	-0.06576632
225	0xbd934640	-0.071911335
226	0xbca95318	-0.020669505
227	0x3d8baccf	0.0682007
228	0xbc4dfb5e	-0.012572138
229	0xbc136f69	-0.00899873
230	0xbd63c80a	-0.055610694
231	0x3afc47ed	0.001924751
232	0x3c72ed40	0.014827073
233	0xbdbe1e5c	-0.09283134
234	0xbbdb931e	-0.0067008873
235	0xbd14a160	-0.03628671
236	0x3d72ce16	0.05927857
237	0xbc814c9b	-0.015783599
238	0xbd54ea81	-0.051981453
239	0x3dc285f6	0.09498207
240	0x3d1fea20	0.03904164
241	0x3d08e969	0.033425722
242	0x3dfb5905	0.122728385
243	0xbd63b329	-0.055590782
244	0xbdbfdbba	-0.093680814
245	0x3d87e616	0.06635682
246	0x3dac9000	0.08425903
247	0x3dcb2ad9	0.09920282
248	0xbd803c74	-0.062615305
249	0x3d629e0e	0.055326514
250	0x3df3bfdf	0.11901831
251	0x3d9c2cbc	0.0762572
252	0xbc821844	-0.015880711
253	0x3d59c265	0.053163905
254	0x3d24c22d	0.040224243
255	0x3d270c0f	0.040782984

a2c_network.actor_mlp.4.bias f4 [64]
0	0x3d28a650	0.041174233
1	0xbdb45071	-0.088044055
2	0x3c856d04	0.016287334
3	0x3cb7837a	0.02240156
4	0xbc8785a3	-0.016543215
5	0x3a6b37e6	0.0008972868
6	0xbcd6109b	-0.026130965
7	0xbc92e954	-0.017933525
8	0x3cd97e35	0.026549438
9	0x3c6e0fd6	0.014530143
10	0xbd8507d2	-0.06495632
11	0xbd643d77	-0.05572268
12	0x3dc52217	0.09625643
13	0xbbf5e37f	-0.0075039263
14	0x3d20ff2e	0.03930586
15	0xbc3e4b49	-0.011614629
16	0xbd032673	-0.03201909
17	0x3cc5e6b7	0.024157865
18	0xbcf1531a	-0.029458571
19	0x3d0b538a	0.034015216
20	0xbcb4b943	-0.022060996
21	0x3d246c3b	0.04014228
22	0x3c90df0f	0.017684488
23	0xbcd7949c	-0.02631598
24	0x3bf10c63	0.007356213
25	0x3ca5ecf2	0.020254586
26	0xbd7dabe1	-0.061931495
27	0x3d61eb47	0.05515602
28	0x3bd82eab	0.00659736
29	0x3b3da6ae	0.002893846
30	0x3d1739bc	0.036920294
31	0xbb6e248b	-0.00363377
32	0x3d32c5d2	0.043645687
33	0xbd0e9358	-0.034808487
34	0xbd14eb45	-0.036357183
35	0x3d596348	0.053073198
36	0xbd13eb03	-0.036112797
37	0x3dc2c7f7	0.095107965
38	0xbd5dc9a3	-0.054147374
39	0xbbfd7853	-0.007735291
40	0xbbf6070a	-0.0075081633
41	0xbc262224	-0.010139976
42	0x3cffc018	0.031219527
43	0x3d01099f	0.031503316
44	0x3cdec31f	0.02719265
45	0xbd79b74d	-0.060965825
46	0xbcc35d38	-0.023848161
47	0x3cbeac9a	0.023275662
48	0xbca02208	-0.019547477
49	0xbc25b35e	-0.010113565
50	0x3d72bbdc	0.059261188
51	0xbc881778	-0.016612753
52	0xbd215c22	-0.039394505
53	0xbc9fa4ab	-0.0194877
54	0xbb9141ba	-0.004432884
55	0x3b11b678	0.0022234004
56	0xbc953776	-0.018214922
57	0x3d85c15d	0.06531022
58	0x3d6542a9	0.055971775
59	0xbcabb9b9	-0.020962583
60	0x3d23b4c7	0.039967325
61	0x3df2686b	0.118363224
62	0x3d39f822	0.045402654
63	0x3d42088e	0.04737144

a2c_network.value.weight f4 [1, 64]
0	0x3cdcac9a	0.026937772
1	0xbe008211	-0.12549616
2	0x3d0c1b45	0.034205694
3	0x3ca9dc7b	0.020735016
4	0xbda87251	-0.08224929
5	0x3d31a53b	0.043370467
6	0xbd61cc5d	-0.055126537
7	0xbd64e1c8	-0.055879384
8	0x3de79923	0.113085054
9	0xbcb1e247	-0.021714343
10	0xbdc1f766	-0.09471016
11	0xbdd5d030	-0.10440099
12	0x3d030753	0.031989407
13	0xbd23efba	-0.040023543
14	0x3dae978b	0.08524998
15	0x3d2ebebd	0.04266237
16	0xbd6ab809	-0.057304416
17	0x3c9b4977	0.01895593
18	0xbdb49176	-0.08816807
19	0x3da7052f	0.081552856
20	0x3ce1a051	0.027542265
21	0x3d738acd	0.059458543
22	0x3c1ecdff	0.009692668
23	0xbdd53e00	-0.10412216
24	0xbd36e73b	-0.044654112
25	0x3d6f042b	0.058353584
26	0xbd028cfd	-0.03187274
27	0xbce0b1b8	-0.027428493
28	0x3db133d6	0.08652465
29	0x3b021d3a	0.0019853846
30	0x3e00f64c	0.12593955
31	0x3d1100d4	0.03540118
32	0x3d8b7970	0.06810272
33	0xbde2aeef	-0.11068522
34	0xbdf3b5db	-0.118999206
35	0x3d72c025	0.059265275
36	0xbd6497ad	-0.05580871
37	0x39680de1	0.00022130414
38	0xbd265a59	-0.040613506
39	0x3c5470bb	0.01296633
40	0x3c95b2ab	0.018273672
41	0x3c64179a	0.013921643
42	0x3ddba805	0.107254066
43	0x3da6bc29	0.081413575
44	0xbc8fedb7	-0.017569406
45	0xbafd97ed	-0.0019347646
46	0xbdd6e746	-0.10493331
47	0x3d908cc1	0.07058097
48	0xbce0f84d	-0.027462149
49	0xbdc47798	-0.09593123
50	0x3cd4f581	0.025995972
51	0xbd25b06a	-0.040451445
52	0xbcf6c23f	-0.03012192
53	0x3bf90dd1	0.007600524
54	0xbdb85c85	-0.09002022
55	0xbc78a270	-0.015175447
56	0xbca657f0	-0.020305604
57	0x3d48632c	0.048922703
58	0x3d90a085	0.07061867
59	0xbd080676	-0.033209287
60	0x3de7df66	0.11321907
61	0x3ce4c25d	0.02792471
62	0xbcaf5a4f	-0.021405367
63	0x3d9e578b	0.07731541

a2c_network.mu.weight f4 [18, 64]
0	0xbd5bcd5f	-0.053662654
1	0x3d407536	0.04698678
2	0x3cc62f2e	0.024192419
3	0x3d81dd08	0.063409865
4	0x3dd5ec61	0.10445476
5	0xbd808f58	-0.06277341
6	0x3db2560d	0.08707819
7	0x3d4afac1	0.049555544
8	0xbad19c0a	-0.0015991938
9	0xbdbbdc39	-0.091728635
10	0xbd061ca2	-0.03274215
11	0x3aa14cbf	0.0012306197
12	0x3d9ff0ff	0.07809638
13	0xbd2c4996	-0.042062365
14	0xbd20a98b	-0.03922419
15	0x3e0d3c4d	0.13792534
16	0x3d127c85	0.035763282
17	0x3ce404ab	0.027834257
18	0x3ca18011	0.019714387
19	0x3daa383b	0.08311506
20	0xbdaa6967	-0.08320885
21	0x3d2c3b11	0.042048518
22	0xbe39ea5c	-0.18155807
23	0x3cac92ab	0.02106603
24	0x3dbfef8b	0.09371861
25	0x3db378d1	0.08763278
26	0xbda04e2c	-0.0782741
27	0xbd665eae	-0.056242637
28	0xbd8d2c1b	-0.06893178
29	0xbd11d1ea	-0.03560058
30	0x3dbb087d	0.091324784
31	0x3e81e2a2	0.2536822
32	0x3c84b32d	0.016198719
33	0x3e05f6c5	0.13082416
34	0x3ccba6d0	0.024859816
35	0xbd1c6398	-0.038180918
36	0x3e0b1f03	0.13586049
37	0x3d346456	0.044041
38	0xbe0abbdc	-0.13548225
39	0xbd9f47d2	-0.077773705
40	0x3ddadd96	0.106867954
41	0x3c9a2453	0.018816149
42	0x3e051393	0.12995748
43	0x3c06b13b	0.008220966
44	0x3d675e5c	0.056486472
45	0xbd3a15e2	-0.045431025
46	0xbce41151	-0.027840288
47	0x3989f61a	0.00026314036
48	0x3dbdd20d	0.0926858
49	0x3bd6e9c8	0.0065586306
50	0xbd90c4b0	-0.07068765
51	0xbe1b6aaa	-0.15177408
52	0x3d4e077f	0.050300118
53	0xbe3a7014	-0.18206817
54	0x3c3c5285	0.011494284
55	0x3db53a7e	0.08849047
56	0xbc866047	-0.01640333
57	0x3db5a2fb	0.08868977
58	0x3e353b62	0.17698434
59	0x3e372a91	0.17887332
60	0xbd0dac4f	-0.034588154
61	0x3d215c50	0.039394677
62	0xbd1b51c4	-0.037919775
63	0x3d8f24e8	0.06989461
64	0x3e019282	0.12653545
65	0x3d9875db	0.07444354
66	0xbdf7e6b7	-0.12104552
67	0x3923527d	0.0001557562
68	0x3d4141a8	0.047181755
69	0x3e2ae6e2	0.16689637
70	0x3e11ef64	0.14251477
71	0xbde563ad	-0.11200652
72	0x3e2cc12b	0.16870563
73	0xbe1b8a0d	-0.15189381
74	0xbde8baeb	-0.11363777
75	0xbe159bd8	-0.14610231
76	0x3d22042d	0.039554764
77	0xbdb7e467	-0.08979111
78	0x3d40c89b	0.047066312
79	0xbd7d186c	-0.06179087
80	0xbd52ab15	-0.051432688
81	0x3d86cc5b	0.065819465
82	0x3da0f211	0.078586705
83	0x3cf0d8c4	0.029400237
84	0x3e040c2d	0.1289527
85	0xbd65d9a5	-0.056115765
86	0x3dbe7f36	0.09301607
87	0x3d6fada8	0.05851522
88	0x3df80b62	0.12111546
89	0xbd604f13	-0.05476291
90	0xbe083570	-0.13301635
91	0xbe42db55	-0.19028981
92	0xbd6f4b5e	-0.058421485
93	0xbde23e55	-0.11047045
94	0xbd1ee4c1	-0.038792375
95	0x3d739d0b	0.05947594
96	0xbda266f8	-0.07929796
97	0x3de52eb5	0.11190549
98	0x3daa62d9	0.08319635
99	0xbc3ff9cc	-0.011717271
100	0x3ddc34bb	0.10752245
101	0xbb97027b	-0.00460845
102	0x3de00f40	0.10940409
103	0x3d912ec0	0.07088995
104	0x3e18db79	0.14927472
105	0x3d2d2bbe	0.042278044
106	0x3cbdecf0	0.02318427
107	0x3dc4394b	0.0958124
108	0xbd1c693e	-0.038186304
109	0x3e34777d	0.17623706
110	0xbdfdf343	-0.12399914
111	0x3cedefae	0.029044952
112	0x3ddca52e	0.10773693
113	0x3e092c9f	0.13395928
114	0xbd9a57e0	-0.07536292
115	0x3e0f92c4	0.1402083
116	0xbda157e4	-0.07878092
117	0x3dafe16b	0.08587917
118	0x3dd75854	0.10514894
119	0xbca48052	-0.02008072
120	0xb8d9493e	-0.00010361009
121	0x3c5069e6	0.012720561
122	0xbdad8fbe	-0.08474682
123	0x3d5d268f	0.05399185
124	0x3cacb7fa	0.02108382
125	0xbd4a54b1	-0.049397174
126	0x3d76172d	0.060080696
127	0xbc9d2897	-0.019184394
128	0xbca8b121	-0.020592274
129	0x3e2ef493	0.17085485
130	0x3d1f403f	0.03887963
131	0xbd9e9797	-0.07743757
132	0xbd21d067	-0.03950539
133	0xbc383867	-0.011243916
134	0x3c87cf5c	0.016578369
135	0xbd596810	-0.053077757
136	0x3dc001e5	0.09375361
137	0xbdc73c57	-0.09728306
138	0x3deafeea	0.11474402
139	0x3da9700e	0.08273326
140	0xbdf945a8	-0.12171489
141	0xbdbc0453	-0.09180512
142	0xbe044b3b	-0.12919323
143	0x3dc7edae	0.09762131
144	0xbd9076e9	-0.0705393
145	0x3baf4930	0.005349301
146	0xbcb4a57a	-0.022051562
147	0xbddce5f1	-0.10786045
148	0x3dcc48fe	0.0997486
149	0xbd835c93	-0.064141415
150	0xbe23888b	-0.15970056
151	0xbda5939e	-0.08084796
152	0xbd9df1da	-0.07712145
153	0xbc2c64c8	-0.010522075
154	0x3d778b41	0.060435537
155	0x3d6d2667	0.05789795
156	0x3cbc8cab	0.023016294
157	0xbde2ff98	-0.11083907
158	0x3cae03e4	0.02124209
159	0x3d8391d2	0.064242974
160	0xbdb3ce55	-0.08779589
161	0x3cd5dbd7	0.026105804
162	0x3d1d7002	0.038436897
163	0xbdc9d317	-0.09854715
164	0x3c506923	0.012720379
165	0x3d20635a	0.03915725
166	0x3daefb29	0.08543999
167	0x3cd952ec	0.026528798
168	0x3d965dea	0.073421314
169	0xbd75068a	-0.05982069
170	0xbdf6b991	-0.12047113
171	0xbdb338f8	-0.087511
172	0xbd951b80	-0.07280636
173	0x3e209568	0.15681994
174	0x3c21c163	0.009872767
175	0x3c17f7ed	0.009275419
176	0xbd8fe7ac	-0.0702661
177	0xbe037a88	-0.1283971
178	0xbe1770a9	-0.1478907
179	0xbb9bf311	-0.0047592004
180	0x3e0f94bb	0.1402158
181	0xbc42aa31	-0.011881397
182	0xbe18b073	-0.1491106
183	0xbd516d9c	-0.051129922
184	0x3e031fee	0.12805149
185	0xbe2fb393	-0.17158346
186	0x3d17c7ec	0.037055895
187	0xbde60365	-0.11231116
188	0xbdbd4eb7	-0.09243529
189	0xbe2abfa8	-0.16674674
190	0xbdf22c1a	-0.11824818
191	0xbb37a6f4	-0.0028023096
192	0x3cac3338	0.021020517
193	0xbdbabb2d	-0.09117732
194	0xbe0b6201	-0.13611604
195	0xbdc082c1	-0.09399939
196	0xbd978cfd	-0.07399938
197	0x3d6ddab9	0.05806992
198	0xbe16b970	-0.14719176
199	0xbd5d2bb7	-0.053996768
200	0x3d23ec9b	0.040020566
201	0xbc419996	-0.011816403
202	0xbc94ac50	-0.018148571
203	0x3da92c8f	0.08260452
204	0x3d8059b8	0.062671125
205	0xbc1fd5fb	-0.009755607
206	0xbe2adeca	-0.1668655
207	0xbca9aeee	-0.020713296
208	0xbd2dc2e1	-0.04242218
209	0xbe0bf101	-0.13666154
210	0x3e0b441b	0.13600199
211	0x3d16d66b	0.03682558
212	0x3cbc9396	0.023019593
213	0xbdc2fc8d	-0.095208265
214	0xbe0ff96b	-0.14059989
215	0x3e00aafe	0.12565228
216	0xbdf9446a	-0.12171252
217	0x3dd11b5d	0.10210297
218	0xbd2a1860	-0.041527152
219	0x3e3bffe3	0.18359332
220	0xbde5bf02	-0.112180725
221	0x3dee09bf	0.11622953
222	0x3d3b8a2a	0.04578606
223	0xbdd7ed73	-0.10543337
224	0x3e016057	0.12634407
225	0xbc21831e	-0.009857921
226	0xbd934513	-0.07190909
227	0x3d6127cb	0.05496959
228	0x3d8f62eb	0.07001289
229	0xbdb86a0d	-0.090046026
230	0x3c239e3b	0.009986456
231	0xbe0102ce	-0.12598726
232	0x3d25ab2c	0.040446445
233	0x3cc4fda7	0.024046732
234	0xbd6e40fc	-0.058167443
235	0x3e4e8eae	0.20171615
236	0x3cbd2b99	0.023092078
237	0x3dab1a1f	0.083545916
238	0xbda91c2c	-0.082573265
239	0xbc2faa74	-0.010721792
240	0xbd47acc8	-0.04874876
241	0x3d17d9d0	0.037072957
242	0xbafe5fd8	-0.0019407226
243	0x3e51a5e3	0.20473437
244	0x3d8c23be	0.06842755
245	0x3ce6e714	0.028186359
246	0xbe1e6802	-0.15469363
247	0xbe1987b7	-0.14993177
248	0x3d3be3ec	0.04587166
249	0xbe08ba96	-0.13352427
250	0xbe1dca64	-0.15409237
251	0x3dbc4777	0.09193318
252	0x3db19ff1	0.086730845
253	0x3d45cf1b	0.048293214
254	0xbded636d	-0.115912296
255	0x3cd5b72d	0.026088322

a2c_network.mu.bias f4 [18]
0	0x3cd99a64	0.026562877
1	0xbcb30665	-0.021853635
2	0xbe20addf	-0.15691327
3	0x3c3ea7dc	0.0116367005
4	0xbd6b784c	-0.05748777
5	0x3d257fbe	0.040405028
6	0xbca8a53d	-0.020586604
7	0xbbf4c827	-0.007470149
8	0xbe18ef49	-0.1493503
9	0xbd147f1d	-0.036254037
10	0xbc3e9d9a	-0.011634255
11	0xbd586b28	-0.052836567
12	0xb94ad132	-0.00019342153
13	0xb8fa5e59	-0.000119385026
14	0xbd32765f	-0.04356992
15	0xbdb41b94	-0.087943226
16	0xbd7dd234	-0.061968043
17	0xbd5392d5	-0.0516537

exp_avg f4 [18]
0	0x3be0a3bd	0.0068554566
1	0xbb5cb765	-0.0033678648
2	0xba5a1814	-0.0008319628
3	0xb9f763c6	-0.00047185848
4	0x3ae019a8	0.001709749
5	0x3adb31c7	0.0016723209
6	0xba79e73f	-0.00095330545
7	0x3b3e1e4d	0.002900976
8	0x3ad15235	0.0015969934
9	0xba9f3d50	-0.001214901
10	0x3b3038d3	0.0026889339
11	0x3a77f06d	0.00094581285
12	0x3c096ed4	0.00838824
13	0x3aeda407	0.0018130549
14	0xbb1da55e	-0.0024054865
15	0x3b13e9a5	0.0022569683
16	0x3a777aca	0.0009440599
17	0x3b0424a8	0.002016345

exp_avg_sq f4 [18]
0	0x3893c041	7.045316e-05
1	0x3824576d	3.918207e-05
2	0x383b47eb	4.4651253e-05
3	0x387740aa	5.8949612e-05
4	0x3834f455	4.3142896e-05
5	0x3830219f	4.1992982e-05
6	0x3857472c	5.132628e-05
7	0x3883095b	6.2483094e-05
8	0x384f9d17	4.9498947e-05
9	0x382d1e66	4.1274725e-05
10	0x3816504d	3.5837573e-05
11	0x382b778d	4.0880917e-05
12	0x381b9aa4	3.70989e-05
13	0x38167826	3.5874684e-05
14	0x38129c76	3.4954828e-05
15	0x382b4f1f	4.0843264e-05
16	0x38373d94	4.368795e-05
17	0x3813ff8e	3.5285535e-05
