assets/animals/ant_direct_policy.pth (torch, 630626 bytes, 36 tensors)

value_mean_std.running_mean f8 [1]
000000 b4 17 f1 4b b9 d1 81 40
       570.2154768786772

value_mean_std.running_var f8 [1]
000000 90 be 4e b2 92 1f f7 40
       94713.16853212775

value_mean_std.count f8 []
000000 00 00 00 08 00 20 8c 41
       58982401.0

running_mean_std.running_mean f8 [36]
000000 86 4c 1c 7f 41 90 e3 3f e2 84 d8 6f d4 dd 10 40
       0.6113593561771189 4.216630694952274
000010 eb b6 51 78 8a 2b f2 3f 00 74 e4 05 ac 88 cd bf
       1.1356301021546027 -0.23073339736666298
000020 90 6e 95 ca 5e e5 eb 3e 12 2d 59 d0 3e ec ab bf
       1.3301838708449574e-05 -0.05453678410830255
000030 bc 9d 58 c2 da 35 ba bf d9 c0 39 09 fb ca cb bf
       -0.10238425488261432 -0.2171319766089315
000040 ca 58 9c e3 2b 16 95 3f 0d 37 70 32 bf b7 cb 3f
       0.020592389838463267 0.21654500925836154
000050 94 5b d9 0c ed 39 ee 3f 13 7c df df a7 b8 e9 3f
       0.9445710421522215 0.8037909863013531
000060 e7 b2 f6 8e 21 4e d5 bf d3 13 ff 12 1f 3e ca bf
       -0.3328937431459011 -0.2050207941776124
000070 43 c8 3f fd 01 e6 d3 bf 64 09 ff 85 b1 1f db bf
       -0.31091356021272903 -0.42380941472597145
000080 5a 9f 8a d8 53 4c d9 bf 1d 0b 66 71 20 e6 b3 bf
       -0.39528366228704714 -0.07773020523567849
000090 eb 4f 13 87 cd dd ce 3f 5c 2f 1b b8 36 c0 e1 bf
       0.24114388556938535 -0.5547135921310473
0000a0 95 c8 87 67 11 0d 91 3f 01 9f ea 76 94 9c 97 3f
       0.016651412910456093 0.02305824256714484
0000b0 02 4d 5d ac fe 69 a1 3f 93 c1 79 be f9 a5 a2 3f
       0.034011801281531376 0.03642254305021022
0000c0 85 12 96 68 33 0a a3 3f d5 4e 5d 70 7b a1 91 3f
       0.03718720103919274 0.01721756814306626
0000d0 50 8b d9 16 59 61 92 bf 7b 2b a3 92 2d 4f a9 3f
       -0.01794947816814424 0.04943220534331424
0000e0 d7 fd cc c8 e9 18 af bf 12 84 21 cc 95 2b bc bf
       -0.06073694778615007 -0.11004005654969287
0000f0 89 e0 8c 60 5d 23 c8 bf 0d 2d 2d d2 46 b9 d1 bf
       -0.18857924665804074 -0.27693338894887704
000100 52 26 df ab be 15 c8 bf fb 78 65 4c a1 13 c9 bf
       -0.1881635989396267 -0.19591156225482806
000110 02 05 07 35 a9 19 ba bf 0d 8c 6a c9 b5 81 c1 bf
       -0.10195405525793791 -0.13677093825126044

running_mean_std.running_var f8 [36]
000000 7a bd 18 77 22 cc 77 3f 05 48 3a f3 b6 89 1b 40
       0.005809912328501249 6.8844869617769335
000010 10 d0 6e 41 61 00 01 40 95 b4 92 e5 be f2 db 3f
       2.125185500330197 0.43669102114911
000020 c7 e2 9b 86 23 68 0d 40 61 74 d1 6a 4b 2d 01 40
       3.6758490101168237 2.1471165032549355
000030 c0 bd 08 37 12 53 12 40 97 a5 d6 4a 97 83 dd 3f
       4.581124172123452 0.4611566763729455
000040 33 6d d0 69 0f 3a bc 3f 5a 00 2b 9e 2b 83 dd 3f
       0.11026092847207707 0.46113100477305624
000050 85 8e 3d 02 ac 13 a1 3f f5 9a d8 b8 37 b3 c0 3f
       0.03335320975636783 0.1304692890709799
000060 bf ca a1 18 09 3e c6 3f 5e b6 a6 28 c6 9d dd 3f
       0.17376817419752474 0.46275476426931117
000070 5a 96 58 92 b0 68 d7 3f 13 0e 57 cd e3 11 d0 3f
       0.36576475421529653 0.251091909911538
000080 ee dd de 28 83 07 d7 3f 95 37 8e b6 cd 60 d6 3f
       0.3598335169913004 0.34965842082680726
000090 5d f6 ff f2 50 e1 cc 3f 0f 4b a3 9b 08 cf cc 3f
       0.2256261049769134 0.22506816482071954
0000a0 79 f5 9c 21 de 7b ec 3f 41 22 87 23 1a 5c 13 40
       0.8901205688959372 4.839943461535371
0000b0 1e 5c 0a c2 81 f8 03 40 1b a8 47 7a 03 b2 00 40
       2.4963412436877794 2.0869206956022146
0000c0 72 50 6c c2 55 49 08 40 83 3f 8a c3 35 61 06 40
       3.035808104448784 2.7974658276143045
0000d0 33 43 07 d4 32 da ef 3f 61 ff 97 a9 67 ec 00 40
       0.9953855649165234 2.115432095481012
0000e0 b6 59 87 b8 ac ce dd 3f 8a 84 a9 e7 69 6d e0 3f
       0.4657394220388612 0.5133561634685446
0000f0 1e 53 ed 60 0f 94 e0 3f e7 37 ba d3 32 1a df 3f
       0.5180737393480717 0.4859740321779768
000100 6d e4 39 6e 78 3e df 3f 31 39 cb e1 d2 6f dd 3f
       0.4881878925730863 0.45995018053226305
000110 65 a1 77 8c 16 6a d6 3f 89 60 52 af 29 31 e1 3f
       0.3502251025916137 0.5372513221982597

running_mean_std.count f8 []
000000 00 00 00 10 00 20 7c 41
       29491201.0

a2c_network.sigma f4 [8]
000000 d4 ff 87 bf c4 b6 a1 bf 8e 0c 79 bf ae ff a2 bf
       -1.0624948 -1.2633901 -0.9728478 -1.2734277
000010 1c e6 a1 bf 8c 27 a3 bf bb f0 b6 bf 8d 6f 9f bf
       -1.2648349 -1.2746444 -1.4292215 -1.2455918

a2c_network.actor_mlp.0.weight f4 [256, 36]
000000 71 6f c2 3d cb d7 51 3e 34 38 77 bd d7 5c 34 be
       0.09493912 0.20492475 -0.060356334 -0.1761354
000010 a3 24 e6 3d 2d eb 81 bd 7c fe a3 3d 52 3f 45 3e
       0.11237457 -0.06343684 0.080075234 0.19262436
000020 49 2f 2e bc fb 57 f0 bd 19 3e 3f 3e 71 78 48 3c
       -0.010631391 -0.11735531 0.18676032 0.012235747
000030 a1 1e c3 3d a0 56 a7 bd b2 f8 15 be 7d 64 ba 3d
       0.095273264 -0.08170819 -0.14645651 0.09101198
000040 ed de df bd b3 fb 0b 3e 27 36 f3 3d 13 e0 a4 3d
       -0.109311916 0.13670234 0.11875563 0.08050551
000050 b0 8e 20 3d 17 18 12 bc cf f0 c0 3d b6 d0 59 bd
       0.039198577 -0.008916876 0.094209306 -0.053177558
000060 36 fb ff bc 07 69 1e be a4 cc b4 3c a2 68 08 3d
       -0.031247716 -0.15469752 0.022070237 0.03330291
000070 99 d3 95 bb c3 a1 9d bc 05 79 e6 3d a0 2d d1 bd
       -0.0045723435 -0.019242173 0.112535514 -0.102137804
000080 59 2f e9 bd 49 9d 29 be 65 08 a2 3d 5e 5b 25 3d
       -0.11385984 -0.16563906 0.079117574 0.040370338
000090 d7 00 59 3e a6 0b 98 bd 77 c6 33 be 1f 75 50 be
       0.21191727 -0.07424097 -0.17556177 -0.20357178
0000a0 9e dc 0f be 93 5b 39 3e bc 53 d3 3d e7 f3 37 3e
       -0.14049003 0.18101339 0.103187054 0.17964135
0000b0 11 4c 1f be e3 70 1d be e2 b3 e7 3d 9d 07 ab bd
       -0.15556361 -0.15375094 0.11313607 -0.083510615
0000c0 4e 3f 4f 3e 03 28 05 bd c0 91 f3 3d 1d 4c 6a bd
       0.20238993 -0.03250886 0.11893034 -0.057201494
0000d0 24 6e 93 bd dc 76 4e 3c b3 98 96 3d 01 ae f1 bd
       -0.07198742 0.0126015805 0.07353344 -0.11800767
0000e0 aa 05 0e 3e 8e 37 c7 3d 57 46 01 be 16 02 f0 bd
       0.13869348 0.09727393 -0.12624489 -0.11719148
0000f0 d4 33 34 3e f6 6d c7 bd bf 16 00 bd 7a be 36 be
       0.17597896 -0.0973777 -0.031271692 -0.17846099
000100 f5 d0 b3 bd 4a 65 18 3d 4b da a1 3b 77 eb 07 be
       -0.0878009 0.03720597 0.0049393526 -0.13273416
000110 50 b3 b7 bc 38 ec 0e be cd 18 dc bd 79 13 ef bd
       -0.02242437 -0.13957298 -0.10746918 -0.11673636
000120 8e f6 44 be 40 c1 0b be b3 01 89 3e 26 e3 1f bd
       -0.19234678 -0.13647938 0.2675911 -0.039034985
000130 e4 3b bf 3c 7f 25 9a be 19 f7 14 be 5c e2 72 bd
       0.023343988 -0.30106732 -0.14547385 -0.059297904
000140 79 ec 8d bb 28 55 12 be 4f 9e 6e be ae 41 bc bd
       -0.0043311683 -0.14290297 -0.23302577 -0.09192215
000150 01 cd 6f 3d 6f 7c 56 bd 00 2b a5 bb 16 10 0e be
       0.058545116 -0.052364763 -0.0050405264 -0.13873324
000160 01 1b 0c be e5 25 f2 bc f5 96 9b bd e8 67 0c be
       -0.13682176 -0.029559085 -0.07597152 -0.13711512
000170 5c 7d 2e 3e 2f d3 bf bd ba 98 e3 3d 1d 83 66 3d
       0.17040008 -0.09366452 0.11113115 0.056277383
000180 5b e6 aa bd e8 f0 f0 3d 61 b9 92 bd bd d4 28 be
       -0.08344718 0.11764699 -0.071642645 -0.16487403
000190 e3 c5 a5 bd 12 8a 4e be 2c 33 1e 3c d0 74 06 bd
       -0.080943845 -0.20169857 0.009655755 -0.032826245
0001a0 f7 8d b7 3d 2a 2d ca bd 4e a8 ab 3d 3a 86 0f be
       0.089626245 -0.098718956 0.08381711 -0.14016047
0001b0 68 55 c4 3d 97 53 8d bc 6b d5 3c 3d db d7 d7 3d
       0.095866024 -0.017251773 0.04610197 0.10539218
0001c0 0c 6b ff 3d 3f 5b 5f be c6 f3 a5 3d 9d 1f d8 bd
       0.124715894 -0.21812151 0.08103137 -0.10552905
0001d0 84 b0 00 3d b1 1d bb bd 34 24 52 3e aa 1f 23 be
       0.03141834 -0.091365226 0.20521623 -0.15930048
0001e0 ba 6a 5d 3d 65 1e 01 3e ed a0 a1 3d 84 a3 10 be
       0.05405686 0.12609251 0.07892022 -0.14124876
0001f0 bf da 46 3e f9 4c a8 bb 86 22 fe bc 99 70 33 be
       0.19419383 -0.005136129 -0.031022321 -0.17523421
000200 bb 1e ac 3d 15 0d 0d bc 43 cc 95 bd 6f ce 2b 3e
       0.08404299 -0.008609076 -0.073143505 0.16777967
000210 9e be 06 3e 8b 21 be bc 4d fc df bd 57 59 82 bc
       0.13158652 -0.023209354 -0.109367944 -0.015911741
000220 b4 6e 8f 3d da bb 20 bd f6 5b 6c bd 9c 02 98 bc
       0.07003537 -0.03924165 -0.05770489 -0.018555932
000230 88 f7 72 bd e5 16 cd 3d 4d f0 90 3d ff 0b 09 be
       -0.059318095 0.100141324 0.07077084 -0.13383482
000240 a5 72 8e 3d e3 98 7d 3d 8c 57 37 3d 82 fc 65 3c
       0.069554605 0.061913382 0.044761226 0.014037253
000250 5a ab 32 3e d2 a6 a2 3d a8 59 3d 3d b1 db 55 bd
       0.17448178 0.07941975 0.04622808 -0.052211467
000260 43 eb c5 3d e2 c2 27 3d 2d e9 b3 bd 99 20 89 bd
       0.09664013 0.04095734 -0.08784709 -0.06695671
000270 0c 22 d3 3d 83 f5 55 3e 9f 66 94 3a 6b 7b 77 bd
       0.10309228 0.20894437 0.0011322087 -0.060420435
000280 4e bb 1a 3d 1e ca cb bc df 03 4c 3d 02 db a0 3d
       0.037776284 -0.02487665 0.04980838 0.078542724
000290 5f 42 26 be 3f ee 26 bd c7 41 29 3e dd 94 82 3d
       -0.16236256 -0.040754553 0.16528998 0.0637605
0002a0 de f5 42 3d 74 18 0d be 7d 72 a8 bd 5b 75 d5 bd
       0.04759776 -0.1377886 -0.08224962 -0.104227744
0002b0 bb 57 e1 bb e8 b2 96 3d e5 71 aa 3d d1 16 8f 3d
       -0.0068769134 0.073583424 0.08322505 0.06986774
0002c0 45 30 1c be cd 47 ea bd 3c ac 4a bc 5c 5f 41 3e
       -0.15252788 -0.11439476 -0.012370165 0.18884033
0002d0 41 2b 83 ba b6 00 12 bd 5e e3 bc 3d 8d 05 1e be
       -0.0010007398 -0.03564521 0.09223054 -0.15431805
0002e0 08 42 31 3d c0 02 c4 3d 28 46 82 bd 53 7a be bd
       0.043275863 0.09570837 -0.063610375 -0.09300675
0002f0 8b c0 46 be 2c 25 2f 3e 7e 03 5c 3e 72 e0 c5 3d
       -0.19409387 0.17104024 0.21485707 0.0966195
000300 58 f1 a7 bd 4c d8 7d be 20 31 36 be 7d 44 23 3e
       -0.082003295 -0.24789542 -0.17792177 0.15944095
000310 60 47 2a 3d c9 8e 69 3e b3 cf d2 3d 47 14 9e 3c
       0.041571975 0.22808374 0.10293522 0.019296778
000320 94 79 2e 3d ab 0a 80 be 56 c2 35 be a0 80 a0 bd
       0.042596415 -0.2500814 -0.17749915 -0.07837033
000330 11 08 6c 3d 49 13 90 bd 7c a6 a6 bd 8c 39 df bd
       0.05762488 -0.07034928 -0.08137223 -0.10899648
000340 29 0d 3a 3b 06 a8 b9 bd 45 70 e1 bc e5 29 56 3d
       0.0028389192 -0.09065251 -0.027519355 0.052286047
000350 2d 60 4d bd f2 b3 79 3d 5f 73 36 bd c3 50 04 be
       -0.05014055 0.060962625 -0.04454362 -0.12921433
000360 c8 da 9e bd 6f a4 1a bd 6a f7 14 3c 6d 6a c1 bd
       -0.07756573 -0.037754472 0.009092191 -0.09444127
000370 e0 aa 81 3d e9 cb 1f 3d fd 90 00 3e 1b be c9 3d
       0.0633142 0.039012823 0.12555309 0.09850713
000380 54 5d 5f 3e 11 d9 1a be f7 9b 15 3e 69 8b 78 bd
       0.21812946 -0.15121867 0.14610277 -0.060679827
000390 f8 55 fb 3d 37 4e 3d 3e cd 14 35 3d 94 b2 24 bd
       0.122722566 0.18486868 0.04420929 -0.040209368
0003a0 06 d5 6f bd 28 05 17 be 49 ca 1d 3d ba d4 2d be
       -0.058552764 -0.1474806 0.038522992 -0.1697568
0003b0 1f e6 bf 3d ef 6b 42 3e 86 d3 6f 3e 9b 92 dc bd
       0.09370064 0.18986486 0.23420534 -0.1077015
0003c0 3d 15 e7 bd 6c 22 ad 3d 87 55 dd 3d ab ac 1d be
       -0.11283348 0.08453831 0.10807329 -0.15397899
0003d0 c0 66 80 bd 31 65 99 bd df 61 bc 39 59 1a 81 bd
       -0.06269598 -0.07490004 0.00035931074 -0.063038535
0003e0 e6 52 c7 bd 8d d5 fa 3b 95 3d f3 bd f1 76 59 3e
       -0.097326085 0.007654852 -0.1187698 0.21236779
0003f0 4b 5b c2 3e 73 0c 74 bc 3d b1 e1 bc ff 72 f6 bc
       0.37960276 -0.014895546 -0.027550334 -0.030084131

a2c_network.actor_mlp.0.bias f4 [256]
000000 59 a0 82 3c 1f b6 be 3c b4 11 a6 bb b2 d1 57 bd
       0.0159456 0.023280201 -0.0050680283 -0.052690215
000010 10 7b e3 b9 d4 13 b1 3c cb 2d 24 bd 05 30 00 3d
       -0.00043388503 0.0216159 -0.040082734 0.031295795
000020 25 0d 70 bc 97 0a 40 bd 5c 5d 7d bc 30 d8 bc 3c
       -0.014651571 -0.0468851 -0.015464153 0.023052305
000030 50 f0 04 3c c8 4f 31 3d f0 24 c7 bc 4d a6 39 3d
       0.008113936 0.043288976 -0.024309605 0.045324612
000040 1f 49 49 3d 41 c3 20 bd 79 6b 01 3d 4c 67 07 3d
       0.049142 -0.03924871 0.031596635 0.033057496
000050 32 8b e5 3c c4 96 d5 bb b8 37 af 3b 40 ee 04 3d
       0.028020475 -0.006518217 0.0053472184 0.032453775
000060 78 08 4c 3d 23 92 cb 3d e7 d2 f0 bb fd ef 1a bd
       0.049812764 0.09939983 -0.0073493603 -0.037826527
000070 05 61 cc bd ef cd 19 bc 51 a3 35 3c 8e f8 48 3c
       -0.099794425 -0.009387477 0.011086301 0.012266291
000080 c7 e3 ac 3b 11 2d 9b 3b 4a 14 59 3c 09 2b e5 bb
       0.0052761766 0.004735597 0.013249466 -0.0069936556
000090 30 2b 34 3d c5 8a da 3c 4c 6f 65 3c 21 92 02 bc
       0.0439865 0.026677499 0.014003586 -0.00796941
0000a0 00 f0 f1 bb 10 17 b9 ba ec 44 6e 3c 5c be 83 3c
       -0.0073833466 -0.0014121253 0.014542799 0.016081981
0000b0 10 c0 90 3b 31 88 86 bb 23 2e d9 3b 79 85 4e bd
       0.004417427 -0.0041055907 0.0066278144 -0.05042026
0000c0 13 60 43 3d 1b 83 12 bd 9d df 58 3d 0a 68 8c 3b
       0.047699045 -0.035769563 0.05294763 0.0042848634
0000d0 80 f2 00 3d ea ff 84 3b 0e 7c 8b 3d 45 9b b6 3d
       0.031481266 0.0040588276 0.06810771 0.08916334
0000e0 0d 08 88 bc 7f bb 76 bc 0b e1 6c bc 30 59 f3 3c
       -0.016605401 -0.015059351 -0.014457951 0.029705614
0000f0 97 b6 20 bb 56 23 72 3c b7 2c e7 3c f5 f0 67 bb
       -0.0024522895 0.014778933 0.028219564 -0.0035391424
000100 07 7d 02 bc 06 00 13 3d 68 d7 0d 3c be 25 3e bc
       -0.007964379 0.035888694 0.008657314 -0.011605678
000110 e0 e6 4c bb bf aa 5b bd 02 d2 04 3d 85 89 5b 3d
       -0.0031265542 -0.053629633 0.03242684 0.053597946
000120 5b 81 58 3d 2e bd 37 bd 41 b9 63 bc b0 18 d4 bc
       0.052857738 -0.04485815 -0.013899148 -0.025890678
000130 0a d2 96 bc c4 20 4c 3c 88 14 57 bd 1b 6c 83 bc
       -0.018410701 0.012458984 -0.052509815 -0.01604276
000140 64 85 89 3b 91 c0 86 3c 3a ca 52 bc db c9 89 bd
       0.0041968096 0.016449245 -0.012865597 -0.06727954
000150 e1 6c 04 3d cb 3e 4f 3d 09 23 0e bd 58 7d 0f 3b
       0.032330398 0.050596993 -0.03470138 0.002189478
000160 3f 44 b0 3c 0f 45 0a 3d 08 57 19 3d 5a 82 43 bd
       0.021516917 0.033757266 0.037436515 -0.047731735
000170 24 31 90 bd d2 50 6c bd a5 db 2a 3d 67 90 ec 3d
       -0.07040623 -0.057694264 0.041713376 0.1155098
000180 a4 45 b7 bc fa 17 82 bc f5 9c fe bc d9 2c b0 3c
       -0.022372074 -0.015880574 -0.031080702 0.02150576
000190 02 48 97 3c 21 63 7b 3b 2b 71 7f 3c 63 19 51 3d
       0.018466953 0.0038358646 0.015590946 0.0510496
0001a0 e3 b8 18 bd 8c ff 85 bc 52 97 fb 3c 72 7f 0a 3b
       -0.037285697 -0.016357206 0.030711804 0.0021133092
0001b0 da 46 27 bd 69 0c 31 bd 83 e6 eb bb 07 17 a2 bc
       -0.040839054 -0.043224726 -0.00719911 -0.01978637
0001c0 f5 8d 57 3c 3e f7 94 3c b4 58 e6 bc 6f c6 83 3d
       0.013156404 0.0181843 -0.028118469 0.064343326
0001d0 f4 e5 c4 3c 9c f2 a9 3c 4f ea b9 bc 88 3b a8 3d
       0.024035431 0.020745568 -0.022694735 0.0821448
0001e0 d9 a9 84 3d 98 30 39 bc ca 1c a4 bd e9 5f aa bb
       0.06477708 -0.01130309 -0.080133036 -0.0051994217
0001f0 60 0a 3b 3d aa 71 ef 3c 68 44 69 bc 0b 8f 28 3b
       0.04566419 0.029229004 -0.014237501 0.0025720026
000200 99 5f ac 3b 36 24 b6 3d ba 65 71 3d 8c f1 04 3c
       0.0052604196 0.088936254 0.058934905 0.00811423
000210 79 74 2a bd e3 18 44 bc 66 e3 19 3d bf 84 ea 3c
       -0.041614983 -0.011968824 0.03757038 0.028627751
000220 80 47 a7 3c f8 c0 ac 3c d6 ea 8b bc 15 f2 43 3c
       0.020419836 0.021088108 -0.017079752 0.011959572
000230 0d 8f b4 3b 4e 4c 53 3d 10 35 dc 3c 68 27 7b bd
       0.005510217 0.05158644 0.02688077 -0.061316878
000240 70 58 3b 3b 71 e8 74 3d 28 bf b9 3c 40 ee fb bb
       0.0028586648 0.059791986 0.022674158 -0.0076883137
000250 87 66 a8 3b 7f a1 91 3d 39 a8 81 3d 3a eb 21 3d
       0.0051391753 0.07110881 0.06330914 0.03953097
000260 a8 aa f1 3a df 9b 48 3d cb 5d 1f 3d b4 df a8 3c
       0.00184377 0.048976775 0.038907807 0.020614482
000270 5e 79 c1 3c 5c 39 a9 3d 11 77 91 bb 04 1a f5 bc
       0.023617443 0.082628936 -0.0044392426 -0.029919632
000280 75 5b 34 bd 2f e6 59 3c a7 18 8b bd 15 08 2b bc
       -0.044032533 0.013299509 -0.067918114 -0.010438939
000290 dc 0a dc 3b c3 80 59 3d 29 cc bc 3c 05 79 91 bd
       0.0067151617 0.053101312 0.02304657 -0.07103161
0002a0 13 aa 0c bd 0d e9 15 bd 04 a9 4c 3a c9 69 3c 3c
       -0.034341883 -0.036599208 0.0007807168 0.0114998305
0002b0 e2 ec e1 3c 23 f1 11 3d 42 de 6b 3c d3 ea 43 3d
       0.027578775 0.035630357 0.014396252 0.047831368
0002c0 c6 2f 10 bd 5d f6 e6 39 91 bd 93 bd 49 68 0d 3d
       -0.03520181 0.00044052574 -0.07213891 0.034523282
0002d0 7d 84 b0 3c 48 e9 23 bd 69 83 99 bb ec 43 4e 3d
       0.02154755 -0.040017396 -0.0046848548 0.050357744
0002e0 28 89 f5 3b 1e bc 86 3c 55 e4 18 3d 36 7d df 3c
       0.007493157 0.016447123 0.03732713 0.027281385
0002f0 72 ec b1 bc 64 d0 61 3d a5 30 ad bc db 81 e0 bc
       -0.021719191 0.055130377 -0.02114136 -0.02740567
000300 8d 3d 19 be a6 4a 39 bd ca 45 0e 3d 11 df bd 3c
       -0.14964886 -0.045237206 0.034734525 0.023177655
000310 b6 fe f9 bc 0b 0a 15 3d 64 2a b5 3b f5 7c fd 3c
       -0.030516963 0.03638653 0.005528735 0.030943373
000320 83 56 5d bd 94 2a ee 3c c7 4f c9 bc e2 69 5c 3d
       -0.054037582 0.029073037 -0.024574174 0.053811915
000330 43 a7 c0 bc d8 70 5e 3d 32 db 96 3b 25 d1 29 3d
       -0.023517257 0.054306835 0.004603767 0.04145922
000340 02 a0 35 3d 4e ae 3a 3d 0f ce ec 3b 43 b9 cd 3c
       0.04434205 0.045576386 0.0072267125 0.025112754
000350 76 f2 ae 3c 5f f9 82 bd d9 78 7a 3d 66 eb c8 bb
       0.021355849 -0.0639522 0.061150406 -0.0061315773
000360 19 56 e8 3c 1c 95 1b 3c 56 2f 53 3d 0a b5 ec bc
       0.028361367 0.009496 0.051558815 -0.02889492
000370 85 ea 65 3c 98 60 53 3c 05 c0 b5 3c 2c 19 d4 bc
       0.014032965 0.012901448 0.022186289 -0.02589091
000380 99 d3 67 3d c8 31 cf 3c 7f 18 48 bc 44 e7 95 bc
       0.05659828 0.025292292 -0.012212872 -0.018298753
000390 1b cc 12 bc 5f c9 bb 3d cc bd 0d 3d 00 7c 3f bc
       -0.008959795 0.09169268 0.034604833 -0.011687279
0003a0 80 9c 8e bc d2 5d 29 3c 86 98 97 bc 82 65 7a bd
       -0.01740861 0.01033731 -0.018505346 -0.06113196
0003b0 d8 a3 e4 3c 30 b6 8a 3c 0b 71 ab ba 2a 99 82 3d
       0.027910158 0.016932577 -0.0013079954 0.0637687
0003c0 c3 e0 1a 3d 3a e9 ed bb ca 18 1e bc 97 fc 9b 3b
       0.037812006 -0.007260469 -0.009649465 0.0047603357
0003d0 4f 99 b2 bb 5b 21 40 bd 3b ca e6 3c bd 10 22 3d
       -0.0054504047 -0.04690681 0.028172603 0.039566744
0003e0 47 b8 9f 3c 05 7d e1 3d bc ee 25 bd ee 45 d1 3c
       0.01949705 0.11010174 -0.040510878 0.02554604
0003f0 f8 0f 9f 3d 2a 8a 96 3c a9 3d 0a 3e 08 84 8f 3d
       0.07766718 0.018376429 0.13500084 0.07007605

a2c_network.actor_mlp.2.weight f4 [128, 256]
000000 fc cb 0d 3d 37 5b d4 3d 94 1a b7 3b 8f 23 6f 3d
       0.034618363 0.1036896 0.005587885 0.05838352
000010 26 17 1f bd 15 83 9e bc 04 da f5 bc e3 b4 e7 3d
       -0.038840435 -0.019349614 -0.030011185 0.11313798
000020 07 4a e5 3d 86 8e 0c 3d 34 2e 89 bd 24 c4 75 3c
       0.1119576 0.03431561 -0.06698266 0.015000377
000030 48 ac 8b bb 8a 7a 9f bd 91 a5 ac 3c 10 e9 bb 3d
       -0.004262481 -0.07787044 0.021075042 0.091753125
000040 20 c7 ee bb 9a 17 00 bd f4 74 04 bc 5d 84 d2 bc
       -0.007286921 -0.03127251 -0.008084524 -0.025697881
000050 92 38 9c 3d d5 26 b7 3b 03 ce cd 3d 0f 6f bd bd
       0.076279774 0.005589346 0.10049059 -0.09249698
000060 7c 2a 40 bd 52 73 f6 bc be 2e c1 3d 98 2f 49 3d
       -0.046915516 -0.030084286 0.094327435 0.049117655
000070 ed 25 98 3d d6 b4 0a 3e 95 9e 44 bd 71 44 c2 3d
       0.07429109 0.13545546 -0.048002798 0.094857104
000080 2a 98 7a 3d 29 f0 01 bd da 96 0a 3d 23 c2 45 bd
       0.06118027 -0.031723175 0.03383527 -0.048280846
000090 4e b5 44 3b cc f3 03 bd b9 e2 52 3d c3 82 7a 3b
       0.0030015293 -0.032214925 0.05148575 0.0038224913
0000a0 38 e0 1e bd bd cd b1 bc ed 6f 3c 3b 56 df 53 3d
       -0.03878805 -0.021704549 0.0028753236 0.05172666
0000b0 29 8f 9c bd 97 fc d3 3d 8b be fc 3d 74 db f4 bc
       -0.07644493 0.10350912 0.12341031 -0.0298898
0000c0 91 14 42 3d d4 04 cf bd 8a 94 75 3d 36 e8 74 3d
       0.047382895 -0.10108343 0.05995611 0.059791766
0000d0 8e e2 3d 3d 44 b4 43 bc aa df 79 3d ea 12 c2 bc
       0.046358638 -0.011944834 0.06100432 -0.02369066
0000e0 e7 3a 3e bd b8 66 97 3c 06 94 e8 bc 84 0f 06 bd
       -0.046442892 0.018481597 -0.028390896 -0.03272964
0000f0 a0 5a aa 3d 95 1b 35 3d 5d c5 19 3d 42 8d 45 bd
       0.083180666 0.044215757 0.037541736 -0.048230417
000100 1b cb 6c bd db c6 ad bd 36 85 8a bc 7f bd 10 3b
       -0.057810884 -0.08485194 -0.016909223 0.0022085605
000110 76 2c 26 bd 59 ee 76 bc 86 08 13 bb b4 47 75 3c
       -0.040569745 -0.015071475 -0.00224355 0.014970709
000120 f3 1e 8d bd 4a c9 f0 bc e9 dc a9 bc f9 b9 a9 3b
       -0.06890669 -0.029392857 -0.020735221 0.0051796404
000130 53 db 82 bc 09 35 d9 3c 57 19 70 bd b0 59 f5 bd
       -0.015973723 0.026514547 -0.058617916 -0.11979997
000140 12 25 eb bc a0 18 a0 3d e7 0a 09 be a5 7e 85 3d
       -0.0287042 0.07817197 -0.13383065 0.06518296
000150 f0 dc 78 bd c2 eb 80 bd fd 42 42 bc 61 c6 79 3c
       -0.060757577 -0.06294967 -0.011856792 0.015245051
000160 e6 f7 a1 bb cb 25 ca bc da 3e e7 3c 19 1e 73 bd
       -0.004942882 -0.024676224 0.028228212 -0.059354875
000170 b6 b6 25 3d 21 b0 39 3c d7 a2 bf bd 86 21 6d bd
       0.04045745 0.011333496 -0.09357231 -0.0578933
000180 c4 29 84 3c d6 37 c6 3d 8a 2e 68 bc 42 1d 0d 3d
       0.016133197 0.096786186 -0.014171252 0.03445173
000190 be c7 53 bd ab 71 e6 3b ec e2 3d ba 6f 57 14 3d
       -0.05170416 0.0070325932 -0.0007243592 0.036216196
0001a0 1c 52 5c 3d 1c 3a eb bc 81 f7 11 3d 87 c1 c9 3d
       0.053789243 -0.028714232 0.03563643 0.098513655
0001b0 f1 a6 c1 bc 53 93 88 3d 94 bf 24 3d 71 bb 8b bd
       -0.023639174 0.06668725 0.040221766 -0.06822861
0001c0 2e ca 99 bd 47 ac 18 3a e6 8c b5 3d 84 f3 e8 3c
       -0.07509266 0.0005824011 0.08864765 0.02843643
0001d0 90 ae e3 3c a0 33 71 bd 73 77 08 bd 46 5b 24 3b
       0.027793199 -0.058887124 -0.03331704 0.0025078817
0001e0 fa 43 05 3e 04 03 98 3c 65 e8 c1 3b 39 5b 32 3d
       0.13014212 0.018556125 0.005917596 0.043544028
0001f0 91 75 63 bc b0 d7 61 3d c2 21 a8 3c 73 bf 2d 3d
       -0.0138830105 0.055137336 0.02052391 0.04241891
000200 76 d2 5a bc 9e 4b 93 bd 7d 37 c2 bd 04 ad ad bd
       -0.013355842 -0.07192157 -0.0948324 -0.08480266
000210 3c 5c 2b bb e9 7a cc 3d 46 a8 d7 3d aa 0f ba 3d
       -0.0026147505 0.09984381 0.105301425 0.09085019
000220 48 f8 80 bd f2 63 9a 3c 15 9e 52 39 b3 1c 4c bd
       -0.06297356 0.018846486 0.00020086051 -0.049832057
000230 57 6f 6e 3c 8d 9f 9a 3b 46 96 ae 3d ba fa 8b 3b
       0.014552913 0.004718727 0.08524756 0.0042718323
000240 77 85 46 bc a2 fc a6 3c 04 bb ef 3d 46 b3 8b 3d
       -0.012116781 0.020384137 0.11705592 0.06821303
000250 a1 2c 77 3d 61 c2 81 bc 52 c7 0d 3d 7a 48 32 3c
       0.060345296 -0.015839757 0.034613915 0.010881538
000260 73 3d a2 3d 0e 94 bb bc 92 cf 79 bd 53 28 8c bd
       0.07921877 -0.022897746 -0.06098897 -0.06843629
000270 f3 84 40 3d 5c d3 1b 3d a9 ee 95 bb 26 4a 08 bd
       0.04700179 0.038043365 -0.0045755696 -0.03327384
000280 90 96 24 bd ac a2 61 3d 3d c7 62 bd 7f 95 97 bd
       -0.04018265 0.055086777 -0.05536579 -0.07401561
000290 2c ac 4c bd 6a 20 32 3d 53 c2 d6 3d 8a 69 35 b9
       -0.049968883 0.043487944 0.10486283 -0.00017300821
0002a0 16 e5 64 bd 0a 03 47 bd fb ca fe bd b5 d2 58 bb
       -0.055882536 -0.048586883 -0.12441059 -0.0033084576
0002b0 19 c6 a7 3d bf e6 06 3e 6b 15 81 bd 02 be e7 bd
       0.08192081 0.1317396 -0.06302913 -0.11315538
0002c0 38 18 92 bc 7a d3 a9 bd 36 24 94 bd 95 be a5 bd
       -0.017833814 -0.08292289 -0.07233469 -0.08092991
0002d0 2f f0 0d 3d 03 67 18 bd 73 b7 e7 bb 34 ec a7 3c
       0.034652885 -0.037207615 -0.0070714294 0.020498373
0002e0 30 f8 ac 3d f1 83 85 3d c0 8e 35 be 39 b7 d3 bb
       0.084457755 0.065193065 -0.17730236 -0.006461051
0002f0 0a c1 a9 bb dc a1 54 3c d1 90 82 3d 36 3d dc bc
       -0.0051804828 0.012978043 0.06375278 -0.026884656
000300 48 dc 03 3d f7 4d cb 3d d6 50 0d 3d a7 6c 8a bd
       0.0321925 0.0992698 0.03450092 -0.06759005
000310 db 89 99 bd 4d 10 23 3c 57 ce 9f 3d 67 ef 44 3d
       -0.07496997 0.009952617 0.07803028 0.048079874
000320 42 21 27 bc ea 93 60 3c a0 43 a7 bd 95 67 06 3c
       -0.0102008 0.01370714 -0.08167195 0.008203407
000330 0f 21 1d bc e1 57 1c bd 24 6d 74 bd 3c 7b d7 3d
       -0.009590401 -0.038169745 -0.059674397 0.10521552
000340 15 36 55 3c 5c 8b ca bc 23 a1 04 bd e1 ff 3c bd
       0.013013382 -0.024724655 -0.032380234 -0.046142463
000350 6b b7 3f bd 93 cd 98 3d 53 c9 e3 3c a1 22 22 bd
       -0.04680578 0.07461085 0.02780596 -0.039583806
000360 48 47 47 3c de f4 8f bc 17 a9 4d bc 4d e1 a8 3c
       0.012162991 -0.017572816 -0.012552521 0.020615244
000370 e3 1d 34 3d cb 8d 43 3d cc 5f 8c 3d 3a 84 d8 bc
       0.043973815 0.047742646 0.06854209 -0.026430238
000380 47 d6 c3 bd ad 34 85 3b 32 9c 09 bd 99 0e c4 bd
       -0.095623545 0.0040651173 -0.033596225 -0.09573097
000390 59 d9 c6 bd f8 11 1c 3c 6a d1 a9 3b 1f 9c 2d bd
       -0.097094245 0.009525768 0.005182435 -0.042385217
0003a0 1a c6 e1 3c fa 15 83 3d e5 cd 1b 3d d2 e1 a0 bd
       0.027560282 0.06400676 0.038038153 -0.07855572
0003b0 c2 3f 4d 3b 2c 0d de 3d 96 cb dd 3d 65 51 5b bd
       0.003131852 0.10842356 0.108298466 -0.05354442
0003c0 85 74 b7 3b 52 ef bc 3d ff 63 bc 3a e4 8e 73 3c
       0.005598607 0.09225334 0.0014373063 0.014865611
0003d0 0e c5 d1 3d 02 44 58 bd de b5 50 bd de 56 0b 3e
       0.10242663 -0.052799232 -0.050954692 0.13607356
0003e0 15 5a 04 3e 09 7f 4f bb 73 a1 19 3d 47 22 57 bc
       0.12924989 -0.0031661412 0.037507486 -0.013130731
0003f0 53 4b e0 bc 26 b8 f0 bd ba f7 e8 bd f5 20 84 3d
       -0.027379667 -0.117538735 -0.11375375 0.064515986

a2c_network.actor_mlp.2.bias f4 [128]
000000 b5 3a cd 3c f9 e6 94 bd 2c 9e 12 3b 43 77 7e bc
       0.025052408 -0.07270617 0.002237211 -0.015531364
000010 88 10 6e bd e8 21 cb 3c e0 07 66 bc c8 dd 39 bd
       -0.058121234 0.024796441 -0.0140399635 -0.045377523
000020 b2 9d d7 3c 52 21 8a bc f7 1b 15 bd d3 dd 88 3c
       0.026320312 -0.016861591 -0.036403622 0.016707337
000030 8c d2 1a bd b5 66 46 3c a9 fc 23 bd b3 9f 80 bc
       -0.03779845 0.012109448 -0.040035877 -0.01570115
000040 b1 0f 8b bc 3a 05 c0 ba f8 72 8d 3b de 82 97 bd
       -0.016975256 -0.0014649995 0.004316684 -0.07398008
000050 3b d2 80 bb 6c 16 a4 3c ed 5f 04 3d 4e 48 7f bd
       -0.0039313114 0.020030223 0.032318044 -0.062324814
000060 74 c4 da bc 16 d4 68 bd af 4c 41 bd ba cf b4 3c
       -0.026705004 -0.056842886 -0.04719227 0.022071708
000070 b5 98 77 3c da 6c e7 bb 1e 6b 50 3d 85 8e a7 bd
       0.015112092 -0.0070625367 0.050883405 -0.0818148
000080 88 e3 a5 3b 93 79 78 3c 59 ac 84 3c 15 40 16 bd
       0.005062524 0.015165704 0.016195463 -0.036682207
000090 9c fa 76 bc d2 c7 a4 bb e1 1b 02 bc 45 bf 57 3c
       -0.015074398 -0.0050287032 -0.007941217 0.013168161
0000a0 3d 1c 8f 3c 67 5b 8a bd aa 00 81 bc e2 57 83 bd
       0.01746952 -0.06755715 -0.015747387 -0.06413247
0000b0 7e 21 21 bd b4 4d 02 3d 6f 51 01 be 6e 16 1b bc
       -0.03933858 0.031812385 -0.1262872 -0.009465797
0000c0 86 10 45 bd 2d 01 68 bc d1 ff 43 3b 7a 2f f7 3c
       -0.04811146 -0.014160437 0.0029907117 0.030174006
0000d0 6e 43 81 3c 89 7a 5e bc 28 5a db bc fe 4a 46 bd
       0.015779223 -0.013579019 -0.026776388 -0.048411362
0000e0 81 66 1c bd 3a b5 46 bc 46 f8 90 bc c7 5e ed 3c
       -0.038183693 -0.012128169 -0.017696511 0.028975857
0000f0 82 f1 33 bd 0f 85 5c 3c 5d d9 19 bb 85 70 8e 3d
       -0.04393149 0.013459458 -0.0023475506 0.06955055
000100 96 e0 06 3d 1d 34 38 bd 08 bd 99 3c 91 f0 ce 3c
       0.032929026 -0.044971574 0.018766895 0.025261195
000110 46 dd af ba 70 d8 23 3d bf 3a ab bc 60 dd ca bb
       -0.0013417385 0.040001333 -0.020902036 -0.0061909407
000120 24 0c a9 bc 5a d1 00 bd f9 ec d9 bc e0 ea 26 3c
       -0.020635672 -0.031449653 -0.026602255 0.0101878345
000130 4c 90 cd 3c 3b ff 09 bd 5f b0 2e bc 96 06 8e bc
       0.02509322 -0.033690672 -0.010662167 -0.017337125
000140 2a 4c 95 bc 28 61 0c 3d 47 5d 10 bd 56 9f 02 bd
       -0.018224794 0.034272343 -0.035245206 -0.031890236
000150 a9 2d 58 bb a5 27 d4 bc 02 d4 e7 3b e6 26 44 bd
       -0.00329862 -0.02589781 0.007074834 -0.04788866
000160 81 e1 1b 3d cc e2 23 bd 15 49 3a bc d7 94 32 3d
       0.038056854 -0.040011212 -0.011369963 0.043598976
000170 12 45 c3 bc 4d eb 99 3c e3 28 54 3c b8 b9 d0 bc
       -0.023836646 0.018788958 0.012949201 -0.025479183
000180 2b 30 eb ba 47 28 42 bc 7b 05 e7 3b a5 7b 99 bd
       -0.0017943432 -0.011850423 0.007050214 -0.074942864
000190 22 c1 76 bb 01 97 17 ba 19 7a 58 3c 50 a1 a7 bc
       -0.0037651737 -0.0005782694 0.013212704 -0.020462662
0001a0 33 60 10 3d d4 ce dc bc 08 1f 63 3d 4d 4e 05 bd
       0.035247993 -0.026954092 0.055449516 -0.032545377
0001b0 ed c1 62 bc 76 3d a1 3b 09 06 dc bc 1c b8 ef bc
       -0.013840181 0.004920657 -0.026858347 -0.029262595
0001c0 e8 d7 46 bc 58 cf 19 bb d2 51 99 bd 83 aa 7a bd
       -0.012136437 -0.0023469534 -0.07486309 -0.06119777
0001d0 ad bd fd 3c ea a5 17 bd 22 17 79 3c 6c 3d dd 3c
       0.030974234 -0.037023462 0.015203269 0.027006827
0001e0 47 49 ec bc e7 9b c7 bc 70 b5 13 bd 72 7f fe 3d
       -0.028843535 -0.024366332 -0.036061704 0.12426652
0001f0 6d ad ea bb b9 36 03 3a 85 28 d6 3c 7b d6 e2 bc
       -0.0071617872 0.0005005408 0.026142368 -0.027690163

a2c_network.actor_mlp.4.weight f4 [64, 128]
000000 20 d1 b9 3d c0 39 15 3d 1a 4a 88 bd ba d6 33 be
       0.090730906 0.036432028 -0.06654759 -0.1756238
000010 73 48 8e 3a 37 13 53 bb 87 b2 a6 bd bf 5c 32 3e
       0.0010855332 -0.0032207498 -0.0813952 0.17418192
000020 8c e8 a1 bd 76 1e 95 3c df 8e 29 bd 40 cc ab bd
       -0.07905683 0.018203001 -0.041396018 -0.08388567
000030 61 9c a5 bd 38 d3 6e 3d 36 2e 42 bd c3 63 0b 3e
       -0.080864675 0.058306903 -0.04740735 0.13612275
000040 97 59 95 bd 80 37 53 bd ed 67 e5 bc 80 40 d6 bc
       -0.072924785 -0.0515666 -0.028003657 -0.026153803
000050 b4 ad d4 3d 2d 7b 19 3d 8c 96 6d bc 6f f3 ae 3d
       0.10384694 0.037470985 -0.014501225 0.08542525
000060 5d 71 3e bd af af cf bd 11 43 4c bd ae 5b d5 3c
       -0.04649483 -0.10140931 -0.049868647 0.026044693
000070 2b 82 6c 3d 63 f3 d6 3b bc 40 ec 3d 62 56 06 bd
       0.057741325 0.0065597757 0.115357846 -0.032797225
000080 9b e8 84 3d a2 e5 bb 3c ae 56 fd bd 84 e4 e1 bd
       0.064896785 0.022936646 -0.123700485 -0.11029914
000090 85 a2 80 3c c5 2d d3 bd b1 27 15 be 84 e8 33 3d
       0.015702495 -0.10311464 -0.14565922 0.043922916
0000a0 d8 c1 dc 3d 52 47 68 bd 67 f9 77 3d 58 2d cf bc
       0.1077916 -0.05670864 0.060540583 -0.025290176
0000b0 06 6d f7 bb 3a 45 6c 3d 16 a2 72 bc d9 dc 8d bc
       -0.0075508384 0.057683207 -0.014809152 -0.017317222
0000c0 18 fd 14 bd be 76 c4 3d ec 2b 08 bd 01 b7 0e bc
       -0.03637418 0.09592961 -0.033245012 -0.008710624
0000d0 bc ed ad bd 1f 30 ba 3d f7 af da bc 93 c5 07 3e
       -0.0849261 0.090912096 -0.026695235 0.13258962
0000e0 4d be 8d bd be fb a8 bc 53 df 19 bc 89 17 92 bd
       -0.069210626 -0.020627853 -0.009391624 -0.07133395
0000f0 b9 c4 24 3c d6 7f 86 bd 84 1d 44 3d 52 cb 0b ba
       0.010056668 -0.065673515 0.04787971 -0.0005332726
000100 f6 7d 97 3d 62 f0 a6 3c e1 25 32 3d 17 f9 03 bb
       0.07397072 0.020378295 0.043493155 -0.0020137483
000110 f2 d6 09 3d 6d 34 d4 3c 7e 92 77 3c c2 af ed bd
       0.033652253 0.025903905 0.01511061 -0.11605789
000120 6a 54 c2 bd 0e 19 00 be 46 64 0d bc 3a bc d3 bd
       -0.09488757 -0.12509558 -0.008629864 -0.10338636
000130 8b 8a 5c 3d 36 11 89 bd ba bd b5 3d 96 59 b6 bd
       0.053843062 -0.06692736 0.08874078 -0.08903806
000140 52 10 b6 3d 76 dc 20 bd 5c 8b 80 bd df f4 fa bc
       0.088898316 -0.039272748 -0.06276581 -0.030634342
000150 b5 be 94 3d f1 82 ec bc b0 39 91 3d 59 54 db bd
       0.07262937 -0.028871031 0.07091081 -0.107094474
000160 52 80 cf 3d 76 ec 6b bd 22 81 3f bd 3f 2f ed 3c
       0.10131897 -0.057598554 -0.04675401 0.028953193
000170 5b ec 86 bd b2 e2 8a 3d b0 df 1a 3d ed a9 62 bd
       -0.0658805 0.0678152 0.03781098 -0.055337835
000180 54 5f 73 3d f1 be 8f bc 79 20 09 3c 1b 57 b1 bd
       0.059417084 -0.017547103 0.0083695585 -0.08659192
000190 05 9e b2 3d c3 1a dc bc 40 41 ea 3d 66 3b b2 3c
       0.08721546 -0.02686823 0.11438227 0.021756839
0001a0 68 a7 d9 bc 07 70 d3 bd 40 ce a3 bd c9 19 66 3d
       -0.026569083 -0.10324102 -0.079983234 0.056176934
0001b0 27 42 92 bd e0 de 38 bd 16 a6 09 3d cd 90 7b 3d
       -0.07141524 -0.045134425 0.033605658 0.06141739
0001c0 10 15 7e 3c 4b a3 ee bc 3a 05 88 3d 2b af 3b bd
       0.015507951 -0.029130599 0.06641622 -0.04582135
0001d0 62 de de 3c 46 1a d6 3b a6 ce 6d bc 6d 56 b3 3d
       0.02720565 0.0065338938 -0.014514601 0.08756719
0001e0 a5 5b 3b 3e 23 b6 a4 3d d8 20 2c bc b6 b4 bc bc
       0.18296678 0.08042552 -0.010505877 -0.023035388
0001f0 11 ee 67 3d 78 c5 5a 3c d5 d3 ca 3d 06 fd 75 bd
       0.056623522 0.013352744 0.09903685 -0.060055755
000200 39 d6 a5 bc a0 f8 3e bc 26 7e a8 3c 17 61 cb 3d
       -0.02024375 -0.0116559565 0.020567965 0.09930628
000210 79 a0 7b bd 9f 6a f5 bc 55 0f de bc 92 d4 08 3d
       -0.061432336 -0.029958067 -0.02710692 0.033405848
000220 19 66 44 3d 99 6e 06 3e 21 e3 22 3e 65 3a 69 3d
       0.04794893 0.13128127 0.15906955 0.056940455
000230 98 0b 64 bd 1f dc ff bc 5d bb 07 be f0 f9 5f bd
       -0.05567512 -0.031232892 -0.13255067 -0.05468172
000240 84 6f 9f 3d d6 2c db bd 66 bb 82 bc fb 7c c6 bd
       0.07784942 -0.10701911 -0.0159585 -0.09691807
000250 ca ad 7b 3d 8a 1d 86 bd 39 a7 dc bc 7c 83 9f 3c
       0.061445035 -0.06548603 -0.026935207 0.019471876
000260 1d e8 e7 bd 7f b0 36 39 ae fa 7a bc 00 33 1a 3d
       -0.11323569 0.00017422622 -0.015318556 0.037646294
000270 5f 18 2f 3d 47 5e 22 bd 16 06 71 bd ff 83 ad 3c
       0.04274785 -0.03964069 -0.058843695 0.021181105
000280 ee fd 67 bd c7 88 26 bd fe dd b5 bc 50 0c a3 bd
       -0.05663865 -0.040657785 -0.02220058 -0.07961333
000290 3b f1 aa 3d 6d 3a 31 3d 40 aa 6a 3b ae 33 2d 3d
       0.08346792 0.04326861 0.0035807043 0.042285614
0002a0 38 ee 7d bd 86 c1 ba bc fa 1c 5a bd 58 5a f6 3d
       -0.06199476 -0.022797357 -0.05325029 0.120289505
0002b0 f3 d6 16 bd 45 67 56 bd cc c8 1e 3e 4a 82 1e 3e
       -0.036826085 -0.05234458 0.15506285 0.15479389
0002c0 81 b6 2b 3e 8e 70 b6 bd a4 94 09 3d 6c 3d 00 bd
       0.16768838 -0.08908187 0.03358902 -0.031308576
0002d0 80 f7 cf 3c 39 d2 e6 bd 8a 80 dd bc 17 7c da 3c
       0.025386572 -0.112705655 -0.027038831 0.026670499
0002e0 ee bb e9 3c b4 ef b3 bd 0d 46 f8 3c d7 74 7b 3d
       0.028531995 -0.08785954 0.03030684 0.061390724
0002f0 c4 55 64 3d 94 56 5c 3d 3f ab 36 bd f4 d4 c1 3d
       0.055745855 0.053793505 -0.044596907 0.09464446
000300 e5 ff ed bd 30 48 d0 3d ba 41 7f bd 6f aa 53 3d
       -0.11621074 0.10170019 -0.06231854 0.05167621
000310 54 c9 be 3d eb 53 83 3c 89 f6 18 3d ce db eb 3d
       0.09315744 0.016031226 0.03734449 0.11516534
000320 6a 54 6c 3d 6c bc dc 3d c8 00 46 bd b3 c0 c4 3d
       0.05769769 0.10778126 -0.04834059 0.09607067
000330 6b 49 9f 3d f4 0e 18 3e ae 03 2a 3d cd 80 71 3d
       0.07777675 0.14849454 0.041507415 0.058960725
000340 59 11 a9 3d ee 57 b6 bd 04 41 48 3e 4a f5 e9 bc
       0.08255262 -0.0890349 0.19556051 -0.028559346
000350 af 75 86 bc c7 b5 cd bd 6c ba 32 3d 86 19 f2 3b
       -0.016413538 -0.10044437 0.043634817 0.0073882965
000360 14 f5 ac bd cf 08 e1 bb 02 36 82 3d be fa 8d 3d
       -0.084451824 -0.006867505 0.063579574 0.06932591
000370 41 23 3a bd db 7b c5 3b 5f 46 4b bd 87 5f 7b 3d
       -0.045443777 0.0060267276 -0.049627658 0.0613704
000380 27 68 a0 3c 61 ed 6b 3d a3 14 a6 bd 46 8e 3a 3e
       0.019580914 0.05759943 -0.08109405 0.18218336
000390 8f 23 29 3d 2e fb 9d bd 42 04 75 3d e0 be bb 3c
       0.041293677 -0.07713924 0.059818514 0.022918165
0003a0 87 e0 cb bc 48 96 67 3d ae c1 8a 3c 69 96 85 3d
       -0.024887336 0.056539804 0.016938057 0.06522829
0003b0 a4 1f f2 3b e7 a7 a5 3d b5 23 e2 ba f8 0d 97 bc
       0.0073890258 0.080886655 -0.0017253073 -0.018439278
0003c0 02 62 01 bc fd c6 6a 3b 8a d6 fc bd 91 78 c0 bd
       -0.007896902 0.0035824173 -0.123456076 -0.09397996
0003d0 47 32 ef 3c 4f a5 2c 3c 29 cb 9a 3d f8 11 71 3d
       0.029198779 0.0105374595 0.07558281 0.058855027
0003e0 27 84 1f be 7d b7 91 3d e2 6a d5 bd a7 bb f2 bb
       -0.15577756 0.07115076 -0.10420777 -0.007407624
0003f0 44 37 47 bd 2f d4 c9 bb db a2 84 bc 74 26 ff 3d
       -0.04863669 -0.0061593275 -0.016190937 0.12458506

a2c_network.actor_mlp.4.bias f4 [64]
000000 58 45 fc 3c 23 5f c8 3c 6b c0 13 3d 68 ef 9a 3d
       0.030794784 0.024459427 0.036072176 0.07565194
000010 30 5a 6f bd a7 79 9e bb 22 05 1e bd 6c b3 83 bd
       -0.05843562 -0.0048362794 -0.038579114 -0.064307064
000020 08 72 31 bc e5 b2 b5 bc 96 d8 f7 bc e9 23 22 bc
       -0.01083041 -0.02218003 -0.030254643 -0.009896257
000030 76 81 21 3d 67 9d 84 3c a0 1d 3a bc e6 de dd b9
       0.039430104 0.016188337 -0.011359602 -0.00042318477
000040 04 f8 f4 bc cb 4a 74 3d 3e 38 2e 3c b9 eb 7f 3d
       -0.02990342 0.05964164 0.010633526 0.062480662
000050 49 7f 23 bd 6d 01 fe 3c 83 51 96 3b 9b ea cb bb
       -0.03991631 0.03100654 0.0045873537 -0.0062230355
000060 dc f5 6b bd 23 23 b1 bb fe 13 79 3d 01 5b d1 3c
       -0.057607517 -0.0054058 0.06081008 0.02555609
000070 ff c9 5a 3b ef 24 12 3d 0c de ce bb a2 22 46 bd
       0.003338456 0.035679754 -0.006313091 -0.048372872
000080 09 a7 ed 3c 02 56 91 3b e9 4c 9f 3c 50 a4 ac bc
       0.029010313 0.0044353018 0.019445853 -0.021074444
000090 b2 30 a1 3c 9b c2 d0 bb 67 52 ce bc f7 6a 2d 3d
       0.01967654 -0.006370855 -0.025185777 0.042338338
0000a0 aa 6b 9c 3c 28 2f 07 bd a2 fc 2f bc 38 76 3c bd
       0.019094307 -0.033003956 -0.010741385 -0.04601118
0000b0 2d 7b 04 3d 14 67 0c bd 47 d6 f3 3c 1e 1d b4 3b
       0.032344032 -0.03427799 0.029765261 0.005496635
0000c0 9b 18 88 bc 1d 12 4f bd 10 46 8b 3c 34 b9 92 bc
       -0.016613295 -0.050554384 0.017001182 -0.017910577
0000d0 ef 9e 95 3c ec 0f 6f bc bf ff 11 3d 20 62 1b bd
       0.018264262 -0.014591198 0.03564429 -0.037935376
0000e0 e9 3b 89 3b 03 09 0e 3c 4b bf d2 3c 47 00 3e 3d
       0.00418805 0.008669141 0.025725981 0.046386983
0000f0 b6 59 99 3c c2 e1 18 3c 38 e7 89 3d 66 1a 1a ba
       0.018719535 0.009331169 0.067335546 -0.00058785675

a2c_network.value.weight f4 [1, 64]
000000 41 03 2c 3d 9a 80 2b ba 85 b8 0f 3e a8 e2 bf 3c
       0.04199529 -0.00065422955 0.14035232 0.023423508
000010 0e 1c a6 bd cd c0 15 bc 62 1a 3b 3c 7a ed cb 3c
       -0.0811082 -0.009140206 0.011419864 0.024893511
000020 8b 00 76 3d 65 1b 14 bd bc 7d a9 bd 5b 1a b2 3d
       0.06005911 -0.036158938 -0.08275935 0.08696433
000030 60 16 97 3d 0c c8 c1 bd f1 ef 9c 3c 12 07 3b 3d
       0.073773146 -0.09461984 0.019157382 0.04566104
000040 ea 92 a8 3c 86 1d 18 3c 52 a6 86 3b 0c 14 02 bc
       0.020577867 0.009284383 0.0041091824 -0.00793935
000050 33 ca 8c bd 5c 65 19 3e 68 52 0f 3e 8c 93 bb 3d
       -0.06874504 0.14980072 0.13996279 0.09159002
000060 bf e9 41 bd b1 70 91 bd 88 56 af 3c a5 d4 7a 3d
       -0.04734206 -0.07101572 0.021403566 0.06123795
000070 5f 3f 8f 3c 16 d1 91 3d 24 0f 8c bd ce fb d4 bd
       0.017486272 0.07119958 -0.06838825 -0.103995904
000080 0d db 37 3c 41 1d 7a bd 2d c5 34 3d 99 2b f5 3d
       0.011221659 -0.061063055 0.044133354 0.11971206
000090 81 fe 7e 3d 39 0c 73 bd cc 2a 5f bd 5f 1f 36 3d
       0.062254433 -0.05933783 -0.054484174 0.04446351
0000a0 5f f7 c1 3d 1c 3a d2 bd 85 70 0f bd 5c 88 8f bd
       0.094710104 -0.1026499 -0.035019416 -0.0700843
0000b0 09 54 68 3d 4a f9 32 bd c9 a1 da 3d a7 31 05 3e
       0.056720767 -0.04369477 0.10675389 0.13007222
0000c0 91 dd 5e bd 9f 8a dd bd 7e 3d a7 3c 34 d0 86 3d
       -0.05441052 -0.108174555 0.020415064 0.0658268
0000d0 aa 19 50 3d ed 7d 02 bd c5 48 0a 3e 71 91 92 bd
       0.050805725 -0.031858373 0.13504322 -0.07156647
0000e0 d3 21 c1 3d 8c 8b a3 bd 5a a8 2c 3d 4c fa 9f 3c
       0.094302796 -0.07985601 0.04215274 0.01952853
0000f0 b0 94 b0 bd 2a f0 0e 3d db 67 4d 3d 02 d2 02 3b
       -0.0862211 0.034897007 0.050147872 0.00199616

a2c_network.mu.weight f4 [8, 64]
000000 7f c5 39 3e 79 5a 66 be 33 5c c9 bd 2f 55 04 be
       0.18141745 -0.2249545 -0.09832039 -0.1292312
000010 32 e9 e8 3d 82 1b cd bd de 72 c8 3d 02 de 76 bd
       0.113726035 -0.10015012 0.09787534 -0.060270317
000020 59 bf c2 bd 0a 30 aa 3d b0 fb d2 3d fe 59 df bd
       -0.09509153 0.08309944 0.10301912 -0.109058365
000030 86 77 11 3e 95 13 6b be ba 16 97 3d 88 72 89 bd
       0.14205751 -0.22956689 0.073773816 -0.06711298
000040 cb 1f 02 bd 33 64 92 bd db a9 4b 3b 90 8c b1 bd
       -0.0317686 -0.07148018 0.0031076584 -0.08669388
000050 68 1a c5 3c cf 2b b2 bd 48 52 3e bd b8 91 0d bd
       0.024060443 -0.08699762 -0.04646519 -0.034562796
000060 cf 5e 13 3e 3b 38 8b bb e2 23 a9 3d 20 e6 5b 3e
       0.14391635 -0.0042486466 0.08258797 0.21474504
000070 02 3a 86 bc de ad a8 ba 6d e7 b7 bd 80 a2 ce 3d
       -0.016385082 -0.0012869199 -0.08979688 0.10089588
000080 ff 8d 61 bd e4 0b d6 3c 34 4a f0 3d 0d 2f 16 3e
       -0.05506706 0.026128717 0.11732903 0.14666386
000090 bb 2d 45 3c ef 3c 05 bc d5 10 42 3e a6 bc 20 bd
       0.012034829 -0.0081322035 0.18951733 -0.03924241
0000a0 92 69 42 3d a0 87 17 3d 44 3d c8 3d ce 0b 3f 3d
       0.04746396 0.036994576 0.097773105 0.046642117
0000b0 54 3a 12 be 72 2a e8 3d 92 90 39 3d bb b0 dc 3d
       -0.14280063 0.11336221 0.04530389 0.10775896
0000c0 7c 57 0e be 70 7e c4 3d 73 f8 b2 3d af 36 6a bd
       -0.1390056 0.095944285 0.08738794 -0.057181057
0000d0 d8 51 2d be 54 58 35 bd dc f3 e3 bb 5d 9c 0a be
       -0.16925752 -0.04427369 -0.0069565605 -0.1353621
0000e0 58 59 85 bc 94 dc 1a be 9c c7 42 be 6c ec a3 3d
       -0.016277954 -0.15123206 -0.19021457 0.08004078
0000f0 b4 cc c1 3c fa 66 cb bd 6c e6 66 3e 71 8e 95 3d
       0.02365718 -0.099317506 0.22548836 0.07302559
000100 e9 45 8e bc ca e4 72 bc 3c f4 0a be 0d 1a 35 be
       -0.01736732 -0.014825055 -0.1356973 -0.17685719
000110 b1 01 29 bd 5f 11 cf bc 2d a6 81 3d b4 25 03 3d
       -0.04126138 -0.025276838 0.06330524 0.03201838
000120 ae ad aa bb 67 dd 15 3e 2c 79 0c be 5c 46 a7 bb
       -0.0052086925 0.1463524 -0.13718098 -0.005104823
000130 95 35 1c be 0d ce 2a be df 3d cd 3c e0 b9 0b 3e
       -0.15254815 -0.16680165 0.025053916 0.13645124
000140 a7 12 a7 3d 77 32 3c bd e6 41 4b 3b 9c 4b 81 be
       0.081578545 -0.045946565 0.003101462 -0.25252998
000150 5b d8 e6 bd 8c b5 49 3e ce d2 32 bd 4a 10 12 bd
       -0.11271735 0.19698161 -0.04365807 -0.035660066
000160 37 f4 f4 bb be 51 b1 bd a6 36 d6 3d 7e a3 42 bd
       -0.0074754017 -0.08658169 0.10459642 -0.0475192
000170 79 de e0 bd 7c 84 1f bd f5 a0 13 bd f4 92 1c bd
       -0.10979933 -0.038944706 -0.036042172 -0.038226083
000180 a5 25 c3 bd 50 a6 09 be a4 e2 85 bc 26 d2 45 bd
       -0.095286645 -0.1344235 -0.016343422 -0.048296116
000190 1a 0e 29 3b 35 54 01 be 40 d0 62 bd c5 cd 8c bc
       0.0025795759 -0.12629779 -0.055374384 -0.017187962
0001a0 36 71 92 bd 46 2c 32 3d 92 93 8b 3d 6c f8 14 3d
       -0.071504995 0.043499254 0.06815256 0.036369726
0001b0 ad b9 59 3d 76 80 bc bd ad 4f b1 3d 55 df d1 bd
       0.05315559 -0.092041895 0.08657775 -0.10247675
0001c0 c4 d7 93 3d dc 8c b6 3d d1 71 c2 3c c0 96 48 3e
       0.072188884 0.089135855 0.023735913 0.19588757
0001d0 b3 31 3c bd f9 4c ab 3d 59 c1 82 bb 6d e6 02 be
       -0.045945834 0.08364291 -0.003990334 -0.12783213
0001e0 92 cd 1a bc 9d 59 10 3d 90 e5 b5 bd fd e6 45 be
       -0.009448426 0.035241712 -0.08881676 -0.19326396
0001f0 90 9b 4d bc d3 21 7d bd 02 28 00 be a3 9a d4 bd
       -0.012549296 -0.061799835 -0.12515262 -0.10381057
000200 95 68 90 bd 30 df 0f bd 5c a0 c6 3a 94 d6 1e be
       -0.070511974 -0.035124958 0.0015153992 -0.15511543
000210 78 86 b5 3d f0 4b 81 3b 95 b7 0f 3e 93 69 33 3e
       0.088635385 0.00394582 0.14034875 0.17520742
000220 a3 07 5c 3d 44 a2 79 bb 92 e0 19 3e 23 ba e1 3d
       0.05371822 -0.0038091103 0.15027073 0.11021831
000230 81 90 2e be 9f 0b e7 bc c0 29 ac bc 31 cc 52 3d
       -0.17047311 -0.028203784 -0.021016002 0.051464263
000240 50 ab fa 3d 95 3f c3 3d 5a e7 20 bc f4 01 61 3d
       0.122397065 0.09533612 -0.0098207835 0.054933503
000250 82 13 2a bd 91 76 97 bd f8 59 04 3e cc 93 39 3d
       -0.04152251 -0.073956616 0.12924945 0.045306966
000260 a6 70 a8 bb 13 12 36 bd 45 da 00 be 56 0c bf 3c
       -0.005140382 -0.04445083 -0.12583263 0.023321312
000270 c6 59 10 3e 0e 68 98 bd c4 bf f2 bd 92 69 c4 3d
       0.14096746 -0.07441722 -0.11852983 0.095904484
000280 e1 96 12 be 5b 4c 45 3e b4 6c 07 bb 99 f7 e6 3d
       -0.14315368 0.19267409 -0.0020664157 0.11277694
000290 52 40 92 3b ee 5a d4 3d 99 7f 33 be e4 06 b9 bd
       0.004463234 0.10368906 -0.17529143 -0.090345174
0002a0 ff 9c 9a 3d 41 a9 7a bd 76 bd 2a 3e a9 3a 0e bd
       0.07549476 -0.06119657 0.16673836 -0.03472391
0002b0 1e 77 9a bd 8c 51 ea bd 0a f2 d4 bd 71 c2 b2 3d
       -0.07542251 -0.11441335 -0.10397728 0.08728493
0002c0 1c 2b 20 be 79 05 af 3d 31 e1 6f bd c8 89 fc 3d
       -0.15641445 0.08545966 -0.05856437 0.12330967
0002d0 25 d9 1b 3e 6b de 77 bd b5 85 0f be 29 c7 2a 3e
       0.15219553 -0.06051485 -0.14015849 0.16677536
0002e0 d4 16 9c bd 0e 14 68 bd 91 8f ee bd 05 7e 0b be
       -0.076215416 -0.05665975 -0.11648477 -0.13622291
0002f0 c7 05 8d bd 8f 9d 91 bd d8 98 98 3d 1e 1e 8c 3c
       -0.068858676 -0.0711013 0.07451028 0.017104205
000300 4e e2 a0 3c fc e8 84 bd 4e 5c 6b bc 46 01 35 3e
       0.01963916 -0.06489751 -0.014365269 0.17676267
000310 cd 5b b5 3d 4e 1b 4c 3e e7 1e c7 3d 6a c3 0e 3e
       0.088554 0.19932291 0.09722691 0.13941732
000320 41 c2 04 3e 97 58 ed bd ac 75 13 3e 6a 88 4a 3d
       0.12964727 -0.11589163 0.14400357 0.0494465
000330 57 a3 74 bd c5 70 14 3d 57 11 9b 3d 59 9d b8 bd
       -0.059726086 0.036240358 0.07571667 -0.09014387
000340 ad 18 69 bc c7 b6 c7 bd 5a 25 1a bd a7 55 e2 3b
       -0.014227075 -0.09751659 -0.037633277 0.006907183
000350 82 da 90 3d 00 37 c2 bd 47 fc a7 bc 96 aa 07 3e
       0.07072927 -0.09483147 -0.020506037 0.13248667
000360 a4 8c 2b 3d cd c8 94 3c 1c 2f 57 3d 7e de 01 bd
       0.041882172 0.018162156 0.05253516 -0.031706326
000370 dc cf 74 3e 42 23 f3 3d 4b f5 c3 3d 1c ac ec 3d
       0.23907417 0.11871959 0.0956827 0.11556265
000380 7d 69 fb bc 1c b5 0a 3e fd 09 26 3d 92 e8 cb 3d
       -0.03068995 0.1354565 0.04053687 0.09956469
000390 af a9 27 be 6e 80 21 be de c5 74 3c 19 03 af bc
       -0.16373323 -0.15771648 0.014939753 -0.021363782
0003a0 5d 1a 41 bd 64 d5 16 bd 1e db e5 bd 3e bf 91 3d
       -0.047144283 -0.0368246 -0.11223434 0.07116555
0003b0 ac 86 46 3d f8 41 33 3e 3f e3 d9 3d 47 92 17 3d
       0.048468277 0.17505634 0.10639047 0.037004735
0003c0 5b 80 d4 3d e3 e0 f2 bd c6 ea 53 be c5 08 d2 3d
       0.10376044 -0.118593 -0.20695028 0.10255579
0003d0 ca 49 6c 3d 2e 7d e6 bd fd 39 3e bd 0c 2d 12 be
       0.05768756 -0.11254345 -0.04644202 -0.14274997
0003e0 6e 8a 92 bc f8 36 8c 3d 01 29 b6 3d ba 85 f8 bd
       -0.017888274 0.06846422 0.088945396 -0.12134881
0003f0 46 18 95 3d ad e0 d0 bd e7 78 56 be d1 74 11 3e
       0.072800204 -0.101991035 -0.20944558 0.14204718

a2c_network.mu.bias f4 [8]
000000 2c 92 f1 ba a1 97 23 bd c2 6c 09 bd aa 4b b0 bc
       -0.0018430403 -0.039939526 -0.033550985 -0.021520454
000010 05 bc d9 bc 0d 0e b8 ba 98 bb 13 bc 96 d8 32 bd
       -0.026578913 -0.0014042273 -0.009016894 -0.043663584

exp_avg f4 [8]
000000 d4 30 55 3b 4e aa c6 3a af 71 86 3b 14 34 70 3b
       0.0032530325 0.0015156956 0.0041029076 0.0036652135
000010 3e 75 b5 3b 26 76 ce 3b 42 94 b9 3b 2d 61 89 3b
       0.005537658 0.0063007055 0.0056634257 0.0041924925

exp_avg_sq f4 [8]
000000 93 26 5a 38 9a a0 6f 38 3b 4c 2b 38 d9 a5 7a 38
       5.2011175e-05 5.7131612e-05 4.0840572e-05 5.9759102e-05
000010 14 0f 85 38 94 f0 83 38 c2 31 99 38 4d 7c 8e 38
       6.344743e-05 6.291378e-05 7.3048766e-05 6.7942405e-05
