assets/animals/ant_direct_policy.pth (torch, 631202 bytes, 36 tensors)

value_mean_std.running_mean f8 [1]
774.0260476294644
00000000: 81a5 7558 3530 8840

value_mean_std.running_var f8 [1]
278440.03964902065
00000000: bcc0 9928 a0fe 1041

value_mean_std.count f8 []
30801921.0
00000000: 0000 0010 0060 7d41

running_mean_std.running_mean f8 [36]
0.5982862384620428 3.1972440027517055 0.4570319685752612 -0.2134080099824624 -0.06293317940780778 -0.11349125454582466 -0.08107995903302116 -0.11298872415151838
0.020128832292888522 0.1124418859868 0.9214038752800875 0.7768137825640395 0.04751300330458363 -0.08443538829928714 -0.20097738052767522 -0.8733792001502597
-0.24747770479910128 0.06967852458516163 0.246827144663163 -0.5671754373649555 0.0055681236011119305 0.006018572118437333 0.005414850342818005 0.007683075161105347
0.012870938304871352 -0.019826833492500293 -0.021953749993527755 0.023273882894264346 -0.016120020088802464 -0.0814394463537642 -0.10400361492377219 -0.5639893897059987
-0.029970951163421744 -0.1187855134170944 -0.05948865877392711 -0.23366959818780464
00000000: 2fec 7a2e 2925 e33f a734 e9a9 f493 0940
00000010: ba76 9003 0340 dd3f 8620 ca23 f450 cbbf
00000020: 3bcc 638b 631c b0bf 2105 a84a c30d bdbf
00000030: 9368 68fc a7c1 b4bf 5f2b 0c3b d4ec bcbf
00000040: fd55 9e11 a79c 943f c48c 03cf fdc8 bc3f
00000050: 5a8a d7fa 237c ed3f 343a e693 a8db e83f
00000060: ffe5 a7d6 9f53 a83f 0bd9 5ebf 8e9d b5bf
00000070: 0412 4d76 a0b9 c9bf 37dd b4ef b8f2 ebbf
00000080: d1f6 4c74 59ad cfbf 3ea9 53a8 73d6 b13f
00000090: c3f2 0b29 0898 cf3f 9f76 521a 4d26 e2bf
000000a0: 8e10 45cc 99ce 763f d448 ad26 eea6 783f
000000b0: 2b86 29d2 e12d 763f 8e65 cbc8 4978 7f3f
000000c0: a2bf b418 145c 8a3f 4cee bb45 7c4d 94bf
000000d0: 28af fc38 0b7b 96bf 5ef6 86d7 1bd5 973f
000000e0: ec7b 5e3c c481 90bf 7f9a b12e 37d9 b4bf
000000f0: d06c c31c fb9f babf 2281 027a 330c e2bf
00000100: 60c1 4e7c b4b0 9ebf f66f 5d37 ba68 bebf
00000110: 9776 d527 4c75 aebf 549e 24a9 e2e8 cdbf

running_mean_std.running_var f8 [36]
0.0043068978589459374 5.180172466535359 1.3276579036033511 0.3362600111209796 3.9138155661480907 3.205510975203594 8.89735462302705 0.6150727196938273
0.17653248283483305 0.6150598654318796 0.059960369253624066 0.18467750651118184 0.24977334340062318 0.5075781655056271 0.4809711849875778 0.0634833581360285
0.49200675622533574 0.3158873258899945 0.3549033539699437 0.23530489525783171 1.0412167195919155 4.550245436021539 4.282466572661548 0.5158198958347867
3.5887665909768978 2.4843390219500647 1.9351186967789389 2.0042891334516053 0.4665175938085844 0.48071530764644965 0.5470727267636626 0.27652510089880633
0.5311701486718567 0.48743085065936564 0.4605161202822654 0.5675255929755575
00000000: b6df 3817 1ca4 713f d6a2 8d21 7fb8 1440
00000010: 7a09 c436 163e f53f aae6 adb5 4885 d53f
00000020: 4674 1989 7e4f 0f40 7fbf 2bf0 e2a4 0940
00000030: 95a1 ad10 72cb 2140 7ce5 f7fb acae e33f
00000040: 7588 3acc 9d98 c63f 3196 e306 92ae e33f
00000050: 5634 0022 20b3 ae3f 77dc 6235 83a3 c73f
00000060: 8cbc a8aa 92f8 cf3f bc54 a090 143e e03f
00000070: c5c2 755d 3bc8 de3f dbd4 0803 7240 b03f
00000080: f286 d9e7 097d df3f 67c7 7a79 7f37 d43f
00000090: e7a9 a28e bcb6 d63f c44c dc86 781e ce3f
000000a0: 8121 ebdc d2a8 f03f 6ef1 218a 7333 1240
000000b0: a02d cfea 3e21 1140 b391 e7b9 9881 e03f
000000c0: 15c9 2942 cbb5 0c40 039e 1b23 eddf 0340
000000d0: edb2 c805 3ff6 fe3f fc38 bfbd c808 0040
000000e0: a4a7 1a9c 6cdb dd3f 10cc 4123 0ac4 de3f
000000f0: a078 bfa9 9e81 e13f d48a 3856 96b2 d13f
00000100: d206 258a 58ff e03f 0c2e a92a 1132 df3f
00000110: 1429 f99a 1879 dd3f 0923 af6e 2b29 e23f

running_mean_std.count f8 []
15400961.0
00000000: 0000 0020 0060 6d41

a2c_network.sigma f4 [8]
-0.94442046 -0.8454694 -0.8192306 -0.86471 -1.024939 -1.0392072 -1.149136 -0.9048205
00000000: 8ac5 71bf af70 58bf 19b9 51bf a25d 5dbf
00000010: 3331 83bf be04 85bf e316 93bf 51a2 67bf

a2c_network.actor_mlp.0.weight f4 [256, 36]
0.0307293 0.1885804 0.0073580877 -0.15887247 0.07728805 -0.029862087 0.09470308 0.20759584
0.19769801 -0.13217853 0.13038482 -0.022417467 0.111934826 -0.089110866 -0.10115354 0.037423193
-0.17496186 0.12515178 0.16500792 0.13006446 0.0502884 -0.060786273 0.08320523 -0.047748018
-0.012855472 -0.09607572 0.021126594 -0.008787641 -0.026585901 -0.02765644 0.077542156 -0.0656735
-0.085117474 -0.08257529 0.10736428 0.010887353 0.17175831 -0.07198633 -0.13234663 -0.15496737
-0.18905576 0.15215872 0.032162298 0.1469572 -0.17826961 -0.12166718 0.0073453733 -0.07584488
0.19414732 -0.09024174 0.17438947 -0.09855656 -0.10909294 -0.01709935 0.03916527 -0.0737614
0.1819427 0.1571603 -0.09881717 -0.091713764 0.13097134 -0.102629155 -0.051634725 -0.18903905
-0.09015208 0.056233436 -0.047812212 -0.10203052 -0.024281444 -0.12128672 -0.13410312 -0.092365004
-0.2492055 -0.117711656 0.22564776 -0.02139624 0.030996557 -0.22010809 -0.074170634 -0.036275823
0.029699493 -0.16556253 -0.28703946 -0.08174991 0.09673823 -0.041999873 -0.06304855 -0.1453096
-0.10991226 -0.05705339 -0.06856224 -0.11326614 0.13475497 -0.072790466 0.098149985 0.04111725
-0.08233241 0.110404566 -0.103209384 -0.09903675 -0.097042456 -0.17505382 0.023588724 -0.04600293
0.07990034 -0.1344371 0.062175658 -0.12146155 0.09879698 -0.011581124 0.05766954 0.09682901
0.119651854 -0.10436537 0.10845204 -0.1464933 0.18444204 -0.05106196 0.47503808 -0.10779598
0.041769557 0.14074352 0.077829756 -0.10531832 0.16589977 -0.042836294 -0.015192783 -0.13300525
0.09593467 0.01911159 -0.039422564 0.11294822 0.12278525 -0.09912709 -0.10272593 0.020182658
0.07954375 -0.052863073 -0.032402545 -0.05382294 -0.060348604 0.13934423 0.1379052 -0.09122057
0.053883616 0.06853328 0.07257703 0.0005843834 0.119566515 0.022756806 0.07174557 -0.062005535
0.04035866 0.05085308 -0.1192337 -0.059387233 0.09127713 0.23722954 -0.016848253 -0.010264498
0.01552477 -0.07275766 0.08161437 0.08533181 -0.17468223 -0.038947623 0.12233254 0.05941989
0.03367511 -0.17108932 -0.08363495 -0.115951546 0.007321533 0.07211521 0.08690929 0.06543633
-0.13031131 -0.11762013 -0.055050228 0.15973271 -0.010030719 -0.04931326 0.023971573 -0.127944
0.031860225 0.09505068 -0.07292805 -0.10457842 -0.35383204 0.1828107 0.27874145 0.065404296
-0.08307816 -0.23919883 -0.23334123 0.1729896 0.046197034 0.26349923 0.040475972 0.025326421
0.055750042 -0.21913023 -0.23226775 -0.0745449 0.044347793 -0.045211576 -0.09027079 -0.08970037
-0.014021763 -0.1060687 -0.057308234 0.04506318 -0.033729482 0.07650858 -0.05823201 -0.15555644
-0.07846297 -0.06380755 -0.016091647 -0.15030693 0.09824511 -0.066909745 0.13042131 0.10735791
0.2274786 -0.15973893 0.053607162 -0.05012844 0.15477261 0.13101447 0.009304336 -0.045579374
-0.08297917 -0.09888506 0.04343905 -0.18985647 0.100804694 0.11785948 0.17425908 -0.09796786
-0.096883714 0.07890031 0.08149415 -0.17485131 -0.039552495 -0.0835123 -0.0084212 -0.062789015
-0.068496354 0.0071189147 -0.12894154 0.18300663 0.16744907 -0.05309989 0.0007558441 -0.13377795
00000000: 03bc fb3c 381b 413e 1d1c f13b 77af 22be
00000010: 3249 9e3d 56a1 f4bc b0f3 c13d 0194 543e
00000020: 5971 4a3e cf59 07be 9983 053e d6a4 b7bc
00000030: 163e e53d c27f b6bd 9629 cfbd 1049 193d
00000040: 3429 33be ca27 003e d6f7 283e 9e2f 053e
00000050: 36fb 4d3d 07fb 78bd 8167 aa3d 6d93 43bd
00000060: c29f 52bc 59c3 c4bd ae11 ad3c 0afa 0fbc
00000070: adca d9bc c28f e2bc 6cce 9e3d d47f 86bd
00000080: 1252 aebd 3c1d a9bd cee1 db3d de60 323c
00000090: 69e1 2f3e 926d 93bd e085 07be c4af 1ebe
000000a0: d597 41be 7fcf 1b3e 9dbc 033d f37b 163e
000000b0: 4f8c 36be a42c f9bd 75b1 f03b 8f54 9bbd
000000c0: 8ece 463e a9d0 b8bd 2793 323e 06d8 c9bd
000000d0: 1f6c dfbd f013 8cbc c36b 203d 3810 97bd
000000e0: 304f 3a3e a1ee 203e a860 cabd 6dd4 bbbd
000000f0: 5a1d 063e 3c2f d2bd ef7e 53bd 7493 41be
00000100: a7a1 b8bd 0855 663d bdd6 43bd 61f5 d0bd
00000110: e1e9 c6bc 2c65 f8bd 5452 09be dd29 bdbd
00000120: ba2f 7fbe cf12 f1bd 3510 673e 2b47 afbc
00000130: 7eec fd3c 0464 61be c6e6 97bd f595 14bd
00000140: 5a4c f33c 3989 29be d6f6 92be 7f6c a7bd
00000150: b11e c63d 0f08 2cbd 991f 81bd 0acc 14be
00000160: ae19 e1bd d1b0 69bd 5c6a 8cbd 14f8 e7bd
00000170: 35fd 093e 2b13 95bd dc02 c93d 906a 283d
00000180: e59d a8bd ca1b e23d 715f d3bd c8d3 cabd
00000190: 32be c6bd 4f41 33be 243d c13c 916d 3cbd
000001a0: caa2 a33d e1a9 09be e7ab 7e3d d5c0 f8bd
000001b0: 1256 ca3d c1be 3dbc e536 6c3d 4a4e c63d
000001c0: 080c f53d 83bd d5bd 1a1c de3d 5702 16be
000001d0: 60de 3c3e 5926 51bd 3138 f33e 24c4 dcbd
000001e0: 8e16 2b3d 121f 103e 3565 9f3d 22b1 d7bd
000001f0: a1e1 293e 1c75 2fbd 27eb 78bc 8732 08be
00000200: 6579 c43d e98f 9c3c 8e79 21bd 6551 e73d
00000210: d576 fb3d 2503 cbbd f961 d2bd 1a56 a53c
00000220: d5e7 a23d f386 58bd 88b8 04bd 7175 5cbd
00000230: 1930 77bd 41b0 0e3e 0537 0d3e dad1 babd
00000240: 11b5 5c3d 2d5b 8c3d 44a3 943d 4e31 193a
00000250: 4adf f43d 7b6c ba3c 57ef 923d 84f9 7dbd
00000260: 1f4f 253d 524b 503d cc30 f4bd 0740 73bd
00000270: 81ef ba3d 4dec 723e 5905 8abc 6d2c 28bc
00000280: 9b5b 7e3c f801 95bd 6f25 a73d 72c2 ae3d
00000290: e6df 32be 8b87 1fbd 7c89 fa3d 4562 733d
000002a0: eaee 093d 0a32 2fbe cd48 abbd 0178 edbd
000002b0: 78e9 ef3b 24b1 933d 7ffd b13d 7c03 863d
000002c0: 5470 05be d3e2 f0bd 597c 61bd f990 233e
000002d0: e357 24bc b3fc 49bd 0860 c43c c003 03be
000002e0: de7f 023d eea9 c23d 4d5b 95bd 362d d6bd
000002f0: 7929 b5be ba32 3b3e 33b7 8e3e b0f2 853d
00000300: e224 aabd 8af0 74be 01f1 6ebe 3024 313e
00000310: 1a39 3d3d 5fe9 863e 22ca 253d 5b79 cf3c
00000320: 285a 643d ad63 60be 99d7 6dbe ffaa 98bd
00000330: 08a6 353d c62f 39bd e4df b8bd d4b4 b7bd
00000340: 89bb 65bc 8c3a d9bd 0abc 6abd 2b94 383d
00000350: ed27 0abd 88b0 9c3d b084 6ebd 304a 1fbe
00000360: 32b1 a0bd 88ad 82bd a1d2 83bc 0fea 19be
00000370: bb34 c93d fa07 89bd 2a8d 053e 77de db3d
00000380: 26f0 683e 9a92 23be 2f93 5b3d 7b53 4dbd
00000390: b67c 1e3e a828 063e 3771 183c 70b1 3abd
000003a0: fcf0 a9bd 4084 cabd 25ed 313d bc69 42be
000003b0: b172 ce3d 5060 f13d f970 323e 60a3 c8bd
000003c0: f86a c6bd 7c96 a13d 68e6 a63d 390c 33be
000003d0: cc01 22bd 7f08 abbd 13f9 09bc 8797 80bd
000003e0: d147 8cbd c945 e93b 4009 04be 1766 3b3e
000003f0: c577 2b3e 457f 59bd d723 463a 16fd 08be

a2c_network.actor_mlp.0.bias f4 [256]
0.043035284 0.022901682 -0.012698976 -0.043925516 -0.0030523483 -0.018136214 -0.026163518 0.026098914
-0.022748176 -0.023736583 0.030653112 0.002318526 0.008480378 0.03733603 0.0013913418 0.03408863
0.04162392 -0.058092743 0.038412806 0.0040064426 0.0065986803 0.00823043 0.0048756455 0.00815557
0.032848757 0.111167684 -0.02032111 -0.060112823 -0.08075514 -0.0063262833 -0.020973828 0.021230467
-0.037609946 -0.005038747 0.00085174514 -0.00062944944 0.021020291 0.01914775 0.0038231583 0.007904116
-0.023607671 -0.016402163 0.028664244 0.014743875 0.025019724 0.0013535615 0.002922813 -0.039675422
0.024855971 -0.0060456465 0.014775591 0.0070782183 0.013757232 0.0043115676 0.0045661433 0.076649934
-6.750375e-05 -0.024020141 0.015512276 -0.0009025849 -0.026930064 0.011650558 0.024363067 0.025989158
-0.006101081 -0.0012847048 0.061742634 0.020218482 0.023742795 -0.023853581 0.011753405 0.012604036
0.053583078 -0.03242164 0.009848763 -0.041168135 0.04223667 0.0024807171 -0.04152558 -0.026435465
0.010708616 -0.00032956497 -0.025729615 -0.044652577 -0.011513469 0.027654042 0.011155512 -0.012696575
0.028002912 0.119974785 -0.0060124616 0.027133994 -0.05185642 -0.048103657 0.046477694 0.11936565
-0.013587776 -0.014156721 0.0056354697 0.012339129 0.004816082 -0.01052939 -0.058960095 0.060645524
-0.027698081 -0.0037918587 0.0134255495 -0.001967409 0.009901751 -0.026639618 -0.052480727 0.012305352
0.0032151989 0.037502587 -0.039469317 0.023451665 0.024948576 -0.015999805 -0.0017654945 0.104715556
0.031242572 0.025171919 -0.09249716 -0.013358331 0.038957357 0.052804824 -0.032075226 0.015606775
-0.0039609787 0.088602856 0.01113141 0.011265256 -0.035970747 -0.015587086 -0.009970845 0.00045979844
-0.012925044 0.06893381 -0.013251944 0.012014876 -0.017099788 0.038202554 0.016860591 -0.04173511
0.028785013 -0.0028528303 0.053073324 0.0031025964 -0.011277996 0.018427607 0.060965773 0.025863905
-0.028732397 0.049697284 0.03529356 -0.002323583 0.006118208 0.037026033 -0.011748045 0.060587935
-0.013016415 0.0269775 -0.04613577 -0.026724081 0.046006538 0.037963476 0.0013175297 -0.052927647
-0.0124941105 -0.02303261 -0.0013950053 -0.00088879385 0.022532973 -0.021305196 0.006184139 0.03375443
-0.022615835 -0.016797077 -0.028431527 0.0056374953 0.007603488 -0.044787437 -0.0024156373 0.015485874
-0.0053124563 0.005986942 0.017109731 -0.016328238 -0.0026644114 -0.018647324 -0.008851689 -0.026478702
-0.10994138 -0.048325088 0.057705685 0.0752169 -0.009272254 0.076371565 0.010066672 0.0023358092
-0.020129751 0.112499356 -0.083608836 0.037298594 -0.0152539145 0.03151472 0.017820965 0.05150962
0.037616957 -0.05081751 0.017079892 0.0017468039 0.018945137 0.014111107 0.05736521 0.00463886
-0.025012575 -0.0050798627 0.017780757 -0.016897513 -0.0009802405 0.021114327 -0.0054036244 0.04781686
0.03133397 0.02264676 -0.03431831 -0.013401654 0.05289095 0.09931188 0.017377643 0.02405564
-0.016705966 0.038628712 -0.0001961358 -0.027028661 0.018267808 0.0017825755 -0.04995179 0.027248202
0.067080855 -0.017987698 -0.010267713 -0.0019038192 -0.0038000757 0.02459707 0.0369996 0.03321148
0.022607723 0.024289243 -0.075369865 -0.00020492452 0.05472009 0.01558238 0.12012235 0.02383591
00000000: c445 303d 4f9c bb3c 5e0f 50bc 3eeb 33bd
00000010: e809 48bb 6692 94bc e054 d6bc 64cd d53c
00000020: 625a babc 3973 c2bc 3c1c fb3c 69f2 173b
00000030: 49f1 0a3c aaed 183d af5d b63a 85a0 0b3d
00000040: d87d 2a3d a8f2 6dbd bf56 1d3d 7a48 833b
00000050: be39 d83b edd8 063c e1c3 9f3b f19e 053c
00000060: 6b8c 063d e2ab e33d 7578 a6bc dd38 76bd
00000070: f362 a5bd b64c cfbb 4ed1 abbc 84eb ad3c
00000080: e30c 1abd 131c a5bb a647 5f3a a301 25ba
00000090: bf32 ac3c bedb 9c3c f48d 7a3b 4480 013c
000000a0: e064 c1bc d45d 86bc 47d1 ea3c 4b90 713c
000000b0: 2af6 cc3c fd69 b13a aa8c 3f3b b282 22bd
000000c0: c09e cb3c 8f1a c6bb 5215 723c 66f0 e73b
000000d0: 0366 613c 0d48 8d3b 969f 953b a4fa 9c3d
000000e0: cd90 8db8 e3c5 c4bc 3427 7e3c 739b 6cba
000000f0: 709c dcbc fbe1 3e3c 0e95 c73c 37e7 d43c
00000100: 94eb c7bb 8a63 a8ba d8e5 7c3d 3ba1 a53c
00000110: 4080 c23c 9668 c3bc 5b91 403c 2981 4e3c
00000120: ee79 5b3d 8ecc 04bd b55c 213c eb9f 28bd
00000130: 5c00 2d3d 8793 223b ba16 2abd 308f d8bc
00000140: 3173 2f3c 76c9 acb9 eac6 d2bc 9fe5 36bd
00000150: fda2 3cbc bb8a e23c 9cc5 363c 4c05 50bc
00000160: 5d66 e53c 57b5 f53d 2f04 c5bb 1c48 de3c
00000170: 6667 54bd 5708 45bd 655f 3e3d fa75 f43d
00000180: 439f 5ebc 97f1 67bc bfa9 b83b 0f2a 4a3c
00000190: 39d0 9d3b 7683 2cbc 2480 71bd 7167 783d
000001a0: 16e7 e2bc d580 78bb d6f6 5b3c a5ef 00bb
000001b0: f43a 223c 543b dabc 08f6 56bd 639c 493c
000001c0: 16b6 523b 509c 193d 94aa 21bd b51d c03c
000001d0: f560 cc3c 0612 83bc 2a68 e7ba 1c75 d63d
000001e0: 6cf0 ff3c 5735 ce3c 276f bdbd e7dc 5abc
000001f0: c091 1f3d df49 583d 5061 03bd 8fb3 7f3c
00000200: 19cb 81bb 6a75 b53d 8460 363c e991 383c
00000210: 1056 13bd fa60 7fbc c15c 23bc 1a11 f139
00000220: 90c3 53bc 2b2d 8d3d af1e 59bc 0bda 443c
00000230: db14 8cbc 487a 1c3d 391f 8a3c 6ff2 2abd
00000240: 8cce eb3c 8df6 3abb 6a63 593d ee54 4b3b
00000250: 58c7 38bc 7ef5 963c 3fb7 793d 8ae0 d33c
00000260: 3460 ebbc 618f 4b3d fb8f 103d 4147 18bb
00000270: 407b c83b 9ca8 173d df7a 40bc 0e2b 783d
00000280: cd42 55bc ebff dc3c dcf8 3cbd 76ec dabc
00000290: 5a71 3c3d 977f 1b3d f6b0 ac3a a9ca 58bd
000002a0: 19b4 4cbc e2ae bcbc 9cd8 b6ba f2fd 68ba
000002b0: 1297 b83c 3c88 aebc 51a4 ca3b 1642 0a3d
000002c0: d844 b9bc 069a 89bc 3ce9 e8bc bdba b83b
000002d0: ae26 f93b 0873 37bd ab4f 1ebb 77b8 7d3c
000002e0: 1d14 aebb 1c2e c43b b529 8c3c ccc2 85bc
000002f0: 689d 2ebb 46c2 98bc ad06 11bc dde9 d8bc
00000300: f228 e1bd 87f0 45bd cc5c 6c3d 510b 9a3d
00000310: a7ea 17bc b268 9c3d afee 243c 6014 193b
00000320: 26e7 a4bc 1066 e63d 1c3b abbd 69c6 183d
00000330: 8eeb 79bc 9415 013d 46fd 913c c0fb 523d
00000340: 3d14 1a3d 0526 50bd 21eb 8b3c 03f5 e43a
00000350: d532 9b3c 4632 673c c8f7 6a3d 9401 983b
00000360: 2ce7 ccbc fa74 a6bb f3a8 913c a76c 8abc
00000370: 6a7b 80ba f4f7 ac3c e310 b1bb 9ddb 433d
00000380: 0d58 003d b385 b93c 5b91 0cbd 9c92 5bbc
00000390: 2ea4 583d 0764 cb3d 8f5b 8e3c 5510 c53c
000003a0: f3da 88bc 2439 1e3d cea9 4db9 366b ddbc
000003b0: 5fa6 953c 4fa5 e93a 409a 4cbd 9f37 df3c
000003c0: b061 893d f05a 93bc e939 28bc 9289 f9ba
000003d0: b10a 79bb cb7f c93c e48c 173d c308 083d
000003e0: d533 b93c 3cfa c63c 845b 9abd 02e1 56b9
000003f0: 2c22 603d 3d4d 7f3c b502 f63d 8743 c33c

a2c_network.actor_mlp.2.weight f4 [128, 256]
0.034839395 0.054617416 -0.015545433 0.093932845 -0.0006834945 -0.029942108 -0.07710751 0.03803089
0.054207206 0.03526433 -0.10571819 0.06276913 0.019103626 -0.006810138 -0.028872617 0.09464203
-0.02979428 0.010569724 0.0233647 -0.0049181827 0.042032074 0.007901504 0.045496833 -0.052470133
-0.025799429 -0.0304968 0.09845931 0.033667352 0.062666684 0.08882319 -0.028616967 0.03549636
0.04123418 -0.032931104 0.029761583 -0.0584016 0.005111887 -0.008527874 0.043202773 -0.062916756
-0.035867576 0.010627858 0.013616833 0.0373671 -0.07753616 0.07322783 0.07542038 0.016080262
0.033759385 -0.07675198 0.075618766 0.03497041 -0.015522587 0.018705944 -0.011331893 0.032538287
-0.07771382 -0.011417326 -0.009280197 -0.0845489 0.077530675 0.046391033 0.024322566 -0.035504475
-0.0018946704 -0.09341723 -0.028557524 0.037523016 -0.05452823 0.008236907 0.044428874 0.025818966
-0.060031705 -0.06373723 -0.043352533 0.0439536 -0.007939626 -0.00066958397 -0.07005633 -0.05484522
-0.06865333 0.05714922 -0.10366007 0.02904583 -0.08857178 -0.12718804 -0.062333483 0.057989232
0.020757614 -0.04124745 -0.04555549 -0.013566759 0.030326318 -0.010760748 -0.038241018 -0.035927955
-0.005617424 0.115592554 -0.0047651306 0.082514115 -0.022535684 0.06397379 0.010601589 0.04362323
0.087309405 -0.08072161 0.039840173 0.004907252 -0.013701113 0.061619315 0.031716734 0.012938813
-0.040240064 -0.029666342 0.0837254 0.04098878 0.058837134 -0.05341402 -0.08851862 -0.059784085
0.08763235 -0.043136217 -0.0070215506 0.07211024 -0.046229593 0.010608364 0.024294225 0.016229836
-0.027160702 -0.055148665 -0.07995049 -0.12747714 -0.0053865784 0.049126815 0.042504102 0.119313754
-0.03864641 -0.0068136062 -0.012841271 -0.06728649 0.004414598 -0.0071873674 0.09184286 -0.0130331
0.025137538 0.05841193 0.08638949 0.018832847 0.060580112 0.016515594 0.0006016159 -0.0092830155
0.06500768 0.05989355 -0.012608135 -0.015765835 -0.0012779824 0.06197798 0.008421738 -0.06945462
-0.026341993 0.022038518 0.0055178604 -0.06416698 -0.09871659 0.014401885 0.11129026 -0.011393462
-0.093282215 -0.073640704 -0.08427436 0.0010082736 0.027882028 0.057697516 -0.10122956 -0.090217456
-0.038944267 -0.032244183 -0.0905699 -0.08636643 0.046066966 -0.015337366 -0.026982846 0.013094297
0.09838572 0.040994823 -0.09512471 -0.017118832 -0.010721455 0.022437638 0.059028294 -0.020964215
-0.014501207 0.038214453 0.026975578 -0.06310803 -0.05257177 -0.0053393315 0.041961987 0.043069594
-0.03116009 0.07820805 -0.029540522 -0.04305182 -0.02744051 -0.04386944 -0.05966308 0.06821746
0.03385238 0.01829174 -0.054724623 -0.020349188 -0.0171447 0.009633062 -0.0010562983 -0.05041852
0.0066712825 0.010261815 -0.024754193 0.043895088 -0.013616014 -0.029850617 0.031766362 -0.02377779
-0.09245727 -0.016473096 -0.0698109 -0.05031588 -0.052614033 -0.0438929 0.029211834 -0.022539346
0.09073503 0.041364063 0.029087583 -0.08708021 -0.020450365 0.11443381 0.08355017 0.028739333
0.027445694 0.07113401 0.03018239 0.011517203 0.056046844 -0.0595558 -0.07557473 0.09252317
0.06409053 -0.027687976 0.06974057 -0.0010177031 -0.048360135 -0.1066915 -0.0766569 0.05836921
00000000: c1b3 0e3d 83b6 5f3d 46b2 7ebc dd5f c03d
00000010: 8a2c 33ba 2749 f5bc 8bea 9dbd 47c6 1b3d
00000020: 6008 5e3d 5571 103d c782 d8bd 1a8d 803d
00000030: 357f 9c3c 9427 dfbb 4486 ecbc aed3 c13d
00000040: 2213 f4bc a32c 2d3c 5467 bf3c b528 a1bb
00000050: d329 2c3d 4f75 013c e35a 3a3d ecea 56bd
00000060: 5359 d3bc 6dd4 f9bc 09a5 c93d c7e6 093d
00000070: 6457 803d efe8 b53d 216e eabc a264 113d
00000080: 2ce5 283d c4e2 06bd 90ce f33c 8436 6fbd
00000090: 9e81 a73b 7fb8 0bbc 64f5 303d 80da 80bd
000000a0: e1e9 12bd 7820 2e3c 2319 5f3c 3f0e 193d
000000b0: 47cb 9ebd 79f8 953d 0076 9a3d c1ba 833c
000000c0: 4847 0a3d 2430 9dbd 03de 9a3d 223d 0f3d
000000d0: 7352 7ebc 353d 993c 67a9 39bc de46 053d
000000e0: 6c28 9fbd bc0f 3bbc f80b 18bc f927 adbd
000000f0: 67c8 9e3d 8604 3e3d 1e40 c73c 246d 11bd
00000100: 9756 f8ba 8851 bfbd 78f1 e9bc bcb1 193d
00000110: fe58 5fbd 18f4 063c 0dfb 353d 4c82 d33c
00000120: cee3 75bd aa88 82bd 6d92 31bd b108 343d
00000130: 3515 02bc 0587 2fba b179 8fbd 62a5 60bd
00000140: 1e9a 8cbd 4d15 6a3d bb4b d4bd 85f1 ed3c
00000150: 1f65 b5bd 953d 02be 6551 7fbd 1e86 6d3d
00000160: df0b aa3c 16f3 28bd 6598 3abd 1d47 5ebc
00000170: e66e f83c d94d 30bc 9da2 1cbd 3129 13bd
00000180: 5e12 b8bb cabb ec3d d024 9cbb 29fd a83d
00000190: c19c b8bc b104 833d 4ab2 2d3c 46ae 323d
000001a0: 46cf b23d 5f51 a5bd 732f 233d 03cd a03b
000001b0: a27a 60bc 8964 7c3d 68e9 013d 51fd 533c
000001c0: c4d2 24bd d406 f3bc 3978 ab3d dae3 273d
000001d0: 35ff 703d a9c8 5abd 4049 b5bd 28e0 74bd
000001e0: 9778 b33d 9aaf 30bd 0915 e6bb 89ae 933d
000001f0: 3e5b 3dbd b4ce 2d3c af04 c73c 6ff4 843c
00000200: 1f80 debc 91e3 61bd 15bd a3bd 5e89 02be
00000210: e581 b0bb 3339 493d c818 2e3d c55a f43d
00000220: b34b 1ebd ac44 dfbb 3264 52bc 80cd 89bd
00000230: 55a8 903b 0284 ebbb 1c18 bc3d c988 55bc
00000240: 3ded cd3c 5941 6f3d f9ec b03d 5847 9a3c
00000250: da22 783d b64b 873c c2b5 1d3a ca17 18bc
00000260: bf22 853d f052 753d 5a92 4ebc 5a27 81bc
00000270: f981 a7ba 9fdc 7d3d 54fb 093c 393e 8ebd
00000280: 2acb d7bc 1f8a b43c 2bcf b43b fa69 83bd
00000290: ec2b cabd e2f5 6b3c 26ec e33d a5ab 3abc
000002a0: bf0a bfbd f0d0 96bd 0998 acbd 0c28 843a
000002b0: da68 e43c 3b54 6c3d 7251 cfbd eec3 b8bd
000002c0: 0684 1fbd 7a12 04bd b67c b9bd e2e0 b0bd
000002d0: b7b0 3c3d 9349 7bbc 210b ddbc 7689 563c
000002e0: 747e c93d 30ea 273d bed0 c2bd cb3c 8cbc
000002f0: 0ba9 2fbc 23cf b73c a7c7 713d 25bd abbc
00000300: 7896 6dbc c286 1c3d e3fb dc3c c83e 81bd
00000310: 7f55 57bd 8ff5 aebb 55e0 2b3d be69 303d
00000320: 7243 ffbc 8b2b a03d f7fe f1bc 1b57 30bd
00000330: ecca e0bc 71b0 33bd 4661 74bd 98b5 8b3d
00000340: cba8 0a3d 8fd8 953c ed26 60bd 57b3 a6bc
00000350: 0b73 8cbc fed3 1d3c 7d73 8aba a683 4ebd
00000360: c69a da3b 2c21 283c 4ec9 cabc 56cb 333d
00000370: b415 5fbc 4889 f4bc 721d 023d a4c9 c2bc
00000380: 3d5a bdbd 96f2 86bc 04f9 8ebd 0618 4ebd
00000390: d081 57bd 0bc9 33bd a84d ef3c 6fa4 b8bc
000003a0: 4ad3 b93d 5d6d 293d 1549 ee3c 1c57 b2bd
000003b0: 8687 a7bc 465c ea3d 5a1c ab3d c06e eb3c
000003c0: cbd5 e03c b5ae 913d 0f41 f73c a7b2 3c3c
000003d0: 6091 653d c8f0 73bd edc6 9abd ca7c bd3d
000003e0: e541 833d e5d1 e2bc 25d4 8e3d 7364 85ba
000003f0: 4715 46bd 1381 dabd 4bfe 9cbd 8e14 6f3d

a2c_network.actor_mlp.2.bias f4 [128]
-0.012878578 -0.089861974 0.025265453 -0.016846308 -0.078389764 0.022987628 -0.007077559 -0.07475396
-0.014635015 -0.026838988 -0.010439718 -0.022151913 -0.078919396 0.0015856461 -0.049602285 -0.027566275
-0.05647676 0.030473394 0.012813715 -0.093683295 0.028061872 0.07507661 0.020605903 -0.025605816
0.030229699 -0.022212002 -0.04206287 0.017034495 0.04071406 -0.010755668 0.032035574 -0.08166773
-0.027963724 0.05052556 0.01646376 -0.045276757 -0.04447536 -0.057829943 0.08196978 0.018642405
0.007959101 -0.10348643 0.019648816 -0.04661112 -0.059730347 0.016794821 -0.06534988 0.0024195595
-0.038296707 0.0011069415 -0.013175776 0.010117478 0.021640051 -0.027409298 -0.0018065473 -0.070401885
-0.023560213 -0.013677402 -0.03677829 0.030357737 -0.002951379 0.021070966 -0.037622795 0.055562776
0.022285571 -0.05211891 -0.007674128 -0.014874906 0.007285497 -0.006229025 0.008174493 -0.025135333
0.039528556 -0.02387842 -0.101184025 0.018064931 0.0152149545 -0.05105756 -0.001718441 -0.032721113
-0.016787717 -0.033799533 0.0068025836 -0.007279168 -0.055719517 -0.05879246 0.0108516915 -0.052638263
0.022474362 -0.058152646 -0.0033601613 0.032666817 -0.016210498 -0.015927903 -0.0008352639 -0.05007206
0.032412067 -0.010523986 -0.033449557 -0.045533117 0.013008346 0.0017029863 -0.008391064 0.01754021
-0.007580107 -0.051346287 0.064542726 -0.013336031 -0.029096222 -0.0016981893 -0.030886702 -0.0029216083
-0.016408436 -0.0034477056 -0.07494342 -0.03892082 0.006363852 -0.065545246 0.01103469 0.0266296
-0.046948683 0.041019317 -0.018438496 0.07432557 -0.027672233 0.04532035 0.03991057 0.013430632
00000000: ac00 53bc 8e09 b8bd 7ff9 ce3c 4501 8abc
00000010: d08a a0bd 8d50 bc3c deea e7bb 9b18 99bd
00000020: b4c7 6fbc 70dd dbbc 5a0b 2bbc ee77 b5bc
00000030: 7ea0 a1bd 74d5 cf3a c42b 4bbd abd2 e1bc
00000040: 2d54 67bd 57a3 f93c 9ef0 513c 07dd bfbd
00000050: 03e2 e53c c4c1 993d b6cd a83c 4ac3 d1bc
00000060: 46a4 f73c f2f5 b5bc 1e4a 2cbd ed8b 8b3c
00000070: c9c3 263d 8b38 30bc bc37 033d 6941 a7bd
00000080: 2e14 e5bc e4f3 4e3d 02df 863c 1f74 39bd
00000090: cc2b 36bd 17df 6cbd c6df a73d f5b7 983c
000000a0: e466 023c b2f0 d3bd 8ef6 a03c 4deb 3ebd
000000b0: cfa7 74bd 4b95 893c 28d6 85bd 7991 1e3b
000000c0: 02dd 1cbd cb16 913a 36df 57bc c7c3 253c
000000d0: 7a46 b13c 7789 e0bc abc9 ecba dd2e 90bd
000000e0: 5901 c1bc 2f17 60bc d5a4 16bd cab0 f83c
000000f0: ec6b 41bb 059d ac3c 5c1a 1abd cb95 633d
00000100: 3b90 b63c a37a 55bd 4077 fbbb e1b5 73bc
00000110: 2ebb ee3b d91c ccbb 4fee 053c 9de8 cdbc
00000120: b2e8 213d ad9c c3bc 9239 cfbd e8fc 933c
00000130: 2548 793c bb21 51bd 503d e1ba 9306 06bd
00000140: 6586 89bc 6171 0abd 35e8 de3b 1686 eebb
00000150: 263a 64bd 5dd0 70bd 4bcb 313c 389b 57bd
00000160: 271c b83c 7831 6ebd 2736 5cbb a4cd 053d
00000170: e1cb 84bc 3c7b 82bc 9df5 5aba 5c18 4dbd
00000180: 84c2 043d cc6c 2cbc 6702 09bd ef80 3abd
00000190: f520 553c bd36 df3a ac7a 09bc 7db0 8f3c
000001a0: 8c62 f8bb 7c50 52bd fa2e 843d 5e7f 5abc
000001b0: 335b eebc c795 deba 1c06 fdbc 7478 3fbb
000001c0: fc6a 86bc e7f2 61bb f07b 99bd 706b 1fbd
000001d0: dc87 d03b 963c 86bd d8ca 343c 5226 da3c
000001e0: 434d 40bd df03 283d 540c 97bc 0138 983d
000001f0: e1b0 e2bc d5a1 393d 4479 233d 270c 5c3c

a2c_network.actor_mlp.4.weight f4 [64, 128]
0.08282678 0.067122795 0.043632217 -0.14431532 -0.024240822 0.007890967 -0.07884788 0.08332252
-0.122057125 0.04454872 0.033502474 -0.111295134 -0.03723835 0.035388697 -0.07055498 0.1357097
-0.0732483 -0.061928667 -0.039895058 -0.13534881 0.09393165 0.058803402 -0.04606643 0.06686506
-0.108234465 -0.032576725 -0.035241053 0.059209384 0.028980048 -0.040006794 0.08408206 -0.071205966
0.110688634 0.02297538 -0.10360434 -0.18330546 0.05363381 -0.0824371 -0.109649576 0.038517736
0.15730533 0.07244951 0.044607695 -0.019697934 -0.00881783 0.06421404 0.050593536 0.008209478
-0.024516504 0.11667157 -0.023900544 -0.09247013 -0.09381477 0.083043605 -0.08700771 0.08141017
-0.041641627 -0.07719601 -0.04750095 -0.10357455 0.038733207 -0.0805024 0.01372007 0.03848593
0.11573849 0.0353848 0.07385092 -0.027154986 0.020510754 -0.022721495 -0.012695928 -0.09645684
-0.008725561 -0.03398908 -0.092327185 -0.064749725 0.06639557 -0.07063908 0.17295021 -0.07498943
0.07193834 -0.060966685 -0.059682775 -0.04103731 0.010166938 -0.02030368 0.061780415 -0.11263202
0.12726586 -0.024957743 -0.048909575 0.051556196 -0.0409391 0.15975544 0.07008489 -0.03302089
0.05823583 -0.021551333 0.003247123 -0.09965834 -0.012757301 -0.15351295 0.097554326 0.06479638
-0.03875371 -0.071291454 -0.015337768 0.027121596 -0.10792903 -0.039809555 -0.038918093 0.025270374
0.020957993 -0.024311107 0.061274678 -0.10141922 0.018423047 0.047536135 -0.03445524 0.014926146
0.13900729 0.09461705 0.041136567 -0.024922868 0.13635257 0.0063771848 0.06651359 -0.020615827
0.013527649 0.04579928 -0.04520208 0.15304191 -0.045826584 -0.027953483 0.015381584 -0.03142787
0.053081624 0.07996875 0.15029557 0.028645031 0.0039830282 -0.023506537 -0.0893489 -0.06545689
0.1343501 -0.09807412 0.036889628 -0.0802355 -0.020064445 -0.05930632 -0.026388617 -0.023404729
-0.07761089 -0.014164984 -0.026894495 0.022687731 0.010299646 0.032499205 -0.080044866 -0.0012491727
-0.04705805 -0.077830814 -0.031652972 -0.0867105 0.07627271 0.08461047 0.037314594 0.024181781
-0.08703245 0.03637783 -0.06151023 0.09980296 -0.060228635 -0.074773245 -0.00558406 0.05482291
0.13293938 -0.055649284 0.004756802 -0.06680694 0.009188848 -0.08711288 0.05439717 0.08741096
0.0098693 -0.09822009 0.032918382 0.065707244 0.071854234 0.07383292 -0.044988498 0.08286051
-0.16209754 0.06781355 -0.05205912 0.10684513 0.087843224 0.042604215 -0.05771655 0.11847021
0.044800967 0.054808285 -0.04191358 0.057496123 0.08112141 0.16432789 -0.00809633 0.12141237
0.061519835 -0.08461312 0.11173013 -0.017719243 -0.02183277 -0.07476211 0.03547005 0.055690493
-0.053495634 -0.10278524 0.102122806 0.000974634 -0.046360858 -0.046862803 -0.0908823 0.12568787
0.014463366 0.117366396 -0.049678527 0.1755024 0.024016358 -0.027843172 0.05196443 -0.0080159
-0.05360788 0.10615344 -0.027930768 0.039269853 -0.015231598 0.095310375 0.01212507 -0.056494296
0.070509516 -0.008714285 -0.17435965 -0.048693415 0.030569382 -0.052841544 0.08198153 0.08550034
-0.12466594 0.098280355 -0.08850801 -0.10377739 -0.062044248 -0.071225375 0.023472017 0.099902585
00000000: 16a1 a93d ad77 893d b2b7 323d 65c7 13be
00000010: b094 c6bc 1d49 013c ff7a a1bd ffa4 aa3d
00000020: 16f9 f9bd b878 363d e439 093d b4ee e3bd
00000030: 3d87 18bd bdf3 103d 217f 90bd 7cf7 0a3e
00000040: 3403 96bd eaa8 7dbd 0069 23bd e198 0abe
00000050: 3d5f c03d d6db 703d 27b0 3cbd 8cf0 883d
00000060: 08aa ddbd 2c6f 05bd ec58 10bd 8a85 723d
00000070: 9167 ed3c 2ade 23bd 3733 ac3d 6fd4 91bd
00000080: b9b0 e23d dd36 bc3c 832e d4bd 6db4 3bbe
00000090: 20af 5b3d c8d4 a8bd f58f e0bd c6c4 1d3d
000000a0: a614 213e 6960 943d 8fb6 363d 905d a1bc
000000b0: a978 10bc a782 833d 2b3b 4f3d 0c81 063c
000000c0: d6d6 c8bc 81f1 ee3d 13cb c3bc fb60 bdbd
000000d0: f521 c0bd c412 aa3d 1931 b2bd 60ba a63d
000000e0: 6990 2abd f118 9ebd 5b90 42bd e51e d4bd
000000f0: b6a6 1e3d 71de a4bd 25ca 603c 6ca3 1d3d
00000100: 4d08 ed3d a7ef 103d 273f 973d 2274 debc
00000110: 2b06 a83c 6e22 babc 9502 50bc 2a8b c5bd
00000120: a8f5 0ebc 2238 0bbd 0916 bdbd 819b 84bd
00000130: 67fa 873d 39ab 90bd dc19 313e 0f94 99bd
00000140: 6954 933d 34b8 79bd ed75 74bd bd16 28bd
00000150: 3b93 263c e753 a6bc 760d 7d3d 9eab e6bd
00000160: fb51 023e 2e74 ccbc 6855 48bd 972c 533d
00000170: c2af 27bd ee96 233e ab88 8f3d ea40 07bd
00000180: b288 6e3d 6c8c b0bc afcd 543b ac19 ccbd
00000190: 0004 51bc 8032 1dbe 90ca c73d f7b3 843d
000001a0: 36bc 1ebd 4101 92bd 434b 7bbc 1c2e de3c
000001b0: e509 ddbd 580f 23bd 9468 1fbd d103 cf3c
000001c0: 19b0 ab3c 1628 c7bc 28fb 7a3d e1b4 cfbd
000001d0: eeeb 963c 40b5 423d f020 0dbd cb8c 743c
000001e0: ed57 0e3e 95c6 c13d d17e 283d 0b2b ccbc
000001f0: 02a0 0b3e b4f7 d03b 4738 883d 86e2 a8bc
00000200: 13a3 5d3c 0798 3b3d d125 39bd 05b7 1c3e
00000210: a8b4 3bbd b4fe e4bc 0a03 7c3c 83ba 00bd
00000220: 1e6c 593d a8c6 a33d 15e7 193e fca8 ea3c
00000230: 1084 823b c890 c0bc 8efc b6bd 430e 86bd
00000240: 1393 093e 16db c8bd 9419 173d 8352 a4bd
00000250: 315e a4bc 2feb 72bd f12c d8bc 46bb bfbc
00000260: 75f2 9ebd 4014 68bc d851 dcbc 9fdb b93c
00000270: d9bf 283c e31d 053d 90ee a3bd 48bb a3ba
00000280: f1bf 40bd c365 9fbd 8ca6 01bd 4695 b1bd
00000290: de34 9c3d 4148 ad3d 30d7 183d df18 c63c
000002a0: 123e b2bd eb00 153d 27f2 7bbd 7f65 cc3d
000002b0: 4db2 76bd b722 99bd 7efa b6bb fd8d 603d
000002c0: 4321 083e 81f0 63bd f3de 9b3b 14d2 88bd
000002d0: d28c 163c 3d68 b2bd 91cf 5e3d 8404 b33d
000002e0: d8b2 213c 9d27 c9bd 6dd5 063d 8591 863d
000002f0: 5028 933d b735 973d dc45 38bd c5b2 a93d
00000300: e6fc 25be d5e1 8a3d f23b 55bd 9fd1 da3d
00000310: 26e7 b33d c281 2e3d 3068 6cbd 82a0 f23d
00000320: 3881 373d a77e 603d 93ad 2bbd 0e81 6b3d
00000330: fb22 a63d 9245 283e 78a6 04bc 0ca7 f83d
00000340: 39fc 7b3d a549 adbd c4d2 e43d f227 91bc
00000350: a3da b2bc e11c 99bd 0b49 113d b71b 643d
00000360: 3d1e 5bbd 1181 d2bd c325 d13d 957e 7f3a
00000370: e2e4 3dbd 36f3 3fbd 8020 babd 52b4 003e
00000380: c1f7 6c3c cb5d f03d b67b 4bbd e7b6 333e
00000390: f4bd c43c 5d17 e4bc a7d8 543d 1f55 03bc
000003a0: f093 5bbd fa66 d93d 11cf e4bc 6dd9 203d
000003b0: f48d 79bc 1632 c33d 3ba8 463c 9066 67bd
000003c0: 4b67 903d 5cc6 0ebc 568b 32be bf72 47bd
000003d0: a46c fa3c 6070 58bd efe5 a73d cd1a af3d
000003e0: db50 ffbd 3647 c93d b043 b5bd 3e89 d4bd
000003f0: 1c22 7ebd 9cde 91bd 6348 c03c ba99 cc3d

a2c_network.actor_mlp.4.bias f4 [64]
0.028447118 0.019800058 0.015822172 0.017791634 -0.06343834 -0.05413697 -0.051323 -0.08716958
-0.031189375 0.009229006 -0.016196478 -0.022844825 0.062050465 0.009762166 -0.022603225 0.016916862
-0.053279713 0.020573698 0.017258147 0.09569367 -0.032181986 0.020642476 -0.0141013665 -0.038882762
-0.035752997 -0.023899537 0.029397853 0.01729223 -0.06094869 -0.015280785 -0.028967388 -0.045465488
0.07570546 -0.06252037 0.010195804 -0.024626588 0.027090508 0.013373662 0.0012270405 0.009712747
0.0114513235 -0.029352032 -0.023200497 -0.07605262 0.018380815 -0.06231058 -0.0021751127 -0.013146847
-0.012759052 -0.012721348 0.03308295 -0.04716063 -0.01931375 0.0037281346 0.03918195 -0.02395754
0.0017994269 -0.013156174 -0.010254029 0.083592646 0.011969304 0.034641907 0.109766856 -0.06341626
00000000: ee09 e93c bb33 a23c 809d 813c c3bf 913c
00000010: f6eb 81bd babe 5dbd 1138 52bd f785 b2bd
00000020: dc80 ffbc 4235 173c 7aae 84bc 1225 bbbc
00000030: a128 7e3d 7ef1 1f3c 662a b9bc 3b95 8a3c
00000040: d43b 5abd 2c8a a83c f560 8d3c 0bfb c33d
00000050: 42d1 03bd 691a a93c 6b09 67bc 8843 1fbd
00000060: bc71 12bd f6c8 c3bc c4d3 f03c 6fa8 8d3c
00000070: 55a5 79bd 425c 7abc 044d edbc 053a 3abd
00000080: 770b 9b3d ae0a 80bd 4d0c 273c b3bd c9bc
00000090: eaec dd3c 341d 5b3c a6d4 a03a 3722 1f3c
000000a0: 559e 3b3c ac73 f0bc f80e bebc 7ac1 9bbd
000000b0: 5d93 963c 6139 7fbd 568c 0ebb df65 57bc
000000c0: 580b 51bc 336d 50bc fd81 073d 812b 41bd
000000d0: df37 9ebc b853 743b 417d 203d 9a42 c4bc
000000e0: bfda eb3a fe8c 57bc 8400 28bc 9f32 ab3d
000000f0: e61a 443c ace4 0d3d 72cd e03d 62e0 81bd

a2c_network.value.weight f4 [1, 64]
0.009582115 0.034112573 0.1356923 0.026828185 -0.07816759 0.020053685 0.020638425 0.006349695
0.025989959 -0.027280333 -0.058956448 0.09447918 0.033478312 -0.047456983 -0.013457838 0.03755156
0.033474315 0.0025779016 0.040488716 -0.008534785 -0.06422573 0.15087935 0.13616252 0.11124165
-0.0019378773 -0.07524724 0.028891852 0.06175146 0.013608347 -0.016377348 -0.10235009 -0.076041654
0.0041991635 -0.03670568 -0.00563285 0.12703109 0.058122218 -0.03699443 -0.06388575 0.021239122
0.083496176 -0.08811313 -0.00875287 -0.04089579 0.017803343 -0.06291382 0.1229735 0.12496988
-0.06177169 -0.09303561 0.0237591 0.11149092 0.037028175 0.005048204 0.13155937 -0.098834105
0.093524076 -0.048581596 0.023499956 0.00080556056 0.010374473 0.02109897 0.02035602 0.03494189
00000000: 4efe 1c3c a0b9 0b3d ecf2 0a3e c8c6 db3c
00000010: 5416 a0bd a047 a43c ea11 a93c 1a11 d03b
00000020: e5e8 d43c 017b dfbc 517c 71bd 4d7e c13d
00000030: 8e20 093d 4162 42bd 447e 5cbc aacf 193d
00000040: 5d1c 093d 03f2 283b 7fd7 253d 7cd5 0bbc
00000050: c888 83bd 1e80 1a3e 306e 0b3e aad2 e33d
00000060: 5f00 feba 3a1b 9abd 9bae ec3c 19ef 7c3d
00000070: 8bf5 5e3c ca29 86bc ed9c d1bd babb 9bbd
00000080: 2399 893b b258 16bd c593 b8bb 7014 023e
00000090: 9011 6e3d 7987 17bd 88d6 82bd abfd ad3c
000000a0: 0b00 ab3d a874 b4bd 3368 0fbc 5882 27bd
000000b0: 51d8 913c f6d8 80bd 88d9 fb3d 35f0 ff3d
000000c0: 5004 7dbd 7489 bebd 72a2 c23c 5a55 e43d
000000d0: dbaa 173d 686b a53b 80b7 063e 8969 cabd
000000e0: 8d89 bf3d 7ffd 46bd fb82 c03c 412c 533a
000000f0: b2f9 293c bfd7 ac3c abc1 a63c 3a1f 0f3d

a2c_network.mu.weight f4 [8, 64]
0.11678679 -0.17564286 -0.16139291 -0.06312186 0.052668422 -0.18707593 0.12590428 -0.08124041
-0.1304249 0.051582027 0.13492699 -0.13144578 0.13979347 -0.19098401 0.025366157 -0.049631126
-0.023765242 -0.009309259 -0.1183444 -0.11038082 0.012668634 -0.046529904 -0.060741004 -0.06542435
0.08650747 -0.03462594 0.080862865 0.20701034 -0.023559697 -0.08102092 -0.13895482 0.14274147
-0.06161096 0.0050397757 0.05871941 0.122684985 0.047458418 -0.0682154 0.14553669 -0.10068016
0.04661923 0.034448933 0.0065414794 0.124020666 -0.17970613 0.0022779107 0.032424327 0.0815965
-0.19129787 0.05746932 0.15578935 -0.080384836 -0.18019517 -0.026626429 0.00876464 -0.10738593
-0.004712689 -0.17127922 -0.15080604 0.081703834 0.07919285 -0.02907006 0.12339679 0.1094108
-0.056011964 -0.017321125 -0.14381592 -0.12952219 -0.022762861 -0.043201465 0.057929352 0.07658984
-0.0355504 0.12654059 -0.053394016 -0.022171356 -0.13014871 -0.23099495 0.042866245 0.11682275
0.14099038 -0.028378656 -0.030048525 -0.21567617 -0.10153506 0.17843144 -0.01857636 -0.08087057
0.011869552 -0.059537075 0.10295778 -0.024881989 -0.1061834 0.00858115 0.040543742 -2.8857557e-05
-0.028910289 -0.014436115 -0.0806275 -0.07311127 -0.009569676 -0.080923304 -0.067439206 -0.07710116
-0.07471065 0.08303616 0.07261128 0.030115118 0.055867843 -0.043702036 0.08433426 -0.12412403
0.122604914 0.11353158 -0.027929468 0.18636602 -0.07988094 0.03906114 -0.042110067 -0.11235651
-0.040282555 0.016087396 -0.055460628 -0.16603145 0.016686764 -0.14732544 -0.1080782 -0.09255683
-0.11765986 -0.06999125 -0.047997057 -0.18447803 0.03791261 -0.017903756 0.07593692 0.14146343
0.16941115 0.054076843 0.11315985 0.09221346 -0.21830568 -0.053710934 0.058085937 0.06033612
0.19978221 -0.001672101 -0.073952556 0.15637504 -0.014894952 -0.019299364 0.12533069 0.06458444
-0.095528804 -0.027134135 -0.111963145 -0.047148578 0.009840038 -0.040591117 -0.05433487 0.087951
-0.15867454 0.12776476 -0.029876214 0.07578837 0.0044394615 0.15256657 -0.18597676 0.035680458
0.12947215 -0.05194403 0.2413184 -0.016754808 -0.1313706 -0.062107883 -0.088868275 0.1573519
-0.056418728 0.105866045 -0.034646176 0.08025524 0.15915968 -0.041057564 -0.13093813 0.12579784
-0.035040412 -0.0847425 -0.15326932 -0.11695068 -0.121096626 -0.102788635 0.117740646 -0.0891965
-0.017035427 -0.027073525 -0.06280731 0.13538061 0.102027394 0.11779641 0.12771198 0.17932877
0.07232493 -0.111993544 0.18627834 0.048080564 -0.034030523 0.028954616 0.05262351 -0.08725471
0.0046137557 -0.02312069 0.013143283 -0.077839136 0.06222195 -0.1251506 -0.03642562 0.12603036
0.028288167 -0.0440275 0.036705043 -0.025164664 0.28019 0.08158555 0.050336275 0.107850544
-0.043008577 0.10910427 -0.020988585 0.10501571 -0.15012684 -0.121664464 -0.009943158 0.012564713
-0.071122214 -0.00077262043 0.00087061286 0.02945524 0.06223653 0.091396846 0.052753977 0.0012808662
0.02634761 -0.09057303 -0.14390138 0.04593081 0.02856441 -0.01772923 -0.07583193 -0.03438533
-0.019517612 0.045611914 0.080635004 -0.15145664 0.002705624 -0.034780983 -0.20057608 0.08895584
00000000: ea2d ef3d b9db 33be 2f44 25be 0946 81bd
00000010: d8ba 573d d590 3fbe 0ded 003e 5f61 a6bd
00000020: 1b8e 05be ad47 533d 4d2a 0a3e b999 06be
00000030: 0526 0f3e 5091 43be b0cc cf3c 024a 4bbd
00000040: 53af c2bc dd85 18bc 8c5e f2bd 570f e2bd
00000050: 1a90 4f3c 2496 3ebd 8fcb 78bd 34fd 85bd
00000060: d42a b13d eed3 0dbd 6e9b a53d 85fa 533e
00000070: 4400 c1bc 4cee a5bd 2c4a 0ebe d22a 123e
00000080: c65b 7cbd b424 a53b c483 703d 4442 fb3d
00000090: c263 423d 84b4 8bbd 9207 153e 6631 cebd
000000a0: cef3 3e3d 531a 0d3d e859 d63b 8cfe fd3d
000000b0: e204 38be 0049 153b 5fcf 043d 111c a73d
000000c0: 97e3 43be f364 6b3d 3e87 1f3e cea0 a4bd
000000d0: 1585 38be ab1f dabc 9199 0f3c 28ed dbbd
000000e0: e76c 9abb d263 2fbe e66c 1abe 5754 a73d
000000f0: dc2f a23d 5624 eebc 75b7 fc3d c512 e03d
00000100: cd6c 65bd 08e5 8dbc 7b44 13be 77a1 04be
00000110: 2e79 babc 05f4 30bd 5447 6d3d 22db 9c3d
00000120: 4c9d 11bd db93 013e afb3 5abd b4a0 b5bc
00000130: b445 05be f189 6cbe 8494 2f3d c440 ef3d
00000140: c85f 103e 5b7a e8bc 5328 f6bc 37da 5cbe
00000150: 9df1 cfbd bbb6 363e 732d 98bc 789f a5bd
00000160: 8278 423c 26dd 73bd 87db d23d 50d5 cbbc
00000170: af76 d9bd f497 0c3c 3211 263d 2213 f2b7
00000180: 45d5 ecbc 7485 6cbc 0820 a5bd 5dbb 95bd
00000190: 21ca 1cbc 1ebb a5bd 911d 8abd 37e7 9dbd
000001a0: e601 99bd dd0e aa3d 39b5 943d fbb3 f63c
000001b0: aed5 643d e800 33bd 71b7 ac3d bd34 febd
000001c0: 4918 fb3d 3f83 e83d 57cc e4bc bcd6 3e3e
000001d0: 9e98 a3bd 93fe 1f3d 9b7b 2cbd 2b1b e6bd
000001e0: 52ff 24bd b7c9 833c af2a 63bd 2604 2abe
000001f0: aeb2 883c 7bdc 16be 1a58 ddbd 6f8e bdbd
00000200: a7f7 f0bd 9357 8fbd 9098 44bd cfe7 3cbe
00000210: 414a 1b3d e6aa 92bc d184 9b3d cadb 103e
00000220: 1e7a 2d3e ae7f 5d3d 5ac0 e73d 69da bc3d
00000230: 868b 5fbe ffff 5bbd 85eb 6d3d 0223 773d
00000240: b593 4c3e 662a dbba 7074 97bd c720 203e
00000250: f509 74bc b319 9ebc b056 003e d944 843d
00000260: 9ba4 c3bd 6848 debc ef4c e5bd de1e 41bd
00000270: 1c38 213c df42 26bd 3e8e 5ebd a71f b43d
00000280: 947b 22be c4d4 023e f6be f4bc ef36 9b3d
00000290: e778 913b 693a 1c3e b170 3ebe ac25 123d
000002a0: 5994 043e 43c3 54bd 2c1c 773e 6141 89bc
000002b0: 0486 06be d664 7ebd 9200 b6bd db20 213e
000002c0: 5317 67bd 4cd0 d83d 26e9 0dbd dc5c a43d
000002d0: c1fa 223e fa2b 28bd a514 06be 26d1 003e
000002e0: 8986 0fbd 7a8d adbd a2f2 1cbe d783 efbd
000002f0: 8201 f8bd d982 d2bd 0222 f13d a8ac b6bd
00000300: e18d 8bbc 4cc9 ddbc 1ea1 80bd 37a1 0a3e
00000310: bdf3 d03d 3f3f f13d eec6 023e f6a1 373e
00000320: 181f 943d df5c e5bd c0bf 3e3e 20f0 443d
00000330: 9763 0bbd 3b32 ed3c c08b 573d 99b2 b2bd
00000340: fd2e 973b 9a67 bdbc ed56 573c 206a 9fbd
00000350: 72dc 7e3d 7b27 00be 0833 15bd 1a0e 013e
00000360: 96bc e73c 2e56 34bd 0758 163d 2026 cebc
00000370: 1075 8f3e 5316 a73d 692d 4e3d bfe0 dc3d
00000380: c329 30bd 0f72 df3d 41f0 abbc 7a12 d73d
00000390: daba 19be 382b f9bd a1e8 22bc 3adc 4d3c
000003a0: 86a8 91bd ae89 4aba d739 643a 1e4c f13c
000003b0: bbeb 7e3d 452e bb3d 8e14 583d bde2 a73a
000003c0: f1d6 d73c 5a7e b9bd e25a 13be f221 3c3d
000003d0: e9ff e93c e43c 91bc c54d 9bbd a2d7 0cbd
000003e0: 66e3 9fbc 8fd3 3a3d f723 a53d 7317 1bbe
000003f0: d750 313b 8176 0ebd d163 4dbe 7b2e b63d

a2c_network.mu.bias f4 [8]
0.04240163 -0.03491427 -0.029945988 -0.09655012 -0.021469986 -0.016999891 -0.016733645 -0.052377123
00000000: 55ad 2d3d 4402 0fbd 4a51 f5bc 12bc c5bd
00000010: d3e1 afbc 5b43 8bbc ff14 89bc 6589 56bd

exp_avg f4 [8]
0.005394449 0.0026510553 0.0015911317 -4.6647587e-05 0.0018679162 0.0060985405 0.0067949574 0.0038064192
00000000: ebc3 b03b 54bd 2d3b 858d d03a 77a7 43b8
00000010: ded4 f43a 44d6 c73b 3ca8 de3b 1e75 793b

exp_avg_sq f4 [8]
7.6810225e-05 6.4113134e-05 6.162748e-05 7.2327864e-05 7.6658005e-05 8.233591e-05 0.00012558236 7.262643e-05
00000000: 2d15 a138 7a74 8638 003e 8138 baae 9738
00000010: 74c3 a038 c1ab ac38 c2ae 0339 054f 9838

exp_avg f4 [256, 36]
-0.00047411848 -0.00058105343 0.0002365357 0.00047693987 0.00032850963 -4.993119e-06 -0.00040330595 0.00017650257
6.519544e-05 -0.0001773717 8.8624394e-05 0.00017639018 0.00018097792 -0.0009227729 -0.0005721426 0.00019561873
0.0004004874 0.00041023476 0.000549214 -0.00080323964 -0.00034232403 0.0005117615 0.0006345001 0.00022271753
-0.00029537655 -0.00034021176 0.00043022534 0.00010142813 0.00019997315 0.00029172926 0.000280149 3.0565858e-05
-0.0005224668 -0.00023641858 -0.00023855105 0.0005200718 -0.00028426683 -0.00040099357 0.0013334469 0.0014875449
-0.00061404967 0.00026121165 -0.0007428575 -0.00045931057 9.330673e-05 0.0004602488 -3.9487284e-05 -0.00019926342
7.0963135e-05 0.00055679126 0.00039761665 -0.00044632764 -0.0006407495 -0.00048445363 0.00021505183 0.00063361676
0.00036427923 0.00039277034 0.00037884593 0.00062614965 -0.00040584296 2.5928925e-05 -0.0007238706 0.00013739555
0.00019026121 -0.00020017702 0.00023499764 -0.0008688038 -0.00018783892 -5.2063882e-05 -0.0002592392 0.00025567538
0.00024794452 0.00043973431 0.00053608493 -0.0003634358 0.00010820773 0.00012449661 1.9131414e-05 -0.00029409444
-8.714237e-05 0.00029857253 0.00025685126 0.00017979053 -0.000729732 0.00037553674 0.0003631827 0.0010008011
-0.00037298826 5.3058295e-05 -9.393833e-05 0.00019075144 -6.180157e-05 2.79966e-06 1.0863578e-06 -0.0004899219
0.00018656017 2.3468954e-05 -0.00048666634 0.00020513518 -2.6545782e-05 1.4086906e-05 -1.908266e-06 0.00024549052
0.00050039403 0.00018434657 8.994498e-05 -0.0006143045 -0.0005857217 -0.0023959617 -0.00027141618 0.0018893594
-0.0009203653 -0.0008160611 0.0004596453 0.0002597822 -0.00045964099 -0.00026108668 -0.00023464201 -0.0006469629
0.0005064863 0.00037249795 -0.00030389946 -0.0012040595 -0.0012358075 0.00014999494 -0.00089687615 0.00025315178
0.0009094663 -0.00017011321 -0.00075719645 -0.00077215343 0.00047705832 0.00069852726 -0.00011661843 -0.0006906914
0.0005757944 -0.00062655384 -0.001406886 0.00093284313 0.00033324966 -0.00069033017 0.00017480743 0.00044678894
0.00012235489 0.00076251064 -4.1350672e-06 -0.00059254194 -0.00019630636 -0.0003864504 0.0005223007 0.00019152273
5.899805e-05 -0.000193076 5.8375434e-05 0.00020974549 -0.00030651773 9.461019e-05 0.00019264194 0.0001122857
0.00036196384 -0.0004668364 0.00030579168 0.00025102208 -0.00064767065 5.538959e-06 -0.00025023718 -0.0005366628
-9.628514e-05 0.00041650468 6.56474e-05 0.00016578501 -0.0006605154 0.000233393 0.00034104518 0.00031432923
-0.00023565002 4.422167e-05 0.00073947967 0.0005066487 0.001076921 0.0013482723 0.0002228737 -0.00011774674
0.0003718128 -8.875145e-05 0.00055771455 -0.00030118483 -0.00024309361 0.0002974231 0.00010982493 -1.5719155e-05
0.00043451806 0.0005407808 0.00031629132 -0.00062947004 7.3012154e-05 -0.00024460503 -0.00060259766 0.00062529906
0.0004785066 -0.0008531109 -0.00044134803 -0.00019817978 0.0006318153 -4.21658e-05 0.0006731575 -0.00042993366
-0.0002560452 -0.00054108916 -0.0002882995 -0.0006972558 0.0007507863 0.0004274804 0.0004179413 -0.0011676932
8.700887e-05 0.00034292656 0.00018878836 -0.0010909429 -0.0006003181 0.0006997599 -0.00054606586 0.00032873295
0.00017274641 -0.0003291387 0.00017775536 0.00045321404 -0.00046229947 -0.00066462735 0.000111511064 0.0012186208
0.00027285801 -0.00017593856 0.00062582 -0.0008726854 -0.0014563531 0.0008529542 0.0012587003 -0.0013638933
-0.0014162298 -0.00016261278 -0.00026768455 0.0014179681 -0.0002014386 0.0003897289 0.0008268696 6.602925e-05
-0.0007550339 0.00028571175 -9.95671e-05 0.0013690803 0.00029946625 -0.00026443368 0.0003398642 -0.0009299352
00000000: 1b93 f8b9 d651 18ba 9206 7839 c90d fa39
00000010: d13b ac39 918a a7b6 cf72 d3b9 8c13 3939
00000020: 89b9 8838 dafc 39b9 dcdb b938 61f5 3839
00000030: e4c4 3d39 3ee6 71ba d7fb 15ba 011f 4d39
00000040: 82f8 d139 c714 d739 21f9 0f3a 8090 52ba
00000050: f479 b3b9 bc27 063a 9554 263a 4889 6939
00000060: c5dc 9ab9 735e b2b9 de8f e139 d0b5 d438
00000070: e2af 5139 3df3 9839 f6e0 9239 d733 0038
00000080: 27f6 08ba 21e7 77b9 8f23 7ab9 6d55 083a
00000090: a609 95b9 723c d2b9 0ec7 ae3a b9f9 c23a
000000a0: 2df8 20ba 3cf3 8839 53bc 42ba 9fcf f0b9
000000b0: abad c338 8c4d f139 269f 25b8 5ef1 50b9
000000c0: 0bd2 9438 a1f5 113a 3477 d039 1501 eab9
000000d0: f9f7 27ba 44fe fdb9 897f 6139 4d19 263a
000000e0: bbfc be39 beec cd39 d79f c639 3124 243a
000000f0: 52c7 d4b9 f181 d937 22c2 3dba d611 1039
00000100: db80 4739 9ce6 51b9 b369 7639 70c0 63ba
00000110: a0f6 44b9 2b5f 5ab8 7fea 87b9 2b0c 8639
00000120: 8dfe 8139 248c e639 0d88 0c3a 878b beb9
00000130: 95ed e238 4e8b 0239 667c a037 b030 9ab9
00000140: 34c0 b6b8 ba89 9c39 fea9 8639 2786 3c39
00000150: 7c4b 3fba b0e3 c439 8f69 be39 502d 833a
00000160: a38d c3b9 e98a 5e38 c200 c5b8 7304 4839
00000170: 779b 81b8 cbe1 3b36 f8ce 9135 1a6e 00ba
00000180: 5d9f 4339 32df c437 4027 ffb9 8e19 5739
00000190: a2ae deb7 cd56 6c37 c30f 00b6 2eb5 8039
000001a0: e02c 033a 284d 4139 d8a0 bc38 4709 21ba
000001b0: 1e8b 19ba 9105 1dbb dd4c 8eb9 62a4 f73a
000001c0: ab44 71ba efec 55ba 8cfc f039 6033 8839
000001d0: f8fb f0b9 76e2 88b9 3c0a 76b9 f298 29ba
000001e0: b8c5 043a d44b c339 b254 9fb9 88d1 9dba
000001f0: d2fa a1ba f647 1d39 571c 6bba 75b9 8439
00000200: 4069 6e3a 6b60 32b9 987e 46ba 576a 4aba
00000210: af1d fa39 5f1d 373a 0b91 f4b8 840f 35ba
00000220: e8f0 163a 513f 24ba 4367 b8ba 0b8a 743a
00000230: 03b8 ae39 46f7 34ba 834c 3739 ff3e ea39
00000240: 644c 0039 39e3 473a f5bf 8ab6 d154 1bba
00000250: 96d7 4db9 7f9c cab9 02eb 083a 7ed3 4839
00000260: ac74 7738 7274 4ab9 25d8 7438 20ef 5b39
00000270: 1db4 a0b9 7669 c638 edff 4939 ed7a eb38
00000280: f7c5 bd39 b9c1 f4b9 aa52 a039 9d9b 8339
00000290: 71c8 29ba 4cdb b936 4432 83b9 d5ae 0cba
000002a0: b1ec c9b8 505e da39 2eac 8938 93d6 2d39
000002b0: 7026 2dba f5ba 7439 4fce b239 8ecc a439
000002c0: d218 77b9 a87a 3938 a4d9 413a 9ed0 043a
000002d0: 7927 8d3a 83b8 b03a 34b3 6939 cdee f6b8
000002e0: dfef c239 1220 bab8 9733 123a 58e8 9db9
000002f0: f2e6 7eb9 74ef 9b39 cf51 e638 a1dc 83b7
00000300: 07d0 e339 2fc3 0d3a e7d3 a539 0503 25ba
00000310: 1a1e 9938 553e 80b9 a5f7 1dba 1ceb 233a
00000320: 12e0 fa39 4ea3 5fba bb64 e7b9 7bce 4fb9
00000330: 68a0 253a 2fdb 30b8 d676 303a b868 e1b9
00000340: ce3d 86b9 e1d7 0dba e726 97b9 0bc8 36ba
00000350: 6ad0 443a 731f e039 221f db39 480d 99ba
00000360: 8878 b638 d3ca b339 7df5 4539 f8fd 8eba
00000370: aa5e 1dba 1870 373a dc25 0fba ca59 ac39
00000380: 4323 3539 4090 acb9 d763 3a39 5c9d ed39
00000390: c960 f2b9 633a 2eba 0cdb e938 21ba 9f3a
000003a0: 620e 8f39 267c 38b9 120e 243a edc4 64ba
000003b0: 1ae3 beba ca98 5f3a f9fa a43a aac4 b2ba
000003c0: c9a0 b9ba 0983 2ab9 0358 8cb9 1ddb b93a
000003d0: 4339 53b9 8754 cc39 48c2 583a 2f79 8a38
000003e0: 78ed 45ba 95cb 9539 aece d0b8 b672 b33a
000003f0: ae01 9d39 b0a3 8ab9 cd2f b239 e5c6 73ba
