assets/animals/ant_direct_policy.pth (torch, 630626 bytes, 36 tensors)

value_mean_std.running_mean f8 [1]
000000 81 89 9d da a4 6f 53 40
       77.74443688759312

value_mean_std.running_var f8 [1]
000000 37 04 d7 b4 61 c5 73 40
       316.3363541030007

value_mean_std.count f8 []
000000 00 00 00 08 00 a0 8d 41
       62128129.0

running_mean_std.running_mean f8 [36]
000000 36 6b d1 70 3f ac 9a 3f a0 a3 c8 12 b1 56 bf 3f
       0.026047698269717055 0.12241656025493208
000010 e4 fc e8 c0 1b d5 87 bf b5 d1 33 b9 0d 34 85 3f
       -0.01163694078888828 0.010353190626553802
000020 b5 d4 8b 25 a8 e7 be bf 8d 21 06 dc 85 9b a2 3f
       -0.12072230259566903 0.0363427954753802
000030 ba 27 ba 7e 52 a4 84 bf 03 ab 04 5e 9b 7e c3 3f
       -0.01007904481163623 0.15230123606428245
000040 28 d4 b6 58 7b 41 7f 3f db f0 de 0e 76 7f c3 bf
       0.0076308077072342675 -0.15232730604282704
000050 60 34 bc 06 87 b7 ef 3f 9b 35 30 be bc 2a ef 3f
       0.9911532527490969 0.9739669527640901
000060 27 b8 bf ff 04 b6 e9 bf 28 3c 13 92 82 d5 b0 bf
       -0.8034691805930877 -0.06575790468490139
000070 ef 02 ad 93 a8 0b ee bf 46 ad 8e 41 53 e2 e1 bf
       -0.9389231571477391 -0.5588775902191763
000080 fb e3 0d d6 9f 98 ca bf 2c 8d b5 a9 58 5e c8 bf
       -0.20778272582882082 -0.1903792217882282
000090 53 41 85 08 e5 72 c1 bf 04 18 fb 7b 15 88 d4 bf
       -0.13631880680123717 -0.3208059035063118
0000a0 7a 88 8e 4d 97 23 6f bf be 75 80 14 26 8a 2f 3f
       -0.0038011508117544142 0.00024062838406361907
0000b0 18 88 70 07 a4 46 73 3f 76 da c2 83 37 71 56 3f
       0.004706040133017474 0.001369766439024337
0000c0 ae 3a 1d 5c e1 79 8f 3f 1c 62 03 51 bc f3 70 3f
       0.01536918699608 0.004138694392360278
0000d0 ea a5 13 bc 9e e3 7b 3f c2 af 60 98 fa c9 8a 3f
       0.006808872277568304 0.013080556655118761
0000e0 76 a1 6e 17 69 a3 bd bf 89 e2 38 8e 2c 3d 80 bf
       -0.11577469656061176 -0.007929180231358817
0000f0 1a 65 72 d4 30 12 d3 bf fa fe 2c e6 bf d6 c2 bf
       -0.297985274760849 -0.14717863787699753
000100 59 d0 f6 38 a2 ec cd bf 6a f8 5a 0e 90 ac d1 bf
       -0.2337839868683911 -0.27615739251985494
000110 d9 9d c1 c9 81 ed d1 bf 2c 02 0a ee 37 76 cd bf
       -0.28012127592816466 -0.230170241575267

running_mean_std.running_var f8 [36]
000000 32 cd 57 d5 31 c6 c2 3e 61 cf e2 6b 5f b9 70 3f
       2.238058793174778e-06 0.0040830352210611
000010 b9 65 e3 17 c8 1e 54 3f c4 ea d0 10 4e 1a 51 3f
       0.0012280420337929933 0.0010438692436440114
000020 a5 0a e4 38 49 35 12 40 c2 2c a4 a5 82 ba 04 40
       4.5520371331391845 2.5910695019461807
000030 b3 e7 b7 5c e3 da f0 3f 9e b4 98 2d 98 51 98 3f
       1.0534394857227027 0.02374875810908305
000040 b4 24 8e 40 ff fc 85 3f bc 0c 6c 7b 9b 51 98 3f
       0.010736459882325945 0.02374880734261063
000050 a5 34 0b d1 4d 47 0e 3f 05 5b f5 a9 f6 03 6b 3f
       5.775171496722715e-05 0.003297788396291581
000060 c7 ee 41 83 b6 4e b4 3f 5f b1 47 92 c0 1e bd 3f
       0.0793260641530039 0.11375049182215012
000070 48 d3 cb 1f 9d 4f a3 3f 22 e2 a5 2b 8c ba be 3f
       0.03771677983414762 0.12003398957848124
000080 4a a9 cb 7f 77 e1 d3 3f 2a d3 3e dc 8a 3f cf 3f
       0.3106364009860455 0.24412666086359397
000090 8f 67 56 d1 7b a5 d1 3f 9d b0 6e 32 46 76 c8 3f
       0.2757253212272354 0.19110944235342667
0000a0 e9 da 74 f4 28 97 c5 3f c1 e1 16 ed cf 49 db 3f
       0.16867553650236936 0.4263801398588179
0000b0 07 6e 0d 18 6f a0 b0 3f 70 2e fb d0 6f 5a e1 3f
       0.06494802796571984 0.5422896463073368
0000c0 b8 f5 a0 6a 40 61 f9 3f e3 eb fc 8f c0 a0 f6 3f
       1.5862430730042956 1.414246141865754
0000d0 9f 29 ef d1 4c 7e f8 3f 0b c9 47 aa 7e e0 f0 3f
       1.5308349800639929 1.0548082973078319
0000e0 e8 f3 58 37 cd c9 cc 3f f8 86 e1 c4 4d ab d2 3f
       0.22490849688065784 0.2917055533090287
0000f0 4e 7b fa 23 a8 7b c7 3f 96 7b 8f c4 5a fe d0 3f
       0.18346120602378807 0.265524570420831
000100 61 62 77 04 78 94 d8 3f 4e c7 27 c7 62 b4 d1 3f
       0.3840618175141 0.27663487862365777
000110 f6 07 04 c3 6e 35 d2 3f f7 ff 32 fd 7e 92 d1 3f
       0.28451127094751827 0.2745664093636146

running_mean_std.count f8 []
000000 00 00 00 10 00 a0 7d 41
       31064065.0

a2c_network.sigma f4 [8]
000000 d4 bd cf bf 8e 32 d0 bf 6d 8a bf bf ad 8d cc bf
       -1.6229806 -1.6265428 -1.4964119 -1.5980736
000010 e3 99 da bf f8 87 e5 bf 9b c2 df bf 8d 42 dc bf
       -1.7078212 -1.7932119 -1.7481264 -1.720781

a2c_network.actor_mlp.0.weight f4 [256, 36]
000000 a0 9c 34 3d 75 6c 00 3e e0 16 74 3c fa 9f 66 bd
       0.04409468 0.12541373 0.014898032 -0.05630491
000010 63 d9 8c 3c 9b 53 bc bc ca 94 3b 3d 7c 80 20 3e
       0.017193502 -0.022989085 0.045796193 0.15674013
000020 6c 59 0b 3e 09 7a a5 bd 22 09 12 3e 18 16 75 3d
       0.1360833 -0.08079917 0.14261296 0.059835523
000030 d5 a4 57 3d 4e 37 c3 bd 4e 2b 40 be 28 a4 83 bd
       0.05264743 -0.09532033 -0.1876652 -0.06427795
000040 a6 ca cf bd 77 8d 0b 3e b4 a8 ef 3d cd 55 6e 3d
       -0.10146074 0.13628183 0.117020994 0.058187295
000050 d3 e3 48 3d 13 52 02 3c 2f 56 05 3e 1e b4 cd bd
       0.049045395 0.007954138 0.13021158 -0.1004412
000060 17 25 72 bc 68 79 f5 bd 69 da ac 3d 91 09 62 bd
       -0.014779351 -0.11986047 0.08440096 -0.055184904
000070 99 5d 23 3d 8c c2 c8 bc 9d ae 08 3e 5b 58 b0 bd
       0.039884184 -0.02450683 0.1334786 -0.086106025
000080 12 36 e5 bd 9c d4 d2 bd 7b 3d 26 3e f5 48 90 3d
       -0.11191954 -0.10294458 0.1623439 0.070451654
000090 33 84 3d 3e 96 7c 15 be af c5 15 be f6 02 ce bd
       0.18507461 -0.14598307 -0.14626192 -0.100591585
0000a0 17 db 18 be 98 38 80 3d 94 59 76 3d 34 3a 28 3e
       -0.14927326 0.062607944 0.060144022 0.16428453
0000b0 d0 11 fd bd 17 c3 0e be 62 60 ec 3d f4 c8 63 bd
       -0.12356913 -0.13941608 0.11541821 -0.055611566
0000c0 36 7d 87 3d 71 10 a1 bd 39 9f d5 3d 39 f2 48 be
       0.06615679 -0.07864464 0.1043076 -0.1962365
0000d0 dc 9d 8a bd 05 f0 6a 3d 7c f5 83 3d 22 80 23 bd
       -0.067683905 0.057357807 0.06443307 -0.03991712
0000e0 60 dc 01 3e d9 da f0 3d f0 e6 eb bd 31 b0 9e bd
       0.12681723 0.11760492 -0.11518657 -0.077484496
0000f0 4e 9c 1a 3e 8a d6 78 bd cb 21 9f bd 09 f4 1d be
       0.15098688 -0.060751475 -0.07770117 -0.15425123
000100 e4 be ff bd f7 64 f0 3c d3 60 90 bc f4 3b 03 be
       -0.12487581 0.029345019 -0.017624294 -0.12815839
000110 e3 b4 5b 3c 68 b4 ed bd 6e 9b 16 be 84 14 a8 bd
       0.013409826 -0.116066754 -0.14707729 -0.08207038
000120 00 c5 f7 bd 15 cd 11 be bc 5f c8 3d a8 77 07 3d
       -0.12098122 -0.14238389 0.09783885 0.033073097
000130 d6 84 5d 3d a4 60 33 be 6b 57 30 be 30 a8 c8 bd
       0.05408176 -0.17517334 -0.17220847 -0.09797704
000140 ee 25 6d 3d 16 4e d5 bd 61 02 f3 bd ab 39 ca bd
       0.0578975 -0.10415284 -0.11865688 -0.098742805
000150 9c ef 2c 3c 78 1f 73 bd 41 b8 c6 bc 69 c5 16 be
       0.010555174 -0.059356183 -0.024257781 -0.14723743
000160 a7 9a c6 bd 18 de d8 bd da 20 6f bd 40 29 b2 bd
       -0.09697466 -0.10589236 -0.05838094 -0.08699274
000170 d9 bc 18 3e ae a9 2a bc 62 42 3e 3e ee 8a e5 3d
       0.1491579 -0.010416431 0.1858001 0.11208139
000180 c3 a7 ea bd 91 c2 0e 3e 1a 44 75 bd 79 fc 80 3a
       -0.11457779 0.13941409 -0.0598794 0.0009840868
000190 43 76 15 be 02 07 fe bd 8c 36 90 3d 27 e9 94 bc
       -0.14595895 -0.124036804 0.07041654 -0.018177582
0001a0 df c0 44 3d 8b 9e a3 bd a6 e6 51 3e 1d d6 e2 bd
       0.0480355 -0.07989224 0.20498142 -0.11075995
0001b0 b4 95 d0 3c e8 58 07 3d 77 d8 2d 3e 54 ef 3e 3e
       0.025462009 0.033043772 0.16977106 0.18645984
0001c0 5b 95 fc 3d 31 69 d1 bd 1c b3 89 3d 60 80 00 be
       0.12333175 -0.10225142 0.067236155 -0.12548971
0001d0 c3 bd e7 bd 59 4c 91 bd 68 6c 14 3e 92 c1 e7 bd
       -0.11315491 -0.0709464 0.14494479 -0.113162175
0001e0 c8 93 8a 3d e9 db c3 bc 99 97 c2 3c dd 6a ea bd
       0.06766468 -0.023908572 0.023753928 -0.11446164
0001f0 41 39 32 3e 77 91 31 bb d5 fe 10 bd b0 3b 31 be
       0.17404653 -0.002709476 -0.035399277 -0.17307925
000200 60 4e e1 3b 6c 1b c0 bd c6 94 42 bd 1c c7 e2 3d
       0.006875798 -0.0938023 -0.047505163 0.11073133
000210 c1 5b f2 3d b7 81 a9 bd b5 f7 30 be e3 ab 90 bd
       0.11833907 -0.08276694 -0.17281993 -0.07064035
000220 1d 08 46 3d 3d b3 97 bd f8 cb 74 bd b2 41 1c bd
       0.04834758 -0.07407234 -0.059764832 -0.03814859
000230 68 89 c7 bd 1a e9 89 3d b7 e7 e8 3d a2 f0 1a be
       -0.09743005 0.06733914 0.11372321 -0.15130857
000240 f9 57 01 3e 21 7b ba 3d b3 0b da 3b 57 7d 57 bd
       0.12631215 0.09105516 0.0066542267 -0.052609768
000250 ad eb 2d bb 56 89 bd 3d d8 1c d4 3d aa 0c 38 bd
       -0.0026538179 0.092547104 0.10357064 -0.044933952
000260 49 33 98 bc be 1e 09 3d 01 54 12 be 1d 3f 0d be
       -0.018579142 0.033476584 -0.14289857 -0.13793607
000270 ea 50 0d 3e a6 48 d5 3d de a1 a8 bd 07 05 95 bd
       0.13800398 0.10414247 -0.08233999 -0.072763495
000280 db 69 08 3d 9a 5b 8c bd 54 d9 44 3d 72 90 2c 3c
       0.033304077 -0.06853409 0.048058823 0.010532485
000290 36 f7 25 be a6 08 a3 bd 13 ca c7 3d 88 4f 4a 3d
       -0.16207585 -0.07960634 0.097553395 0.049392253
0002a0 dc 21 a6 3d 44 b9 ad bd 92 62 57 be ad 3a 1d be
       0.08111927 -0.08482602 -0.21033695 -0.15354414
0002b0 9f 51 cc bc 82 41 01 3d d3 db 4e 3d c3 15 cd bb
       -0.024941264 0.031556614 0.05050261 -0.0062586977
0002c0 3c d9 e3 bd a2 c4 a9 bd 6b b2 0b bc 90 aa 13 3e
       -0.111254185 -0.08289458 -0.008526425 0.14420533
0002d0 cc 8e 6a 3d 4b e9 7b bd 5d f9 02 3e 31 7b b1 bd
       0.057265088 -0.061501782 0.12790437 -0.08666075
0002e0 8a d8 cb bd 3c 0a 67 3d 9d b3 bd bd 51 d4 a5 bc
       -0.09953411 0.056406245 -0.09262774 -0.020242842
0002f0 a3 a2 55 be 59 79 c9 3d 8b 7e c0 3d 7d 90 91 bb
       -0.20862822 0.09837598 0.09399136 -0.004442273
000300 43 50 ef bd 4a 6b 48 be a1 f7 00 be 73 fa 51 3e
       -0.116852306 -0.19572178 -0.12594463 0.20505695
000310 77 1f d9 3d 9d d5 15 3e 1a 1f 51 3d ff 1f dd 3d
       0.106017046 0.14632268 0.05105505 0.107971184
000320 68 00 aa 3b 6c 9a 74 bd a5 ed 39 be 1b 96 bf bd
       0.0051880367 -0.05971758 -0.1815706 -0.09354802
000330 63 58 c5 3d 1e b5 03 be 2d 85 8d bd 56 7c 94 bc
       0.09635999 -0.1286206 -0.06910167 -0.018125694
000340 db 21 5d 3d 10 df 08 bd e2 da 85 bd 4a 5d 80 3d
       0.053987365 -0.033415854 -0.06535889 0.062677935
000350 14 34 87 bd 8a eb eb 3d 1e ff 06 bd 69 f5 af bd
       -0.0660173 0.11519535 -0.032958142 -0.0859173
000360 98 ef 71 3c d3 dc dd bd 42 81 8b bd ed 50 36 be
       0.014766596 -0.108331345 -0.06811763 -0.17804308
000370 1f c6 01 3d 0a 5f 9f bd b9 0c 7a 3d 22 95 8f 3d
       0.031683084 -0.07781799 0.06104729 0.07010867
000380 69 84 3a 3e e1 82 fa bd 5c c3 c8 3d b3 55 72 bd
       0.18214573 -0.122319944 0.09802887 -0.05916376
000390 c8 c9 eb 3c 63 14 3b 3e 47 d8 13 bd af 64 9f bc
       0.02878274 0.18269496 -0.03609493 -0.01945719
0003a0 49 47 6e bb c4 1b 28 be 61 30 9b 3d fc 22 33 be
       -0.0036358407 -0.16416842 0.07577587 -0.17493814
0003b0 fa 1f d0 3d 91 8a 37 3e 12 15 39 3e 23 97 00 bd
       0.10162349 0.17923953 0.18074444 -0.031394135
0003c0 3d 96 05 be a1 9b bc 3d 95 07 58 3c c5 05 32 be
       -0.13045593 0.09209371 0.013185401 -0.17385013
0003d0 e6 36 6b bd b9 11 c0 bd 23 bf df b9 fc ad b4 bd
       -0.057425402 -0.0937838 -0.00042676282 -0.088222474
0003e0 58 a3 cb bd cb e2 bf bc 26 bc 20 be 1b f9 05 3e
       -0.09943265 -0.023423573 -0.15696773 0.13083307
0003f0 ba 48 05 3e 18 a7 44 bd c9 24 62 bb ab d7 4e bd
       0.13016024 -0.048010916 -0.003450679 -0.050498646

a2c_network.actor_mlp.0.bias f4 [256]
000000 dd ce c0 3d f1 30 c0 3d 72 55 7a 3d da 64 89 bd
       0.09414456 0.09384335 0.061116643 -0.06708689
000010 6d e4 9f bb 61 88 02 3d f9 85 99 3d 34 ef b3 bc
       -0.0048795254 0.031868342 0.074962564 -0.021964647
000020 15 4a ba 3d 9a 24 c1 3d df a3 8d 3c 18 23 9f 3d
       0.09096161 0.09430809 0.017290054 0.077703655
000030 5a 14 7d 3d b8 dd 74 bd 7c 13 28 3d 3e c5 ac 3d
       0.061786987 -0.05978176 0.041034207 0.084360585
000040 43 eb b3 3d d3 bc 6f 3d c7 30 0e 3d 4f 21 8d 3d
       0.08785107 0.058529686 0.034714486 0.06891119
000050 8b 02 e7 3b c4 dd ac bb c2 17 4a 3d f1 cd 7d 3d
       0.0070498637 -0.00527546 0.049339063 0.06196398
000060 3d 96 a2 3d 40 85 84 3c 95 7f 82 3d 22 f7 80 3d
       0.07938812 0.01617682 0.063719906 0.06297137
000070 e3 f1 fa 3c 44 81 a3 3d 7c 22 9b 3d 62 59 94 3d
       0.030632919 0.0798364 0.07574937 0.07243611
000080 ce 19 12 3c 47 72 b5 3d e2 d3 05 3d 93 0d fe 3c
       0.008917285 0.08859687 0.03267277 0.031012332
000090 5f 49 a3 3d 88 18 8f 3d ea 45 b8 3d 74 77 7d 3d
       0.07972979 0.06987101 0.0899771 0.061881498
0000a0 d2 4e 89 3d 01 48 1c 3d 0b 41 c0 3d 41 86 95 3b
       0.06704487 0.038154606 0.09387406 0.0045631235
0000b0 e7 3f 9c bc 1f c8 9a 3d c4 db 9c bd 90 cf 2f bd
       -0.01907344 0.07557701 -0.076591045 -0.042922556
0000c0 96 90 79 3d 2d 26 b5 bd c2 bf d0 3d 74 be 37 3d
       0.060928904 -0.08845172 0.10192825 0.044859365
0000d0 ff ec cf 3d 8c 4b 15 bd 9a a3 44 3d f8 51 84 3d
       0.10152625 -0.036449 0.048007585 0.06460947
0000e0 de 14 9e bd 9e 0f 31 bd ce d1 02 bd 39 62 b1 3c
       -0.07718824 -0.043227784 -0.031938367 0.021653282
0000f0 b5 dd 84 3d 4d bb 8f 3d 53 65 3b 3d 4f 46 59 3d
       0.064876 0.07018147 0.045750927 0.053045567
000100 4e e6 8c bc c0 43 f7 3c 7b e2 b6 3d 19 c9 35 3c
       -0.017199662 0.030183673 0.089299165 0.011095309
000110 75 93 8c 3d 71 5e 72 bd e2 08 a9 3d cf 9f a4 3d
       0.06864063 -0.059172098 0.082536474 0.080382936
000120 9c c1 67 3d 89 74 11 3c 5e b4 93 bd 4f 0d 3c 3c
       0.056581125 0.008877882 -0.07212137 0.011477782
000130 1a 10 ee 3a 8a ab 8e 3d 92 f5 89 3d 26 a4 ca bc
       0.0018162758 0.06966312 0.06736292 -0.024736475
000140 f8 55 96 3d 2e df 9e 3d b3 69 0d bd 19 3a 8b 3c
       0.07340616 0.07757412 -0.03452463 0.016995477
000150 03 fa 9f 3d 49 43 9d 3d 6b f7 3c 3c 51 4d 61 3d
       0.07811358 0.07678849 0.011533598 0.055005375
000160 0d 9c d2 3d c9 73 6d 3d 39 30 a8 3d bc f7 34 bd
       0.102836706 0.05797175 0.08212323 -0.04418157
000170 d1 ac aa 3d 98 e1 4c 3d b3 f1 64 3c a1 cf e1 3d
       0.08333743 0.05001983 0.013973641 0.1102593
000180 55 81 88 3c 73 16 93 3d 17 b9 ff 3c 4d ff 7c 3d
       0.016663233 0.07182016 0.031216187 0.06176691
000190 50 e8 63 3d 89 8c c0 3c b9 ab be 3d d8 61 82 3d
       0.055641472 0.023504512 0.09310097 0.063663185
0001a0 3f 05 ab bc 66 e7 9c 3d 74 64 c4 3d b7 79 ae 3d
       -0.020876525 0.07661323 0.095894724 0.08519309
0001b0 af 84 c3 3c bf 2e b8 3d 3c 64 10 3c cf 12 3b bd
       0.02386698 0.08993291 0.00881296 -0.045672234
0001c0 8a c9 a4 3c f9 37 2d 3c 24 5b b8 3d 2c 09 96 3d
       0.020115633 0.010572427 0.09001759 0.07325968
0001d0 27 07 ab 3d 19 7c 9d 3d 74 c0 93 bd 9c f9 6a 3d
       0.083509736 0.076896854 -0.07214442 0.057366952
0001e0 23 84 a3 3d 0f 6b af 3d 8c ea a6 3d dd 7b 8d 3d
       0.079841875 0.08565342 0.08150205 0.06908391
0001f0 d0 91 84 3c 51 c6 ae 3d b4 5d 9b 3d 38 77 f8 bc
       0.01618281 0.085339196 0.07586232 -0.030330285
000200 ad 94 a7 3c 4e 59 3a bd e2 60 10 3d 1d 4e 3a bd
       0.020456636 -0.045495324 0.035248645 -0.04548465
000210 51 af 78 3d a0 a5 a6 3d d9 16 bb 3d a9 07 83 3d
       0.06071407 0.08137059 0.09135217 0.063979454
000220 0f f2 89 3d 9f 65 61 3d 04 17 39 bb d4 6e 6f 3d
       0.06735622 0.055028554 -0.0028242478 0.058455303
000230 ec 95 6e 3d b4 c3 f1 3d c1 50 e6 3d e0 94 c3 3d
       0.058248445 0.118049055 0.11245871 0.0954988
000240 9f 50 ac 3d df e2 00 bd 7f 46 a4 bd 69 f9 a9 3d
       0.08413815 -0.03146636 -0.080212586 0.08299524
000250 50 f8 90 bd 7a 5c 90 3d f4 ec d1 3c 1a fe a1 3d
       -0.07078612 0.070488885 0.025625683 0.07909794
000260 c2 0f a0 3d 9f 13 a2 3d 99 78 ae 3d d2 98 d3 3c
       0.078155056 0.07913899 0.08519096 0.025829706
000270 3b 23 da 3c 38 20 b3 3d 2b 99 35 3d c3 4b a4 3d
       0.026628127 0.087463796 0.044335525 0.08022263
000280 fb 37 d6 3c 07 e3 34 3c 40 d5 74 3d 5a f4 32 3d
       0.02614974 0.011040456 0.059773684 0.043690063
000290 b7 e1 6b 3d 63 79 b6 3d ce 4a 9e 3d 13 2a ab 3d
       0.057588305 0.089098714 0.077291116 0.083576344
0002a0 0c e9 d6 bc cc f2 4d 3d 3b 76 8b bd d6 2d 84 3d
       -0.026234172 0.050280377 -0.0680966 0.06454055
0002b0 bd f0 b3 3c b3 db a6 3d e5 f7 38 3d 55 e4 4d 3d
       0.021965379 0.08147373 0.045158286 0.050266583
0002c0 43 e2 95 bd 2a 8e 13 3d 8b 03 27 bd ab 09 54 3d
       -0.073185466 0.03602425 -0.040774863 0.051767033
0002d0 1d 42 a9 3d 55 78 ce bc 93 52 36 bd 84 47 89 3d
       0.08264563 -0.025203863 -0.044512343 0.06703094
0002e0 76 f7 9d 3d c1 d5 94 3d 3c 94 18 3d ec c0 b0 3d
       0.07713215 0.07267333 0.037250742 0.08630547
0002f0 8d 38 73 3d 4f 2e bf 3d 06 cd c2 bc 7c 7b 64 bd
       0.059380103 0.093350045 -0.023779403 -0.055781826
000300 37 31 56 bd ba d2 c3 3d 1c 7e d8 3d c5 3f 06 bc
       -0.05229303 0.09561677 0.105709285 -0.008193915
000310 58 e3 09 bd ed 58 c5 3d 81 f3 a4 3d 81 e0 b4 3d
       -0.033664078 0.09636102 0.08054257 0.08831883
000320 e2 ac a8 3c 09 2f 9e bc c6 d3 fc 3c c2 79 ab 3c
       0.02059025 -0.019309537 0.0308627 0.020932082
000330 de 0c 91 bd 55 91 27 3d af c5 ab 3d c0 5a be 3d
       -0.07082532 0.040910084 0.083873145 0.09294653
000340 a9 2d b4 3d 1c c4 6b 3c 97 0a a2 bd a3 70 4d 3c
       0.087977715 0.014390018 -0.07912176 0.012539062
000350 08 97 84 3d 3c c0 94 3d 38 f2 8e 3d 68 66 9d 3d
       0.064741194 0.07263228 0.06979793 0.07685548
000360 2e af 5b 3d 94 53 0b 3d a4 e2 ad 3d a4 b5 11 bd
       0.05363386 0.034015253 0.08490494 -0.035573617
000370 d8 87 e5 bc 72 e4 8e 3b 9b b8 70 3d bf c4 72 bd
       -0.028018877 0.004360729 0.058769803 -0.059269663
000380 0d 12 92 bd 4f b1 8a bc 31 d0 49 3d 50 be 01 bd
       -0.07132349 -0.01693025 0.049270812 -0.031675637
000390 55 d8 5f bd 82 ad d0 3d 2f 4e f9 bc 41 6b 0f 3d
       -0.05464967 0.10189344 -0.030432789 0.035014395
0003a0 11 00 a9 3c de 2b 9a 3d 18 4b 86 bd 81 96 79 3d
       0.020629914 0.07527898 -0.06557292 0.060934547
0003b0 ca dd 87 bd 34 88 18 3c 3a a0 97 3c 1e 94 c0 3c
       -0.066341 0.009309817 0.01850902 0.023508128
0003c0 55 9a 16 bd c3 21 1b 3d a7 17 98 3d af 16 ad 3d
       -0.036768276 0.037873995 0.07426386 0.08451592
0003d0 f2 70 a1 3c 4b 96 c5 bc 15 ea 96 3d 97 4a b5 3d
       0.019707177 -0.024119517 0.07368866 0.088521175
0003e0 25 34 af 3d d6 93 00 bd c8 85 a2 3d ce f0 87 3d
       0.08554868 -0.031390987 0.07935673 0.06637727
0003f0 ae 9f 80 3d ad f4 1b 3d 25 06 e6 bc e6 59 9a 3d
       0.062804565 0.038075138 -0.028079102 0.07536678

a2c_network.actor_mlp.2.weight f4 [128, 256]
000000 fb 82 34 3d e7 73 c0 3d e8 53 08 3d 07 16 6c 3d
       0.044070225 0.093971066 0.033283144 0.057638194
000010 26 93 77 3c b3 58 d6 bc ee a2 7f bc 76 69 87 3d
       0.0151107665 -0.026165342 -0.01560281 0.06611912
000020 ae 75 43 3d 43 ad 26 3d 9d c5 85 bd 2e 63 66 3d
       0.04771965 0.04069258 -0.06531832 0.05624693
000030 77 67 f4 3c 6b 57 85 bd 2f 6a 15 3d 24 d0 46 3d
       0.029834492 -0.06510814 0.036478218 0.048538342
000040 7f 75 89 bd 21 91 67 3c 37 b4 c2 bb 8c 34 8d bc
       -0.06711864 0.0141337225 -0.0059418934 -0.01723697
000050 29 a3 f4 3c 9e e9 36 3d a5 7f 2b 3d 56 d2 cf bd
       0.029862957 0.04465639 0.04186978 -0.1014754
000060 4c 81 ea bc 53 02 25 3c be 7f bb 3d 4c 38 9e 3c
       -0.028626107 0.010071355 0.09155224 0.019313954
000070 a5 f5 ca 3d c3 b2 4c 3d b3 80 f0 3b 27 03 d6 3d
       0.09910134 0.049975168 0.007339561 0.1044982
000080 09 fc fb 3c 46 11 e1 bb 5d ad a3 bc c7 00 48 bd
       0.030759828 -0.006868514 -0.019980127 -0.048828866
000090 99 aa 11 bd 1f e9 46 bb 44 92 04 3d 34 60 c4 3c
       -0.035563085 -0.0030351353 0.032366052 0.023971654
0000a0 96 6d 21 3c 7b 6c ce 3a f9 f2 3a 3d 6f 3f 18 3b
       0.0098527875 0.0015748882 0.045641873 0.0023231169
0000b0 ce c2 6e 3b 5d 5e 01 3e 46 71 d1 3c fe 10 98 3c
       0.003643203 0.12633653 0.025566708 0.01856279
0000c0 e4 d2 d6 3d 77 c5 87 bd 1c 6c 06 3d 75 38 88 3d
       0.10489443 -0.0662946 0.032817945 0.06651393
0000d0 95 dd 8f bc 67 63 39 bd dd 79 c4 3d 39 24 e7 bb
       -0.017561713 -0.045260813 0.09593556 -0.0070538786
0000e0 95 cd 1f bd 39 46 e5 3c a6 fd 5c 3c 4d 78 1a bd
       -0.039014418 0.027987586 0.013488209 -0.037712384
0000f0 cf 6a a2 3d 42 e5 9b 3d 23 df 1a bb 02 8e ea bc
       0.07930528 0.07612087 -0.0023631535 -0.028632168
000100 77 97 24 bd 37 c4 43 bd 9b 02 7e 3d e0 da 14 3d
       -0.04018351 -0.047794547 0.062014204 0.036341548
000110 af 1c 92 bd 78 99 92 3c 9e 31 22 3c 7f 5d f2 3c
       -0.07134377 0.017895445 0.009899525 0.029585598
000120 4e 9a b8 3c ce a5 1f bd 1d 1a 88 bd 93 11 89 3b
       0.022534516 -0.038976483 -0.06645606 0.004183003
000130 60 18 e3 3b 00 4e a2 bc 95 cb 21 bb 61 a8 bd bc
       0.006930396 -0.019812584 -0.0024687995 -0.023151578
000140 1a 80 4f bd 97 c8 3c 3d 11 75 28 bd 62 6d 0d 3d
       -0.050659277 0.046089735 -0.04112727 0.034528144
000150 d7 b3 51 bd 9d 60 36 bd 97 39 81 3c f2 bf 49 bb
       -0.0511969 -0.04452573 0.015774531 -0.0030784574
000160 94 43 4a bb 42 c6 80 3d 62 a2 f3 3c e4 82 18 3c
       -0.0030863034 0.06287815 0.029740516 0.0093085505
000170 84 ac 38 3d 9e 37 4f bb dc 27 45 bd 37 14 37 3b
       0.0450864 -0.0031618844 -0.048133716 0.0027935633
000180 59 8c f1 3c 73 95 fc 3a cf d0 1b 3d 2c 60 39 3d
       0.029485868 0.0019270614 0.038040932 0.045257732
000190 97 32 c2 bc a8 d3 5d 3c 27 23 d6 3b f0 48 83 bc
       -0.023705764 0.013539232 0.006534952 -0.01602599
0001a0 9c 86 71 3d 0c 80 9e bd da 31 92 3c dd d3 9a 3d
       0.058966264 -0.07739267 0.017846037 0.07559941
0001b0 d5 c4 93 3c 76 a7 c4 3d 11 6b 97 bd 5d 6d f5 3c
       0.018038193 0.09602253 -0.07393468 0.029959375
0001c0 c0 06 19 bd e5 62 19 3d 8e c9 78 3d 55 cd 25 3d
       -0.037359953 0.03744783 0.060739093 0.040479023
0001d0 67 87 10 3c bf 28 a3 3c e8 7a 41 bd 6b 5a c3 bb
       0.008821345 0.01991689 -0.047236353 -0.0059617064
0001e0 91 5f 90 3d 67 c6 2c bc 18 4e 5f 3b 8a b6 8b 3c
       0.07049478 -0.01054535 0.0034073647 0.017054815
0001f0 d2 a0 0f 3d 6c 04 6e 3d b4 ad 87 3d bc 4a 50 bb
       0.03506548 0.058109686 0.06624928 -0.0031782826
000200 8b 97 b7 bc c1 2b 34 bd 0d d2 05 bd 8d e6 7c bd
       -0.022411129 -0.04398704 -0.032671023 -0.061743308
000210 2e d5 0a 3d 69 7d 9c 3d 21 51 8a 3d 57 e9 b4 3c
       0.03389471 0.076411076 0.06753755 0.022083921
000220 c6 78 01 bc d9 f3 8e 3d 59 2a 18 3d 1d d6 3e bb
       -0.00790233 0.06980104 0.03714976 -0.002911932
000230 bf d6 0e bd 99 56 7c bd 87 54 97 3d 1e 8c e5 3c
       -0.034872767 -0.061606023 0.07389169 0.028020915
000240 aa 62 83 3d 70 52 7a bc 1a d5 3b 3c dc bd 83 3c
       0.06415303 -0.015278444 0.011464382 0.016081743
000250 af c1 56 bc 20 96 01 bd ee a5 f2 bb 99 a7 01 3d
       -0.013107701 -0.03163731 -0.0074050343 0.031653974
000260 f3 f6 d4 3d 4a c6 0b 3d ba 17 4d 3b 0e f7 ab bc
       0.10398664 0.03412465 0.003129466 -0.020991828
000270 73 67 84 bd 81 e2 82 3d 58 dd f9 3c 5e 11 bf 3c
       -0.06465044 0.063908584 0.030501053 0.023323711
000280 51 3e c4 bb 56 71 cc 3c 50 66 c1 bb fa 97 18 bd
       -0.005988874 0.024956387 -0.005902089 -0.03725431
000290 84 b4 21 3b 70 ba bf 3c a0 f5 9e 3d 4f a6 67 3d
       0.0024674246 0.02340433 0.07761693 0.05655509
0002a0 fc c6 90 bd 73 79 b9 bc 52 7f a4 bd 1d c4 5c 3d
       -0.07069203 -0.02264092 -0.08032097 0.053897966
0002b0 ff 27 62 3d 0b 8a 5c 3d 32 f2 c6 bc c1 68 d8 bc
       0.055213924 0.053842586 -0.02428541 -0.026417138
0002c0 a7 dd 4b bd d2 14 89 bd 12 f3 35 bd d6 c0 e0 bd
       -0.04977193 -0.06693424 -0.044421263 -0.109742805
0002d0 75 21 ae 3d dd 42 3a bd 3f be 92 3a 44 a2 56 bc
       0.08502475 -0.045473922 0.0011195614 -0.013100211
0002e0 a0 0f 1e 3d 8c e4 5c 3d 5b b4 b6 bc 51 a7 a5 3d
       0.03858912 0.053928897 -0.022302797 0.08088554
0002f0 57 3c f5 3c 32 ac 24 bc 54 63 65 3d 6d a8 3f bd
       0.029935999 -0.01005082 0.05600293 -0.046791483
000300 b8 10 fc bc 66 57 33 3d 8f 68 2a 3d 37 59 61 bd
       -0.03076969 0.04378452 0.04160362 -0.055016723
000310 07 f5 16 bd f4 46 16 3b 50 28 94 3c c4 88 eb 3c
       -0.03685477 0.0022930475 0.018085629 0.028751738
000320 0d ff 83 3d 81 6c 25 3d 5b c4 7c bd 3f 2c 85 bd
       0.064451315 0.04038668 -0.061710697 -0.0650258
000330 48 69 39 bd 0b 2b 83 bb e8 5f be bb 88 1f 8d 3d
       -0.04526642 -0.004002934 -0.0058097728 0.0689078
000340 75 5e 86 3d 3f 76 72 3d cf c6 1e bd 51 cd 4a bc
       0.06560985 0.0591948 -0.038763817 -0.012378053
000350 a4 96 84 bd ae 43 65 3c a4 49 59 3d 8b 1c b6 3b
       -0.06474045 0.013993187 0.053048745 0.005557602
000360 f4 cb d3 3c e0 44 7b bd 9e a9 f7 3c 37 1d c8 3c
       0.025854088 -0.06134498 0.030232247 0.024427993
000370 ad 6e f5 bc 4f c5 d1 3d cc 02 a4 3c b8 00 c4 bd
       -0.02996 0.10242712 0.020020865 -0.095704496
000380 c0 77 4f bd e5 c4 4d bd b3 ad 88 bd 9a 9c 45 bd
       -0.050651312 -0.0502366 -0.066737555 -0.04824505
000390 99 a4 84 3b f7 42 8c bc 94 72 98 bc 3e 16 8e bd
       0.004047942 -0.017121775 -0.018609323 -0.06937836
0003a0 b4 f5 af 3d 45 3e a3 3d d2 e4 75 3d 90 f3 7a bd
       0.08591786 0.07970861 0.060032673 -0.061267436
0003b0 27 c1 00 bc ff 32 6b 3c e7 3f 60 3b 6b 07 5f bc
       -0.007858551 0.01435542 0.0034217776 -0.013612608
0003c0 ea 7a f4 3c 28 c5 5d 3c a9 01 99 39 a3 90 e2 3c
       0.029843766 0.013535775 0.0002918367 0.027656859
0003d0 56 88 85 3d 1f 0e 9c bd 6c 5f 4e bd 03 6d 3e 3c
       0.06520145 -0.07619881 -0.05038397 0.01162267
0003e0 5f 22 32 3d 1c d4 d1 bc 43 31 9a 3d 11 6c d2 3c
       0.04348981 -0.025613837 0.07528927 0.025686296
0003f0 4d 3e 4e 3d 26 ee 0a bc 7c ac 8b bd 62 56 6e 3d
       0.050352383 -0.008479631 -0.06820008 0.05818785

a2c_network.actor_mlp.2.bias f4 [128]
000000 9c 42 a8 3d 8a f6 71 bc d3 25 b7 bd f9 2f 27 3d
       0.0821583 -0.014768252 -0.08942761 0.040817235
000010 01 61 a5 bd 86 9b 92 3d 59 bd 81 3b b7 a1 c4 bd
       -0.08075143 0.0715857 0.0039593396 -0.09601157
000020 c5 5e 1f 3d 7b 98 09 3d cd 08 f2 3c a0 9f 90 3c
       0.03890874 0.033592682 0.029545212 0.01765424
000030 eb 6a 41 bd 1a ff 92 3d cf 94 9e bd 7b 42 33 3d
       -0.047221106 0.07177563 -0.07743227 0.043764573
000040 8d d7 27 3c f6 34 83 3d 14 ed 13 bd 3f 1a 32 3d
       0.010244262 0.06406586 -0.036114767 0.04348206
000050 76 da e1 bd da 75 50 3d 30 c9 68 3d a1 e0 36 bd
       -0.11027996 0.050893642 0.056832492 -0.044647817
000060 4e 41 8f bd 3d c3 a8 3d 01 b5 17 3b 9d df 94 3d
       -0.06994878 0.08240364 0.0023148658 0.07269213
000070 fa 58 96 3d 7f af 7f bc fe 63 5b 3d 65 55 25 bd
       0.0734119 -0.015605806 0.053562157 -0.04036464
000080 89 45 84 3d c3 5d ab bc fd aa 9c 3d ae c9 e3 3c
       0.06458575 -0.020918733 0.07649801 0.02780613
000090 0c 3c 96 bd 28 a6 18 3d 31 cd d5 3c 64 c0 a5 3d
       -0.07335672 0.037267834 0.02609882 0.08093336
0000a0 0b 44 ac 3c a8 bc ac bd a9 f5 b6 bd ae eb 29 bd
       0.02102854 -0.08434421 -0.08933575 -0.041484527
0000b0 fc 72 c5 bd d0 ca 88 3d e5 d1 08 bd 3f ef 2d 3d
       -0.09641072 0.066793084 -0.033403296 0.04246449
0000c0 a0 a2 3b bb 77 91 89 3d 3a 10 95 3d 60 07 24 3c
       -0.0028630868 0.06717198 0.072784856 0.010011524
0000d0 93 94 a5 3d cd 56 60 bd e1 cc 6f bd 9a aa c5 3c
       0.08084979 -0.05477028 -0.058544997 0.0241292
0000e0 06 c1 83 bd be 0e f2 bb 28 03 38 3d 7b 7f 84 3d
       -0.06433301 -0.0073870113 0.044924885 0.064696275
0000f0 4f 97 86 bc b1 f1 88 3d 5c 97 9f 3d 86 ae 1c 3d
       -0.016429571 0.06686724 0.077925414 0.038252376
000100 8a 88 79 3b e7 79 a0 bd 8c 09 72 3d e5 54 1b 3d
       0.0038075768 -0.07835751 0.059091136 0.03792276
000110 20 f6 69 3d 12 58 a3 3d 1e e1 40 bd 33 99 5f 3d
       0.05711949 0.079757825 -0.04708969 0.05458946
000120 65 b1 8f bd 18 b4 ac bd c9 16 67 3d 46 da a4 3c
       -0.07016257 -0.08432788 0.056418214 0.020123612
000130 38 5a 93 3d 6e d7 0f 3d 40 1b 2a bc 33 d0 e5 ba
       0.07194942 0.03511756 -0.0103824735 -0.0017533362
000140 98 fd 99 bd 62 b6 be 3c da 99 f8 bc 5d ee 92 bd
       -0.07519072 0.023280326 -0.0303468 -0.071743704
000150 86 0c 37 bd ed fd f6 bd 47 a3 61 3d 32 de 98 bd
       -0.044689678 -0.12060151 0.055087354 -0.074642554
000160 66 c1 98 3d 77 14 92 bd de 3f a1 bd e2 3e 57 bc
       0.07458763 -0.071328096 -0.0787351 -0.013137551
000170 f2 0a 7a bd 50 a0 e1 3b 9d 7c 9e 3d cb eb 14 bc
       -0.061045595 0.006885566 0.07738612 -0.009089421
000180 fe 18 0b bc 52 74 61 3d ea 16 9d 3d 9b 49 1e bb
       -0.008489845 0.055042572 0.07670386 -0.002415276
000190 37 c5 1b 3d c9 c7 80 3d 18 15 a5 3c 1c 6f a3 bd
       0.038029876 0.06288106 0.02015166 -0.07980177
0001a0 4c 8d 28 bd 2e 28 80 bc de 3e 97 3d c2 ce 32 bd
       -0.041150376 -0.01564416 0.07385038 -0.04365421
0001b0 2e 14 8a bd 19 f9 9b 3d ea 5e 45 bd 0d 66 34 bd
       -0.0674213 0.07615871 -0.04818622 -0.044042636
0001c0 9b 5c 32 3d 93 a9 43 3d 55 d8 a4 bd 37 82 5e bd
       0.043545347 0.04776914 -0.080490746 -0.0543234
0001d0 ea 6a 8a 3d d5 26 66 3d 70 71 5e 3d d4 d2 94 3d
       0.067586735 0.056189377 0.0543074 0.07266775
0001e0 b0 91 5b bd 80 e6 28 3d 46 4e 2b bd c0 a2 22 bd
       -0.053605735 0.041235447 -0.041822694 -0.03970599
0001f0 a1 4f 88 3d 34 c3 71 bd e4 d0 96 3b 62 8b 0e 3d
       0.06655813 -0.05902405 0.0046025384 0.034800895

a2c_network.actor_mlp.4.weight f4 [64, 128]
000000 c7 9f a4 3d ae 2a 7c 3d 27 6c a9 3c a0 8c b2 bc
       0.080382876 0.06156414 0.020681454 -0.02179557
000010 24 84 0a 3d 73 1d 8f 3c 0e 03 40 bd 78 54 78 3d
       0.033817425 0.017470097 -0.046877913 0.06062743
000020 f8 a6 78 bd 81 3c 94 3d 7f 44 c7 3c 64 aa 13 bc
       -0.06070611 0.07238103 0.024324654 -0.009012792
000030 a7 88 52 bd 4e 34 0f 3d 68 7a 5f bd 84 b3 0e 3e
       -0.051399853 0.03496199 -0.054560095 0.13935667
000040 c0 65 96 bd fc 70 bc bc 68 c6 2a bd 5d b3 c5 3c
       -0.07343626 -0.023003094 -0.04169312 0.024133379
000050 49 18 2b 3c 10 99 cc 3d 04 0f ae bc ee 0b 43 3e
       0.010442802 0.09990132 -0.021247394 0.1904752
000060 6a 87 98 bc 64 23 ca bd c2 1f 96 3b 36 e9 de 3c
       -0.018619258 -0.098700315 0.0045814225 0.027210813
000070 45 9a 10 3d 26 c8 c6 3c 18 2e ee 3d e9 6d 92 3d
       0.035303373 0.02426536 0.116298854 0.0714987
000080 fc b7 ce 3c 88 ce 4d 3d ba fb 67 bd 5d 93 95 bd
       0.025234215 0.05024579 -0.05663655 -0.07303498
000090 d8 d5 9a 3b 6d 95 e2 bd 29 a0 6f bd 37 83 28 3d
       0.004725199 -0.11063657 -0.05850235 0.04114076
0000a0 73 9c 51 3d 4d 3e d6 3c a6 88 49 3c a0 44 6c bd
       0.051174592 0.026152754 0.012300646 -0.057682633
0000b0 c7 e5 a5 bd 51 9e 3f 3c 2c 09 87 bd ad 04 99 bd
       -0.08100467 0.01169546 -0.06593546 -0.07471595
0000c0 c1 6a 82 bc 21 4e 3e 3d 3a 47 33 bd bb fb 34 ba
       -0.015920045 0.04646123 -0.0437691 -0.0006903966
0000d0 ff f9 91 bd 4d 37 a6 3d 1c 90 af 3d 3a 25 98 3d
       -0.07127761 0.081160165 0.085724086 0.074289754
0000e0 2e af 8c bd 09 c1 f1 bd 52 31 33 bd d0 a2 a5 bd
       -0.068693504 -0.11804397 -0.043748207 -0.08087695
0000f0 15 da e3 bb a1 78 44 bd 65 aa c6 3c 2d 6f 4c 3d
       -0.0069534876 -0.047966603 0.024251172 0.049910713
000100 04 dc b0 3c 78 9f 87 3c 91 cc f4 3c 87 e1 0d bd
       0.021589287 0.016555533 0.029882701 -0.034638908
000110 9b 97 ac 3c f1 b1 25 3d 85 4b 80 3c 41 15 a0 bd
       0.021068385 0.0404529 0.01566101 -0.07816554
000120 70 c2 77 bd 31 bb a7 bd c9 76 af bd 45 a8 26 3c
       -0.060488164 -0.08190001 -0.08567578 0.0101719545
000130 e3 30 6d 3d 5b cc 54 ba b1 b0 b7 3d 83 cc dc bd
       0.05790795 -0.00081176095 0.08969248 -0.10781195
000140 51 67 75 3d ca 17 57 bc 0f 3a 8e bd e1 cf 9b bc
       0.059912983 -0.01312823 -0.069446675 -0.019020023
000150 b3 19 b5 3d eb 37 65 bd 73 6e 84 3d b1 88 a2 bd
       0.08842792 -0.05596153 0.06466379 -0.07936228
000160 87 c3 8d 3d 41 85 74 38 88 50 38 bd db 0a 7b 3d
       0.069220595 5.8298236e-05 -0.044998676 0.06128965
000170 09 29 98 3c c1 5f 75 3d 2a 4f 6b 3d cc 87 43 bd
       0.018574255 0.05990577 0.057448544 -0.047736928
000180 e4 0a d3 3d b8 a4 58 3c c1 b2 37 3c ad 7f 6a 3c
       0.103048116 0.013222866 0.011212052 0.014312667
000190 51 a2 7c 3c 70 f6 32 bd 5c c1 53 3c a8 17 d5 3c
       0.015419559 -0.043692052 0.012924518 0.026012257
0001a0 8c 8c e0 3b 86 df c2 bd f9 aa d3 3c 7a f1 05 bd
       0.006852692 -0.0951529 0.025838362 -0.032700993
0001b0 ee c6 73 bd e2 02 82 bd ce a1 5d bd e7 21 bc bb
       -0.059515886 -0.06348206 -0.054109387 -0.005741346
0001c0 57 22 7d 3d b3 b0 5b 3d dc 28 45 3d 72 83 88 bd
       0.061800327 0.05363531 0.04813467 -0.06665696
0001d0 5b ac 18 3d 00 b1 34 3d 30 bc ca 3c 11 15 b7 3c
       0.037273746 0.044114113 0.024747938 0.022348912
0001e0 21 8f 4d 3d d8 58 54 3d 35 4a 56 bc e8 b7 37 bd
       0.050185326 0.05184254 -0.013079216 -0.04485312
0001f0 f3 cf b2 3d f7 8e cd bc 4f b7 09 3e 3c c7 87 bc
       0.087310694 -0.025092585 0.13448833 -0.016574495
000200 26 b6 83 bc 49 28 20 3d df e1 9e 3b 19 08 3d 3d
       -0.016078066 0.03910092 0.0048487033 0.0461503
000210 10 c1 bc bd 67 79 ac bc 4a bf 01 bd 04 d3 08 bd
       -0.09216511 -0.021053983 -0.031676568 -0.033404365
000220 8a ae 16 3c aa 00 86 3d c4 6e 0e 3e e9 14 1b bd
       0.009196887 0.065430954 0.13909441 -0.03786174
000230 8d da 9d bc 0f 70 86 bc c2 53 d7 bd c4 83 ab bd
       -0.019269252 -0.016410856 -0.105140224 -0.08374742
000240 6e 32 3e 3d 18 c9 c2 bd 6d a0 f0 3c 2f 5e a5 3b
       0.046434812 -0.09511012 0.029373372 0.005046628
000250 ea d4 b7 3c 6d e9 4d bd c8 37 47 bd ea 54 13 bc
       0.022440393 -0.05027144 -0.04863718 -0.008992413
000260 ce e7 5f bd 5a d6 35 39 7e 76 9f bd 50 99 02 3d
       -0.054664426 0.00017341357 -0.077862725 0.03188449
000270 7e 90 3b 3a 00 68 9a bc 15 db 87 bd 48 4f 2d 3d
       0.0007155015 -0.01884842 -0.066335835 0.042311937
000280 08 19 e4 bc a6 39 e8 bc bd 64 d1 bc ee c9 3b bd
       -0.027843967 -0.028347801 -0.025560731 -0.045846872
000290 82 c8 eb 3b e5 2c ac bb ec d9 58 3c 26 44 9c 3c
       0.0071955333 -0.0052543753 0.01323555 0.019075464
0002a0 fc 80 fa bb 3f 4b 65 bd 48 6c 8a bd dc 7d d6 3d
       -0.0076447707 -0.055979963 -0.06758934 0.104732245
0002b0 34 84 8c bc 80 ae 2f bd 8c 7c 3e 3d bd 89 34 3c
       -0.017152883 -0.042891026 0.046505496 0.0110191675
0002c0 16 a4 6c 3d 7c fa 8c bc 6b 8d 6c bd 36 d8 d1 bd
       0.057773672 -0.017209284 -0.057752054 -0.10246317
0002d0 48 1d 38 bc dc 8c 06 be 45 84 61 bc d6 fe a1 3c
       -0.01123745 -0.13139671 -0.013764446 0.019774836
0002e0 4d b7 c5 bc f5 cf d3 bd fb 28 8f bc 41 fc 1f 3d
       -0.024135256 -0.10342399 -0.017475596 0.039058927
0002f0 4c 63 ae 3c 73 7f ab 3d 6a 22 50 bd ee db ed 3d
       0.021287583 0.083739184 -0.05081407 0.11614214
000300 60 e6 d0 bd d3 b3 a4 3d 54 a9 79 bd 47 b1 7d 3d
       -0.102001905 0.08042111 -0.0609525 0.061936643
000310 9b ba 4f 3d 5c 1e 1d 3d 77 d1 4f 3d 74 2a 75 3d
       0.05071507 0.03835903 0.05073687 0.05985494
000320 b5 c1 07 3d d9 29 97 3d a5 b4 6a bc 10 18 8f 3d
       0.033143718 0.07381029 -0.014325296 0.069870114
000330 dd f2 82 3d 2d 0d 83 bb 45 76 19 3a f3 99 3c 3d
       0.06393979 -0.0039993734 0.00058541103 0.046045255
000340 ca fe 85 3d e5 30 e0 3c 3b 06 28 3e 77 8b 03 bd
       0.06542738 0.027367065 0.16408627 -0.032115426
000350 f2 00 5d bc ea e3 2c bd a0 63 d9 3c 94 ca 18 3d
       -0.013488995 -0.042209543 0.026536763 0.03730257
000360 21 d7 2b bd f1 ee 9b bc 88 e1 b9 3d 69 37 5c 3d
       -0.04195321 -0.019034835 0.0907622 0.05376378
000370 83 29 3a 3a 44 55 ad bd 00 f0 26 bd c9 b0 df 3d
       0.00071015226 -0.08463529 -0.040756226 0.10922391
000380 28 27 ab 3d 3d 1e 8c 3d 82 9e 9b bd 49 f9 da 3d
       0.08357078 0.06841705 -0.07598592 0.106920786
000390 7c ac 27 bc d8 d9 57 bd 8b 2c e9 3c 9d 20 22 3d
       -0.010233995 -0.052697986 0.028463623 0.039581884
0003a0 8f 75 54 bd 19 94 0d 3e 8e 01 06 bd b8 c2 a6 3d
       -0.051869925 0.13826026 -0.032716326 0.081426084
0003b0 1c 9e 3a 3d 43 37 bd 3d 96 b9 3c 3d b7 ea 11 bd
       0.04556094 0.09239056 0.046075426 -0.035624232
0003c0 1c 40 6a 3d bd 92 84 bd e1 21 9d bd f9 04 85 bd
       0.057190046 -0.064733006 -0.076724775 -0.06495089
0003d0 f6 a1 a1 3c a3 54 a1 bc b3 4a 3c 3d 88 ea a2 3d
       0.01973055 -0.019693678 0.045969676 0.079548895
0003e0 55 a5 3d be fc b1 11 3e 07 7e e9 bd 16 b3 62 bd
       -0.185201 0.14228052 -0.11400991 -0.05534657
0003f0 c1 40 a1 bd 1b 7b 12 bd 1f 14 d9 3d b5 d5 ce bb
       -0.07873679 -0.035761934 0.10599541 -0.006312097

a2c_network.actor_mlp.4.bias f4 [64]
000000 d9 57 89 3d a2 15 cf bc fa 3e 5b 3d 00 59 98 3d
       0.06706209 -0.02527887 0.053526856 0.074388504
000010 03 be 9d bd 37 c5 ea bc 9a 98 77 bd 1b af a9 bd
       -0.077022575 -0.028658492 -0.060448267 -0.08285352
000020 c4 c8 88 3c 6b 5a 87 bd 8d 2f af bd 48 66 80 3d
       0.016697295 -0.06609043 -0.085539915 0.062695086
000030 42 85 85 3d 49 81 77 bd 47 19 61 3d ce 97 41 3d
       0.065195575 -0.06042603 0.054955747 0.047263913
000040 a5 9f 65 ba 75 9d d0 3c 23 c5 07 bd 1f a5 1d bc
       -0.00087594456 0.025465706 -0.03314699 -0.0096218875
000050 9f 15 9a bd 63 28 8f 3d c0 0e 8a 3d f9 6a 74 3d
       -0.07523655 0.06990125 0.067410946 0.05967233
000060 38 a8 8c bd 1e 51 6b bd 63 58 79 3d c5 fc 4f 3d
       -0.06868023 -0.057450406 0.060875308 0.05077817
000070 a4 c8 8b bd 18 b8 f9 3b 6e 82 79 bd 83 f3 9d bd
       -0.068253785 0.0076208226 -0.060915403 -0.07712462
000080 05 3c 85 3d 72 3a 63 bd 2c 79 4c 3c ef dc 53 3d
       0.065055884 -0.05547566 0.0124800615 0.05172437
000090 1c a1 61 3d e7 6a b1 bd 01 58 98 bd 08 e5 92 3c
       0.055085286 -0.08662968 -0.074386604 0.017931476
0000a0 92 73 69 3d 4d 0d 89 bd 4b 0b 53 3d 4f 70 ba bd
       0.056994982 -0.0669199 0.05152444 -0.091034524
0000b0 d6 94 89 3d e8 42 ab bd 31 93 6f 3d cc 77 62 3d
       0.06717841 -0.08362371 0.058489982 0.05529003
0000c0 af 5b 94 bd be 96 9c bd 70 33 40 3d 9a 33 96 3d
       -0.0724405 -0.07645939 0.046924055 0.07334061
0000d0 de 84 89 3d 97 51 8d bd 78 3d 8f 3d de 03 ab bd
       0.067147955 -0.06900328 0.06994146 -0.08350347
0000e0 a8 f6 79 3d 9b 1e 5b bd 76 dd 0c 3c 66 3b 71 3d
       0.061026245 -0.053495985 0.008597722 0.058894537
0000f0 98 d9 73 bd f5 4e 10 bd 09 c0 64 3d a2 56 20 3d
       -0.059533685 -0.03523155 0.0558472 0.03914512

a2c_network.value.weight f4 [1, 64]
000000 a3 f4 e1 3c 62 dd 33 bb 2b e9 d2 3d 15 3c af ba
       0.027582472 -0.0027445187 0.102983795 -0.0013369346
000010 82 5f e7 bd e7 da 97 bb 4c fb a9 bc 43 1a 84 bb
       -0.112975135 -0.0046342495 -0.02074971 -0.004031451
000020 3d d0 57 3c ff 35 7d bc ac 3f 29 bd 6e 60 8c 3d
       0.0131722065 -0.015454768 -0.041320488 0.0685433
000030 0b 1d e3 3c 42 5d 38 bd ec 38 c6 ba b9 2f cd 3c
       0.02772381 -0.045010813 -0.0015123165 0.02504717
000040 9a 48 db 3c 94 27 94 3c d4 de 1b bd 51 36 0c bd
       0.026768018 0.018085279 -0.038054302 -0.034231488
000050 82 03 45 bd 48 f0 b1 3d 3e 48 e1 3d 4b 36 6d 3d
       -0.04809905 0.08688408 0.11000107 0.057913106
000060 97 a3 18 bd dd b5 c6 3b 39 f9 60 3c a2 c4 d0 3c
       -0.037265386 0.0060641603 0.013731294 0.025484387
000070 c6 a3 fc bc 2a c8 5f bd 77 20 8e bd 27 b2 c4 bd
       -0.030839812 -0.05463425 -0.06939786 -0.09604292
000080 da 2b ba 3c 9e 60 a8 3c be ca 94 3c 05 17 a1 3d
       0.022725988 0.020553883 0.018163081 0.07865719
000090 4a fd 06 3d 1d de d2 bd eb 46 8f bd c5 9e bf 3c
       0.0329564 -0.10296271 -0.069959484 0.023391137
0000a0 65 24 6e 3d e9 2d ed bd ae aa cf ba bd f3 e0 bc
       0.058140177 -0.11581022 -0.0015843713 -0.027459973
0000b0 63 ca e3 3c 50 f6 79 bd b4 e3 b4 3d bc 66 be 3d
       0.027806466 -0.061025918 0.088324934 0.09296939
0000c0 e5 53 83 bd 25 3e fd bd 74 26 08 3d ec 45 8b 3d
       -0.06412486 -0.12365369 0.033239797 0.06800446
0000d0 11 a7 1c 3d 38 9f 41 bd 37 3e bc 3d 44 31 eb bd
       0.038245264 -0.047270983 0.09191554 -0.11484006
0000e0 f2 de 93 3d 25 b1 20 bd 19 82 2a 3c 05 0f 07 3d
       0.07220258 -0.03923144 0.010406994 0.032973308
0000f0 11 78 54 bc 3a b7 45 bc 01 c7 d3 bc d4 49 c1 bb
       -0.012968079 -0.01206761 -0.025851728 -0.0058986936

a2c_network.mu.weight f4 [8, 64]
000000 5c 30 db 3d ba a0 c8 bd 61 4d a9 bd c6 da 79 bd
       0.10702583 -0.09796281 -0.08266712 -0.060999654
000010 dd bc c9 3d 49 da 1e be 83 69 9f 3d ae 00 ec bd
       0.09850476 -0.15512957 0.07783797 -0.11523567
000020 55 7a e0 bd fb 4e 92 3c 91 3b a6 3d 9d 80 e6 bd
       -0.10960833 0.017859926 0.0811683 -0.11255
000030 56 0c 19 3e ae d7 ef bd a3 07 4f 3d b7 5f b9 bd
       0.14946112 -0.117110595 0.050544392 -0.09051459
000040 27 e3 5b bc 9f f6 67 bd 19 05 fe bc 79 89 ee bc
       -0.013420857 -0.05663168 -0.03100829 -0.029118286
000050 c6 96 17 3c 23 89 c4 bd ee ed 57 bd ed e2 9f bc
       0.009252256 -0.09596469 -0.05271714 -0.019517386
000060 d3 3f 4c 3d 13 9e b3 bd 6d 72 91 3d be 08 08 3e
       0.049865555 -0.08770385 0.07101903 0.13284585
000070 e6 97 d3 bc 45 1b 85 3d 66 8b ea bd 90 8b 9d 3d
       -0.025829267 0.06499342 -0.114523694 0.07692635
000080 70 a4 a7 bc 7d d0 e3 3d 7e c4 ec 3b 58 54 ec 3d
       -0.020464152 0.1112375 0.007225572 0.11539525
000090 d6 e1 d0 3c 5b 8f 0b bd 8d aa f7 3d ca 24 41 bd
       0.025498312 -0.03407226 0.12093077 -0.047154225
0000a0 c1 0a f5 3d e4 fb b7 3b 59 67 1b 3c 80 f5 95 3c
       0.11964942 0.0056147445 0.009485089 0.01830554
0000b0 22 04 a2 bd 2c f8 a9 3c 7f f7 85 3d 87 1a 83 3d
       -0.079109445 0.02074822 0.06541347 0.06401544
0000c0 5d 05 d8 bd 44 4b a7 3d 37 d8 dd 3d bb 60 cf 3c
       -0.10547898 0.08168653 0.10832255 0.02531468
0000d0 19 b2 0c be ee 5c 37 bd 36 0a f4 bb d0 32 d9 bd
       -0.13739814 -0.04476636 -0.0074475063 -0.10605395
0000e0 63 04 98 bc 3d 9f 09 bd 53 23 0a be c5 b0 cd 3d
       -0.01855678 -0.033599127 -0.13490038 0.10043482
0000f0 b6 86 b3 3c f8 04 d1 3b 4d 6e a3 3d 8d 52 d2 bb
       0.021914821 0.006378766 0.079800226 -0.006418532
000100 34 26 86 3c b4 8f 21 ba 71 30 9e bd 71 a0 3f bd
       0.016375639 -0.0006163076 -0.07724083 -0.04678387
000110 12 8b 19 bc e6 d4 ca 3b 0f 6f 57 3c ed a7 07 3d
       -0.009371536 0.0061899303 0.013149037 0.03311913
000120 34 1c b6 39 43 d3 05 3e dc 0c 96 bd 5c 82 db 3c
       0.00034734758 0.13068871 -0.073266715 0.026795559
000130 18 e1 2e bd 2d a1 bd bd 19 8b f4 3d 93 ba ea 3d
       -0.042695135 -0.092592575 0.11940593 0.114613675
000140 81 bd 82 3d eb aa ab bd 3d 72 01 3d 16 4c 21 be
       0.06383801 -0.083822094 0.031603087 -0.1575168
000150 ef 4c 58 bd 83 b5 04 3e cd be 7c bc 03 58 e6 bc
       -0.052807745 0.12959866 -0.01542635 -0.02811814
000160 7e f5 0d bd b6 0d e1 bd cd 66 8e 3d 06 10 af bc
       -0.034657948 -0.10988943 0.069532014 -0.021369945
000170 9b 90 d7 bd 4b f7 8c bb 0d ac 49 bb dd 8c 39 bc
       -0.10525628 -0.0043019406 -0.0030772716 -0.011325088
000180 37 e8 9b bc 56 87 98 bd 75 ad e6 3c ec 9c 54 bd
       -0.019031627 -0.07447688 0.028158883 -0.051907465
000190 af 0f 00 ba 0b 56 a8 bd 2c 83 04 bd ff 1a 55 bd
       -0.00048851495 -0.082195364 -0.032351658 -0.0520277
0001a0 58 8e ad bd 4f 84 de 3c 73 be e2 39 f4 45 dd bc
       -0.084744155 0.027162699 0.00043247975 -0.027010895
0001b0 3d 91 92 3d e1 c1 86 bd d2 50 72 3d 4b 44 12 be
       0.07156608 -0.06579948 0.059159108 -0.14283864
0001c0 db 8b 48 3d e4 24 a5 3d 84 ee 62 bc ab 24 d6 3d
       0.0489615 0.08063677 -0.013850812 0.104562126
0001d0 3e 19 13 bd 0b ec f8 3b 87 05 80 bc 9d 2b 98 bd
       -0.035912745 0.007596498 -0.015627636 -0.074301936
0001e0 70 c9 52 bd fb 72 83 3d ca bb cb bd 49 95 ae bd
       -0.051461637 0.06418415 -0.09947927 -0.08524568
0001f0 30 5e c4 bc cb 23 eb bc 6c ec a9 bd 51 73 13 bd
       -0.023970693 -0.02870359 -0.08297047 -0.035998646
000200 c0 fe b4 bd 14 a2 a3 3c cc 27 86 3c a6 e3 c0 bd
       -0.08837652 0.019974746 0.016376399 -0.094184205
000210 ef cb 44 3d c1 32 00 3d 1c 24 b4 3d 91 43 a8 3d
       0.04804605 0.031298403 0.0879595 0.08216012
000220 34 a0 e6 3d d0 48 f4 3c 26 5a 91 3d 6b 5d d2 3d
       0.11261025 0.029819876 0.070972726 0.10271724
000230 11 19 68 bd 18 7e cc bd 20 c9 1c 3d f1 66 34 3d
       -0.05666453 -0.09984988 0.038277745 0.044043485
000240 a3 f5 84 3d 4f ef 8d bd ff 09 37 3b 54 5c 49 3d
       0.06492164 -0.0693041 0.0027929542 0.049160317
000250 c9 29 1f bd fe 9b b4 bc 23 d8 cb 3d 5b cd 45 3d
       -0.03885821 -0.02204704 0.09953334 0.048291545
000260 d2 a3 03 bd 1a 14 25 bd 5c 7c 66 bd 3c cb 32 3d
       -0.032138653 -0.040302373 -0.056270942 0.04365085
000270 13 75 b5 3d e2 5c f9 bc 60 bf 8f bd 1d 4c a8 3d
       0.08860221 -0.030439798 -0.07018924 0.082176425
000280 ad 29 6f bd 19 9e 0a 3d 88 d2 bb 3c 6d 19 07 3e
       -0.058389354 0.03384218 0.022927538 0.13193293
000290 c9 4f a7 bb 41 e8 45 3d 64 9b a8 bd 93 27 af bc
       -0.0051059467 0.048317198 -0.082327634 -0.021381175
0002a0 e4 da a0 3d f4 30 f5 bc 25 99 f8 3d 6e a1 b7 bc
       0.0785425 -0.02993057 0.12138585 -0.022415843
0002b0 dd 3e 8b bd 1c b9 33 bd f5 a9 cd bd 4d 78 4f 3d
       -0.067990996 -0.043877706 -0.10042182 0.050651837
0002c0 b9 cc 3e bd 39 80 8c 3d 47 01 02 3c 8d 40 b9 3d
       -0.046581957 0.06860394 0.007934875 0.09045515
0002d0 80 9c 80 3d f9 2f a0 bd 0e e1 c5 bd 55 d5 bb 3d
       0.0627985 -0.0782165 -0.096620664 0.09171549
0002e0 73 6c 94 bd a7 85 87 bd e3 a7 bd bd c9 e5 b8 bd
       -0.072472475 -0.06617289 -0.092605375 -0.09028203
0002f0 8d 49 c8 bd 21 8f 82 bd 4e 5f d6 3d d2 75 da bb
       -0.09779654 -0.06374956 0.10467397 -0.0066668773
000300 c9 e6 15 3c 5a 41 3c bd 07 2d 94 bd 8e 1f 10 3e
       0.009149262 -0.04596076 -0.07235151 0.14074537
000310 15 93 da 3d 3b 45 86 3d bf c5 a9 3d ea 3a f8 3d
       0.10672585 0.065561734 0.0828967 0.12120612
000320 c2 32 40 bd 4d 61 e6 bd 8c 36 d5 3d 5c ec 4c bc
       -0.046923406 -0.112490274 0.104107946 -0.012507524
000330 09 ec 5f bd 24 66 cd 3c e1 0f 0e 3e cb 7d c7 bd
       -0.05466846 0.025073119 0.13873245 -0.0974079
000340 64 55 64 bc b0 d0 77 bb ee 1d b1 bb 6f fb c6 bd
       -0.013936374 -0.0037813596 -0.005405179 -0.09715926
000350 3b 04 cf 3c 05 f7 af bd 24 d0 4f 3c 23 31 e6 3d
       0.025270572 -0.08592037 0.012683902 0.11239841
000360 09 d0 2c 3d 71 45 26 bd f7 72 41 3c 91 dd a8 39
       0.042190585 -0.04059357 0.011807195 0.00032208537
000370 6d 13 2f 3e 03 2c b0 3d 5d 33 27 3d b5 1b a1 3d
       0.17097254 0.086021446 0.04082047 0.07866613
000380 96 ba 8e bc ae 0d 39 3e 31 2b f6 3b ad c4 95 3d
       -0.017422955 0.18071625 0.007512473 0.073129036
000390 84 02 11 be 42 b5 c0 bd 27 a7 6c bb c5 a7 c8 3c
       -0.14161116 -0.09409572 -0.0036110373 0.024494061
0003a0 3d 30 85 bc 47 6a 28 bd 9b b8 ec 3b f8 b6 d5 3d
       -0.016258353 -0.04111698 0.007224155 0.10435289
0003b0 a0 f7 2f 3d bb 46 b5 3d a5 97 cc 3d 79 8e de 3c
       0.042960763 0.088513814 0.099898614 0.027167546
0003c0 de 97 b6 bc 5c 9a 27 bd 25 a4 0a be bd c9 9f 3d
       -0.022289213 -0.040918693 -0.13539179 0.078021504
0003d0 e0 d9 7d 3d 60 cd 90 bd cc 3d cc bc 38 27 84 bd
       0.06197536 -0.07070422 -0.02493181 -0.06452793
0003e0 fd 60 c9 3c c0 b0 8a 3c 55 f1 a4 3d 88 0a 96 bd
       0.02458238 0.016929984 0.08053843 -0.073262274
0003f0 50 36 1c 3d bb a0 b7 3b 65 75 89 be 76 81 1e 3e
       0.038137734 0.0056038774 -0.26847377 0.15479073

a2c_network.mu.bias f4 [8]
000000 ff 47 21 bd da fc 18 3d 6a 89 86 bd 35 cc 8b bd
       -0.0393753 0.037350513 -0.065691784 -0.06826059
000010 2f 6e 7c bd ab 3b fd bc 21 2d 4d bd 25 70 d2 bd
       -0.061628517 -0.030912241 -0.050091866 -0.10275296

exp_avg f4 [8]
000000 f4 2b 9e 3b 1b 34 d8 3b 04 50 b0 3b ec d6 b9 3b
       0.004827017 0.0065980083 0.0053806324 0.0056713726
000010 5b 56 21 3c 0e 2a 24 3c 17 aa d3 3b d2 19 2e 3c
       0.009847249 0.010019792 0.0064594853 0.010626273

exp_avg_sq f4 [8]
000000 39 fe 01 39 dc dd 0f 39 a4 60 fb 38 09 54 22 39
       0.00012397104 0.00013720192 0.000119866134 0.0001548083
000010 21 8c 7e 39 7d 81 9c 39 a3 a2 6d 39 b3 a3 4c 39
       0.0002427553 0.00029851115 0.00022662668 0.00019515939
